src/gen_models/celeba_gradient_ae_9408_generator.model (torch_old, 993139 bytes, 110 tensors)

inc.conv.conv.0.weight f4 [24, 3, 3, 3]
0	0xbdde7c7c	-0.10863587
1	0x3c9d3d6a	0.019194324
2	0xbced1711	-0.028941663
3	0x3d362f2f	0.04447859
4	0x3e206afc	0.15665811
5	0x3e0a9012	0.13531521
6	0x3c1014d8	0.008794032
7	0xbc30f018	-0.01079943
8	0xbdda71c2	-0.10666229
9	0x3e3f43d9	0.18678226
10	0x3e30e624	0.17275292
11	0x3d9822c4	0.07428506
12	0x3dc0e5c5	0.09418825
13	0x3d83fdfa	0.064449266
14	0x3ccf82d6	0.025330942
15	0xbb2a6ce8	-0.0026004855
16	0x3de9b8db	0.114122115
17	0xbd5a86c8	-0.053351194
18	0x3d36f686	0.044668697
19	0x3da780fe	0.081789
20	0xbcc8f5dc	-0.024531297
21	0x3e6f4762	0.23367074
22	0x3d424d46	0.047436975
23	0x3d7b8e4f	0.061415013
24	0x3e0a4ddf	0.13506268
25	0x3de19980	0.11015606
26	0x3da4ebe7	0.08052807
27	0x3e2d4ac4	0.16923052
28	0x3cc56c26	0.02409942
29	0x3dabb3b6	0.083838865
30	0x3d8fdce1	0.07024551
31	0x3d8895c0	0.066691875
32	0xbcebc87d	-0.028782124
33	0x3e9f784e	0.31146473
34	0xbe60b198	-0.21942747
35	0x3e1ebdef	0.15502141
36	0xbe019398	-0.12653959
37	0xbcea95aa	-0.028635819
38	0xbc731e3e	-0.014838753
39	0xbcd5d6ac	-0.02610334
40	0xbddd753f	-0.108133785
41	0x3e1621d4	0.14661342
42	0x3ecefa09	0.40425137
43	0x3d189391	0.037250105
44	0xbd8e383a	-0.06944318
45	0xbc11ce96	-0.008899352
46	0x3d3dbe99	0.046324346
47	0xbdc2edca	-0.09518011
48	0xbe033d1e	-0.12816283
49	0x3d8c7fd3	0.06860318
50	0xbdee011b	-0.116213046
51	0xbe411bed	-0.18858309
52	0xbe5a09e5	-0.21292837
53	0x3c4c1cd6	0.012458047
54	0x3e64c684	0.22341353
55	0xbd9ad017	-0.07559221
56	0xbce6efff	-0.02819061
57	0x3db46604	0.088085204
58	0xbd1d27ad	-0.038367916
59	0x3d8f2bda	0.06990786
60	0x3d0eb8ef	0.034844335
61	0x3dcdadb4	0.10042897
62	0xbc9941c9	-0.018708127
63	0x3e9bf73c	0.30462062
64	0xbdfe0e9a	-0.12405129
65	0xbda405f2	-0.080089465
66	0x3cb23e85	0.021758327
67	0x3db4ce7d	0.08828447
68	0xbcb355ce	-0.0218915
69	0xbcb3b93e	-0.021938916
70	0xbd1135ec	-0.035451815
71	0x3e035dd7	0.12828766
72	0x3dcda752	0.100416794
73	0x3df3d9af	0.11906754
74	0x3e3f32ff	0.18671797
75	0xbdbbbdf2	-0.091670886
76	0xbcfd77a7	-0.030940844
77	0xbde3631e	-0.111028895
78	0x3d0fd834	0.035118297
79	0x3df6c4ee	0.1204928
80	0xbd3eb344	-0.04655768
81	0xbc5f0275	-0.013611426
82	0xbdc80e9e	-0.09768413
83	0xbd3ff7d6	-0.046867214
84	0xbd35e4c3	-0.044407617
85	0xbcb8405b	-0.022491625
86	0x3e23fc43	0.16014199
87	0x3d1546c5	0.036444444
88	0x3bff4374	0.0077900235
89	0xbd118aa2	-0.0355326
90	0xbe2faa71	-0.17154862
91	0xbdd3d1b4	-0.10342732
92	0xbd55b2ef	-0.052172597
93	0xbd006ccd	-0.03135376
94	0xbdcdd42b	-0.100502335
95	0xbe3d0086	-0.18457231
96	0xbe6553ec	-0.22395295
97	0xbda0b678	-0.07847303
98	0xbe5a34f0	-0.21309257
99	0xbd6c89e1	-0.05774868
100	0x3dd6be6c	0.10485539
101	0x3ca06d20	0.019583285
102	0x3d211d0e	0.03933435
103	0xbd74c2a5	-0.05975594
104	0x3da147dd	0.07875035
105	0x3d077d23	0.033078324
106	0xbe2e48e1	-0.17019989
107	0x3dae3884	0.08506873
108	0xbe4dd289	-0.20099844
109	0x3d685957	0.056725826
110	0xbc522135	-0.0128253
111	0x3b0d8a6b	0.0021597396
112	0x3e0ce2b2	0.13758352
113	0x3d8e3a7f	0.06944751
114	0xbe852605	-0.2600557
115	0x3d637288	0.055529147
116	0xbd05f5a1	-0.032704953
117	0xbe3b6d9f	-0.18303536
118	0x3dc0601d	0.09393332
119	0x3e3e2d8b	0.18572061
120	0xbdc1102d	-0.094269134
121	0xbe806492	-0.2507673
122	0xbd10f27c	-0.0353875
123	0xbe191463	-0.14949183
124	0x3e118a0d	0.14212818
125	0x3e65e0d3	0.22449045
126	0xbd89affa	-0.06723018
127	0xbc8f3b77	-0.01748441
128	0xbd2783c5	-0.04089715
129	0xbd19b8ba	-0.037529685
130	0x3e29bc03	0.16575627
131	0x3b658b96	0.0035025827
132	0xbe4e87eb	-0.20169036
133	0xbd14097c	-0.036141858
134	0xba87b546	-0.0010353706
135	0xbcb42017	-0.021987958
136	0xbe14c058	-0.14526498
137	0x3c9b8a82	0.018986944
138	0x3cf7aa8d	0.030232692
139	0x3d96e753	0.0736834
140	0x3d4592fd	0.048235882
141	0x3da9d1e9	0.0829199
142	0xbd56b926	-0.052422665
143	0x3e3384af	0.17531084
144	0x3dacede1	0.08443809
145	0x3d0dd46e	0.034626417
146	0xbe0dcd9c	-0.13847965
147	0xbe0709a6	-0.13187274
148	0x3c5ddfd2	0.013542132
149	0xbe709ecd	-0.23498078
150	0x3d1bdd4d	0.038052846
151	0xbbf8d14e	-0.0075933104
152	0xbe63bb59	-0.22239436
153	0xbc5f9c7c	-0.013648149
154	0x3c6a78e8	0.014311053
155	0x3d9a7013	0.07540908
156	0x3de2237c	0.11041924
157	0xbcfc21cf	-0.03077784
158	0x3d6b8790	0.05750233
159	0x3db62a64	0.08894804
160	0x3d8cfc30	0.068840384
161	0x3e31546a	0.17317358
162	0xbe38cac8	-0.18046105
163	0xbe094a65	-0.13407286
164	0xbb9c9805	-0.0047788643
165	0xbdb93827	-0.09043913
166	0x3de804a9	0.11329014
167	0xbd158ded	-0.036512304
168	0x3e0265ef	0.12734197
169	0xbd9af43c	-0.07566115
170	0x3d671944	0.05642058
171	0xbe9c9c0e	-0.3058781
172	0xbd8ae921	-0.06782747
173	0xbdf436f0	-0.11924541
174	0x3e1f6c3c	0.15568632
175	0xbd18f8ca	-0.03734664
176	0x3ccc1b54	0.024915375
177	0x3e1a0648	0.15041459
178	0x3e038246	0.12842664
179	0x3db39efb	0.087705575
180	0xbd2a07ec	-0.04151146
181	0x3d0f423a	0.034975268
182	0x3c949c08	0.018140808
183	0xbd8fe712	-0.07026495
184	0xbdff8e1a	-0.124782756
185	0xbd033e1a	-0.032041647
186	0x3e54f41b	0.20796244
187	0x3e2123ba	0.15736285
188	0x3a33bd2d	0.00068564975
189	0x3ead6219	0.33863905
190	0xbd05d9d4	-0.03267844
191	0x3e3468c3	0.17618088
192	0x3cf8843a	0.030336488
193	0xbeb120d4	-0.34595358
194	0xbea48254	-0.32130682
195	0x3e2b9915	0.16757615
196	0x3dd1d1f8	0.102451265
197	0x3e1fb940	0.15598011
198	0xbe957d29	-0.29197052
199	0x3d49cdd1	0.049268547
200	0xbdf2637a	-0.1183538
201	0xbca8a0fd	-0.020584578
202	0x3e759ac8	0.23984826
203	0x3e45e960	0.19327307
204	0xbe2bb04c	-0.1676647
205	0xbde826b4	-0.11335507
206	0xbc6679ae	-0.014067097
207	0x3de6fd53	0.112787865
208	0xbbb12be6	-0.0054068444
209	0x3d81f67b	0.063458405
210	0x3c7835d2	0.0151495505
211	0xbce1c534	-0.027559854
212	0x3d3094fd	0.043110836
213	0x3e49ee12	0.19719723
214	0x3daf4eb0	0.0855993
215	0xbe2782f4	-0.16358548
216	0x3d400b19	0.046885584
217	0xbdafe9c9	-0.08589513
218	0xbda32ebe	-0.079679
219	0x3d0727ca	0.03299693
220	0xbe1b782b	-0.15182559
221	0x3d809b5b	0.06279632
222	0xbc19e127	-0.009392059
223	0xbc26b11e	-0.010174064
224	0x3dc4917d	0.09598062
225	0xbe0496d7	-0.12948166
226	0xbdd87b4f	-0.10570394
227	0xbd0f1576	-0.034932576
228	0x3d078a94	0.033091143
229	0xbc5e656b	-0.013573985
230	0xbd4abf05	-0.049498577
231	0xbe835b13	-0.25655422
232	0xbd4c13f5	-0.04982372
233	0xbcf68f66	-0.030097675
234	0xbe1669fd	-0.14688869
235	0x3baaf503	0.005217196
236	0xbdd20f24	-0.10256794
237	0x3d5f19a6	0.05446782
238	0x3df44f8f	0.11929237
239	0xbd8bd330	-0.0682739
240	0xbdda1e92	-0.10650362
241	0xbd3e9f0a	-0.04653839
242	0x3cb61264	0.022225566
243	0xbcc66b3f	-0.02422106
244	0xbd0a1e6b	-0.033720415
245	0xbe3bc03b	-0.18335049
246	0xbd64958e	-0.05580669
247	0xbd918620	-0.071056604
248	0x3d187ecd	0.0372303
249	0xbc68efa7	-0.014217294
250	0xbd92da60	-0.07170558
251	0xbebdef82	-0.37096792
252	0x3c2cb023	0.010540041
253	0xbc5fe275	-0.013664831
254	0x3d21f59f	0.039540883
255	0x3d106177	0.0352492

inc.conv.conv.0.bias f4 [24]
0	0x3cf2d4c9	0.02964248
1	0xbe33e61c	-0.17568249
2	0x3dd39a01	0.10332108
3	0xbc840363	-0.016114896
4	0xbd67f26e	-0.056627683
5	0xbdbcf098	-0.09225577
6	0x3db7844a	0.08960779
7	0x3d9b3af0	0.07579601
8	0x3d6aa73c	0.057288393
9	0x3e385161	0.17999794
10	0x3de49916	0.11162011
11	0xbdd34661	-0.10316158
12	0x3e0d3f47	0.1379367
13	0x3d9ddfbf	0.07708692
14	0xbe05f7c4	-0.13082796
15	0x3da5e228	0.080997765
16	0xbdbb6d3e	-0.09151696
17	0x3e2b1099	0.1670555
18	0xbe23dc12	-0.16001919
19	0x3d0be993	0.0341583
20	0xbd552c1d	-0.052044023
21	0xbe0d669a	-0.1380867
22	0xbc3e8c6b	-0.011630158
23	0x3d1d18cb	0.038353723

inc.conv.conv.1.weight f4 [24]
0	0x3f512c30	0.8170805
1	0x3f7f3967	0.99696964
2	0x3f76cc80	0.9640579
3	0x3f5ea824	0.8697531
4	0x3f820a0c	1.0159316
5	0x3f5246d4	0.82139325
6	0x3f80bacf	1.005701
7	0x3f924777	1.1428059
8	0x3f440737	0.7657351
9	0x3f5ed9bb	0.8705098
10	0x3f6f58ef	0.93495077
11	0x3f831b3b	1.0242685
12	0x3f4efc05	0.808533
13	0x3f61c5e0	0.8819256
14	0x3f59073b	0.8477666
15	0x3f744787	0.9542164
16	0x3f748822	0.9552022
17	0x3f692b55	0.91081744
18	0x3f8701de	1.0547445
19	0x3f70a36d	0.9399937
20	0x3f5fbad0	0.8739443
21	0x3f729719	0.94761807
22	0x3f6ff6e9	0.9373613
23	0x3f5cf33b	0.8630864

inc.conv.conv.1.bias f4 [24]
0	0xbf25bc21	-0.64740187
1	0xbb91df3f	-0.004451662
2	0x3b91d920	0.004450932
3	0x3dce7873	0.100815676
4	0xbeee10f6	-0.46497315
5	0x3f54dc2a	0.83148444
6	0xbaa67194	-0.0012698644
7	0xba65e60d	-0.0008769937
8	0x3f559e44	0.8344462
9	0xbf5e4801	-0.8682862
10	0x389f40a2	7.5937496e-05
11	0x3b78db66	0.0037972569
12	0xbf1101af	-0.56643194
13	0xbdb44e61	-0.08804012
14	0xbf68ebf1	-0.9098502
15	0xbe41704f	-0.18890499
16	0x3b9fc7c4	0.004876109
17	0xbeedcc51	-0.46444944
18	0xbbaf47a6	-0.0053491173
19	0x3b4b39de	0.0031009833
20	0x3f1bbdec	0.6083667
21	0x3e970dc5	0.29502693
22	0xbbd0b785	-0.0063695335
23	0xbef81964	-0.48456872

inc.conv.conv.1.running_mean f4 [24]
0	0x3cf2d3ae	0.029641952
1	0xbe340559	-0.17580165
2	0x3dd3ac9a	0.103356555
3	0xbc83cdbf	-0.016089318
4	0xbd680157	-0.056641903
5	0xbdbce8dc	-0.09224102
6	0x3db78677	0.08961194
7	0x3d9b78ea	0.07591422
8	0x3d6a9efb	0.05728052
9	0x3e3853ce	0.18000719
10	0x3de44ad6	0.11147086
11	0xbdd34e31	-0.10317648
12	0x3e0d43ec	0.13795441
13	0x3d9de354	0.07709375
14	0xbe05f88a	-0.13083091
15	0x3da5e62d	0.08100543
16	0xbdbb5def	-0.09148776
17	0x3e2b101c	0.16705364
18	0xbe23d4b5	-0.1599911
19	0x3d0c3ce5	0.03423776
20	0xbd553271	-0.052050058
21	0xbe0d681b	-0.13809244
22	0xbc3e7f71	-0.011627064
23	0x3d1d1665	0.038351435

inc.conv.conv.1.running_var f4 [24]
0	0x36ca0ce1	6.0215684e-06
1	0x361a45ef	2.2988495e-06
2	0x362eca16	2.604565e-06
3	0x36d2ae22	6.2787594e-06
4	0x36bae064	5.5693545e-06
5	0x3606470c	2.000891e-06
6	0x368ce400	4.198868e-06
7	0x354f8e62	7.7320703e-07
8	0x3648647c	2.9860812e-06
9	0x3622a8cf	2.423814e-06
10	0x3690804d	4.3064706e-06
11	0x35f3fe62	1.8178946e-06
12	0x36d1ae7a	6.248997e-06
13	0x360e95ef	2.1246922e-06
14	0x361f3dd5	2.3728837e-06
15	0x36d4417e	6.3257166e-06
16	0x361e68c1	2.360481e-06
17	0x3731611a	1.057263e-05
18	0x3575ea3e	9.161048e-07
19	0x3704fc0b	7.926496e-06
20	0x35e3490f	1.6934081e-06
21	0x35f5cfd1	1.8314405e-06
22	0x366c0b60	3.5173362e-06
23	0x371350f2	8.780729e-06

inc.conv.conv.3.weight f4 [24, 24, 3, 3]
0	0xbb8fc134	-0.0043870453
1	0x3d1b3d3c	0.037900195
2	0xbd218f27	-0.03944316
3	0xbbe95bb2	-0.0071215266
4	0xbcb303f7	-0.021852477
5	0xbd22fe76	-0.039793454
6	0x3d0f0627	0.034917977
7	0xbd1544f4	-0.036442712
8	0x3c91bd19	0.017790364
9	0x3d77115d	0.060319293
10	0xbc9c0879	-0.019047009
11	0x3d0b5dbf	0.03402495
12	0x3c809a88	0.015698686
13	0xbc3979f8	-0.0113205835
14	0xbd17a7b0	-0.037025154
15	0x3c3af032	0.011409806
16	0x3cceb899	0.025234507
17	0xbccf6c14	-0.02532009
18	0x3e02bcfb	0.12767403
19	0x3d213b13	0.03936298
20	0x3c54963c	0.012975272
21	0x3da625ee	0.08112703
22	0x3af9b76a	0.0019051854
23	0xbd174eed	-0.036940504
24	0xbd28823b	-0.041139822
25	0x3d0c4403	0.03424455
26	0xbdaa1543	-0.083048366
27	0x3d055052	0.032547303
28	0x3dae3c74	0.08507624
29	0x3d804e06	0.06264882
30	0x3d9f21dd	0.07770131
31	0x3dcfdda7	0.10149699
32	0x3d4c7a8e	0.049921565
33	0x3dbd93c3	0.09256699
34	0xbdb59013	-0.088653706
35	0x3cf13255	0.029442945
36	0xbc2f0081	-0.0106812725
37	0xbd20b4ac	-0.039234802
38	0xbcfe758a	-0.031061906
39	0x3dcf9ef1	0.101377375
40	0x3d710269	0.05884019
41	0xbdb809a7	-0.08986216
42	0x3e61d71d	0.22054715
43	0x3da45be4	0.08025339
44	0xbd80f26a	-0.06296237
45	0xbd8912da	-0.06693049
46	0x3d742332	0.059603877
47	0x3d13c177	0.036073174
48	0xbdf00649	-0.11719949
49	0x3d63364c	0.055471703
50	0xbd8803ce	-0.06641351
51	0xbd8b19bc	-0.06792018
52	0xbc99a25d	-0.018754179
53	0x3d4d706c	0.050156042
54	0x3e8774ac	0.264562
55	0x3da0e188	0.07855517
56	0x3de436c9	0.11143262
57	0x3e6ab815	0.22921784
58	0x3dc0afc8	0.094085276
59	0x3dae7271	0.08517922
60	0x3e1aaa2a	0.15103975
61	0x3dbb2ddf	0.091396086
62	0x3dad4d76	0.0846204
63	0x3d451fd5	0.04812606
64	0xbcb2b8c4	-0.021816619
65	0x3d312cb0	0.043255508
66	0x3e02714a	0.12738529
67	0x3d60ffc7	0.05493143
68	0x3cc50d04	0.024054058
69	0x3e3c2226	0.18372402
70	0x3d7e3c84	0.06206943
71	0xbdb21522	-0.08695437
72	0x3ce41196	0.027840417
73	0x3de24bd2	0.11049618
74	0x3cdafaa7	0.026730848
75	0x3df2cacc	0.11855087
76	0x3deb8bbb	0.11501261
77	0x3dad38f3	0.08458128
78	0x3dc6af20	0.09701371
79	0xbc381df5	-0.011237611
80	0x3c3d47b8	0.011552744
81	0x3d452df4	0.048139527
82	0x3d706234	0.058687404
83	0xbd57c7be	-0.052680723
84	0x3c8eb786	0.017421495
85	0x3c9f836b	0.019471845
86	0x3d2462dc	0.040133342
87	0xba04a842	-0.0005060473
88	0xbb819f74	-0.003955776
89	0xbc638b5f	-0.013888209
90	0xbca89af0	-0.020581692
91	0x3d17c693	0.03705461
92	0xbddc1658	-0.10746449
93	0x3d48e820	0.049049497
94	0xbae17055	-0.0017199615
95	0xbd85f5b4	-0.06541005
96	0xbccf4039	-0.025299178
97	0x3d84341d	0.06455252
98	0x3cc1a6a5	0.023639033
99	0x3d8841a1	0.06653143
100	0x3d5ff20b	0.05467419
101	0xbd07ebfb	-0.033184033
102	0xbbcfde8f	-0.0063436697
103	0x3c719957	0.014746032
104	0xbc042c74	-0.008067239
105	0x3dadbab9	0.0848288
106	0x3d1b229f	0.037874814
107	0x3d11ad25	0.035565514
108	0x3d6dcfb1	0.058059398
109	0x3cd3467c	0.025790446
110	0xbd01d451	-0.03169662
111	0x3df0cacc	0.117574304
112	0x3cdce60d	0.026965166
113	0xbd779e53	-0.060453724
114	0x3dc19df3	0.094539545
115	0xbcdfe194	-0.027329244
116	0x3c268c2b	0.010165255
117	0xbdae8a95	-0.08522526
118	0x3dae654b	0.08515414
119	0xbc819799	-0.015819358
120	0x3da85780	0.08219814
121	0x3d72add6	0.059247814
122	0xbda39dc9	-0.079890795
123	0x3d1426b2	0.036169715
124	0xbc757c11	-0.014983193
125	0x3b867b8a	0.0041040825
126	0xbd09468b	-0.03351454
127	0x3ca2fe0d	0.019896531
128	0xbd856f2f	-0.06515347
129	0x3d49067e	0.049078457
130	0x3e05da11	0.13071467
131	0xbc9ad12f	-0.018898575
132	0x3d8b1551	0.06791175
133	0x3dba4d16	0.09096734
134	0x3dac2bb6	0.08406775
135	0x3d925c83	0.071465515
136	0x3dd8886b	0.10572895
137	0xbccee1f3	-0.025254225
138	0x3da1f060	0.07907176
139	0x3db802d3	0.08984914
140	0x3d4a356c	0.049367353
141	0x3dafeb44	0.08589795
142	0xbc67cf0e	-0.014148487
143	0x3d90493d	0.07045219
144	0x3d99cc54	0.075096756
145	0x3cc2bf02	0.02377272
146	0x3d5b7b73	0.053584527
147	0xbc487f7c	-0.012237426
148	0x3d1a82ca	0.037722386
149	0xbd7e34b3	-0.062061977
150	0xbd196cf5	-0.037457425
151	0x3c32b68d	0.010907781
152	0xbd908ce9	-0.070581265
153	0xbd04c789	-0.032416854
154	0xbdbb3e44	-0.091427356
155	0xbe0a3208	-0.13495648
156	0x3c98dbcc	0.018659495
157	0xbd5e64bc	-0.054295287
158	0xbc5d1580	-0.0134938955
159	0xbc61f828	-0.013792075
160	0xbcd2968e	-0.025706556
161	0xbd0a3277	-0.033739533
162	0xbbe6e295	-0.0070460537
163	0x3d522eda	0.051314212
164	0xbdfcc4fa	-0.12342258
165	0xbd1342ff	-0.035952564
166	0x3b8557e6	0.004069316
167	0xbda05e86	-0.07830529
168	0xbddef0db	-0.10885783
169	0x3cdc81a4	0.026917286
170	0xbd463ec6	-0.04839971
171	0xbd88eb98	-0.06685561
172	0xbd777c45	-0.060421247
173	0xbd814036	-0.063110754
174	0xbd8dad4c	-0.069178194
175	0xbd244fa3	-0.04011501
176	0xbddce953	-0.107866906
177	0x3c4cb2d5	0.012493809
178	0xbbdf2285	-0.006809535
179	0xbcbc415f	-0.02298039
180	0xbcf39848	-0.0297357
181	0x3d1a7f2e	0.037718944
182	0x3dac54d6	0.08414619
183	0x3bd71b14	0.0065645073
184	0x3d624cd5	0.055249054
185	0x3c2ba117	0.0104754185
186	0xbc4c798b	-0.01248015
187	0x3d477a0a	0.04870037
188	0x3d5832db	0.052782875
189	0x3d10fe59	0.035398815
190	0x3c4e3bc8	0.012587495
191	0xbd00f645	-0.03148486
192	0x3d3cf4f1	0.04613203
193	0x3cb2d03a	0.021827806
194	0xbd2466fa	-0.04013727
195	0x38639933	5.4263695e-05
196	0x3da79eeb	0.08184608
197	0xbcb2c904	-0.021824367
198	0x3d7d4422	0.061832555
199	0x3dd960e1	0.10614181
200	0x3deb12b8	0.1147818
201	0x3dcb539d	0.09928057
202	0x3df9de20	0.1220057
203	0x3d558d75	0.052136857
204	0x3d872e81	0.06600667
205	0x3c0fb9ae	0.008772297
206	0xbcb58e7f	-0.022162674
207	0x3db5980e	0.08866893
208	0x3e1249de	0.1428599
209	0x3d84f596	0.06492154
210	0x3abea338	0.0014544493
211	0xbcb16b32	-0.02165756
212	0xbbfbb583	-0.00768155
213	0x3c737908	0.014860399
214	0x3b125f36	0.0022334582
215	0xbcdc18a8	-0.026867226
216	0xbd9d0768	-0.07667428
217	0x3c86eecc	0.01647129
218	0x3cf0c57c	0.029391043
219	0xbcf48385	-0.02984787
220	0x3d8810f3	0.06643858
221	0x3d0a69a4	0.033792153
222	0x3d6a1505	0.057148952
223	0x3b5c24ca	0.0033591264
224	0x3c27a8ae	0.010233087
225	0x3dd07e89	0.10180385
226	0x3d26e245	0.04074313
227	0x3aecd543	0.0018068928
228	0x3df09bf6	0.11748497
229	0x3ab583e2	0.0013848508
230	0x3d1b8fea	0.037979044
231	0x3e0a4510	0.13502908
232	0x3de52302	0.11188318
233	0x3dd55465	0.104164876
234	0x3dde316d	0.10849271
235	0x3cfd8f97	0.030952258
236	0xbb1e11c6	-0.002411948
237	0x3db4790f	0.088121526
238	0x3cf7e8a8	0.030262306
239	0xbd73e5b4	-0.059545234
240	0x3d035125	0.032059807
241	0x3c1d0609	0.009583958
242	0xb9d5eb25	-0.00040801722
243	0x3e211bdb	0.15733282
244	0xbc91dcc7	-0.01780547
245	0x3d3325ce	0.043737225
246	0x3cb73086	0.022362005
247	0xbb00ec00	-0.0019671917
248	0xbc0cd6ba	-0.008596117
249	0xbc832f18	-0.016013667
250	0x3a857784	0.0010182713
251	0xbdb23861	-0.0870216
252	0x3e0066a0	0.12539148
253	0x3df3e2c0	0.119084835
254	0x3c460a45	0.012087409
255	0x3d90f7f2	0.07078542

inc.conv.conv.3.bias f4 [24]
0	0x3d7bd238	0.061479777
1	0x3d24ff12	0.040282317
2	0x3cb80829	0.022464829
3	0x3c5eeac1	0.013605774
4	0xbd39dca6	-0.045376442
5	0x3cb1c445	0.021700034
6	0xbca294a7	-0.019846274
7	0xbd1fd17a	-0.03901813
8	0x3d06cba2	0.032909043
9	0xbd3cc465	-0.046085734
10	0xbcb00ba5	-0.021489928
11	0x3d20f5bb	0.039296847
12	0xbd666385	-0.056247253
13	0x3ccc0106	0.024902832
14	0x3d8aba54	0.067738205
15	0xbcc75253	-0.024331247
16	0xbd204dbe	-0.03913664
17	0xbc8d7c8a	-0.017271299
18	0xbccc1fec	-0.024917565
19	0xbd353389	-0.0442386
20	0xbd89db55	-0.067312874
21	0xbcfea60e	-0.03108504
22	0xbc8a4c3a	-0.01688205
23	0xb73effbb	-1.1384424e-05

inc.conv.conv.4.weight f4 [24]
0	0x3f6883e6	0.9082626
1	0x3f7220c7	0.94581264
2	0x3f5b5f61	0.8569241
3	0x3f78a8f1	0.97132784
4	0x3f4dc1c0	0.80373764
5	0x3f882f58	1.0639448
6	0x3f5c3fb8	0.8603473
7	0x3f3b6f8a	0.7321707
8	0x3f72a001	0.94775397
9	0x3fa233a5	1.2672011
10	0x3fa2eeed	1.2729164
11	0x3f4cb6c5	0.79966384
12	0x3f407e4d	0.7519272
13	0x3f82dac1	1.0223008
14	0x3f6ef0e2	0.9333631
15	0x3f68e334	0.90971684
16	0x3fa049c9	1.2522517
17	0x3f5f9144	0.8733103
18	0x3f6d91aa	0.9280039
19	0x3f944b9f	1.1585578
20	0x3f431cbb	0.76215714
21	0x3f4d0734	0.80089116
22	0x3f9ad7e0	1.209713
23	0x3f55a304	0.8345187

inc.conv.conv.4.bias f4 [24]
0	0x3e061a1d	0.13095899
1	0x3d43563f	0.047689673
2	0x3dc9345a	0.098244384
3	0x3f55b2f9	0.83476216
4	0x3e07bfd3	0.13256769
5	0x3f4b1f9e	0.7934512
6	0xbe549343	-0.20759301
7	0x3e7b7685	0.2455693
8	0x3d9722b1	0.07379664
9	0x3ef36a8e	0.47542232
10	0x3f4fcd6d	0.8117283
11	0xbe4fc1a9	-0.20288719
12	0x3de6cfc2	0.112700954
13	0x3f4ae7da	0.7926003
14	0xbc3bb92a	-0.011457721
15	0x3f18c81f	0.5968036
16	0x3f37a38b	0.7173392
17	0x3d1189f3	0.03553195
18	0x3bf1b523	0.0073763295
19	0x3f4278bf	0.75965494
20	0x3ea31a38	0.3185594
21	0x3ed2e2fe	0.41188806
22	0x3eef9055	0.46789804
23	0x3e9ec8cf	0.3101258

inc.conv.conv.4.running_mean f4 [24]
0	0x3f5f4e88	0.87229204
1	0x3e6d1103	0.2315102
2	0x3fa9118a	1.3208477
3	0xbe1cc38e	-0.15308973
4	0xbf1304cf	-0.5742921
5	0xbedcfc09	-0.43161038
6	0x3e929318	0.2862785
7	0x3e83015a	0.2558697
8	0x3ea830a5	0.32849613
9	0xbf5ab37e	-0.85430133
10	0xbfbf5c6a	-1.4950078
11	0xbd976a37	-0.07393306
12	0xbee5387e	-0.44769663
13	0xbfa9988a	-1.3249676
14	0x3ef69211	0.48158315
15	0xbc2a13dd	-0.010380712
16	0xbfc8d3de	-1.5689657
17	0x3dac9080	0.08425999
18	0xbeb63c03	-0.3559266
19	0xbf41af3c	-0.7565801
20	0xbf228d7e	-0.6349715
21	0x3ea704e9	0.32620934
22	0xbfb0e895	-1.3820978
23	0x3f4102fb	0.7539517

inc.conv.conv.4.running_var f4 [24]
0	0x3f3c49fe	0.73550403
1	0x3f1d3203	0.61404437
2	0x3f2a2946	0.6646923
3	0x3e9f4de8	0.31114125
4	0x3ea11efd	0.31468955
5	0x3e472dff	0.1945114
6	0x3f314e8f	0.69260496
7	0x3e2ba8c1	0.16763593
8	0x3f49fb6c	0.78899264
9	0x3da22740	0.079176426
10	0x3e7cafce	0.24676439
11	0x3eab9aac	0.33516443
12	0x3df5bdca	0.1199909
13	0x3f8711c5	1.0552298
14	0x3f27df5e	0.65575206
15	0x3e9bc270	0.30421782
16	0x3e1d2c6b	0.15348975
17	0x3f686fd1	0.9079562
18	0x3ea7a7e0	0.32745266
19	0x3ea5916e	0.32337517
20	0x3dfd0b83	0.12355711
21	0x3f6444ed	0.8916767
22	0x3e00ad44	0.12566096
23	0x3ed7f849	0.42181614

down1.mpconv.1.conv.0.weight f4 [24, 24, 3, 3]
0	0x3db62c8d	0.08895216
1	0xbd040815	-0.03223427
2	0xba1793b3	-0.0005782202
3	0x3d872dc8	0.06600529
4	0xbd0c512f	-0.03425711
5	0xbc960844	-0.018314488
6	0x3dc11012	0.09426893
7	0xbe3088f6	-0.17239746
8	0xbcbff5c3	-0.023432618
9	0x3d316123	0.043305527
10	0x3c004a89	0.007830271
11	0xbe0b8b54	-0.13627368
12	0x3c5db934	0.013532925
13	0xbd4ed4b5	-0.050495822
14	0xbdb34907	-0.08754163
15	0xbbb39bec	-0.005481234
16	0xbca4d68c	-0.020121835
17	0xbd79ca25	-0.060983796
18	0xbba0e9c1	-0.004910678
19	0x3d71a454	0.058994606
20	0xbdef35c2	-0.11680175
21	0xbd44b713	-0.048026156
22	0x3dde0c25	0.1084216
23	0xbbb09403	-0.005388738
24	0xbe17f499	-0.148394
25	0xbcd0a87f	-0.02547097
26	0xbc00095e	-0.007814733
27	0x3d127911	0.03575999
28	0xbc37c0b9	-0.011215382
29	0xbcd9d0ba	-0.026588786
30	0xbb93cbb6	-0.004510368
31	0xbd627e83	-0.055296432
32	0xbd96e301	-0.07367516
33	0xbe1d358a	-0.15352455
34	0xbcf93576	-0.030421
35	0x3d4ab0cb	0.04948501
36	0x3d94317e	0.072360024
37	0x3d4067c2	0.04697395
38	0xbdb15bdc	-0.08660099
39	0x3c905b79	0.017621743
40	0xbd61c606	-0.05512049
41	0xbd57e033	-0.052704047
42	0xbc58e714	-0.013238687
43	0x3d773351	0.060351674
44	0x3d30bb32	0.043147273
45	0xbd7f1f3c	-0.062285647
46	0x3da7f8f8	0.08201784
47	0x3d4cc54e	0.049992852
48	0xbd488aac	-0.048960373
49	0xbd982fdb	-0.07431003
50	0xbd9103c1	-0.07080794
51	0x3dab343c	0.08359572
52	0xbd85beec	-0.06530556
53	0xbd221253	-0.039568257
54	0x3da8f269	0.08249361
55	0x3ce00a44	0.027348645
56	0xbccdbbca	-0.025113959
57	0xbc37bf56	-0.011215052
58	0xbce9b8b8	-0.028530464
59	0xbbee2813	-0.007267961
60	0x3dc73c5e	0.09728311
61	0x3d21b03b	0.039474707
62	0xbd87d9c3	-0.066333316
63	0x3dbe13e0	0.092811346
64	0xbdc57b93	-0.096427105
65	0xbcbc71de	-0.023003515
66	0x3b1ac781	0.0023617449
67	0xbd20d623	-0.039266717
68	0xba88ef61	-0.0010447317
69	0x3dbe1bbb	0.09282633
70	0xbda30959	-0.07960767
71	0x3ceaebf8	0.028676972
72	0xbcca077c	-0.024661772
73	0x3d33fa46	0.04393985
74	0xbe2f6bc5	-0.17130955
75	0x3da82c7f	0.08211612
76	0x3d93f4f2	0.07224454
77	0xbe102e7a	-0.1408023
78	0x3e3bc7aa	0.18337885
79	0x3dec3c44	0.11534932
80	0x3dbfa440	0.093575
81	0xbd935c2b	-0.07195314
82	0x3cdd300f	0.027000455
83	0x3d4468c0	0.04795146
84	0xbcea5032	-0.028602693
85	0x3c809892	0.015697751
86	0xbd3d24e0	-0.046177745
87	0xbe046b33	-0.12931518
88	0xbca727e2	-0.02040476
89	0x3d9da178	0.07696813
90	0xbda62e8f	-0.08114349
91	0x3d75b6f8	0.059988946
92	0x3c8980b4	0.016785003
93	0xbd59c290	-0.053164065
94	0xbd719bfa	-0.05898664
95	0x3d88995c	0.06669876
96	0xbe1f742b	-0.15571658
97	0xbd725c0e	-0.05916982
98	0xbdca0f3c	-0.09866187
99	0x3c2c8f7c	0.010532256
100	0x3c9669a1	0.018360915
101	0xbdf1154a	-0.11771639
102	0xbd004b4f	-0.03132182
103	0xbba1df2d	-0.0049399347
104	0xbd8cdfc6	-0.06878619
105	0x3d9ac378	0.07556814
106	0x3d01cd04	0.03168966
107	0xbd9583e4	-0.07300547
108	0xbd4190be	-0.047257178
109	0x3a612111	0.0008587996
110	0x3d2e20de	0.042511813
111	0x3b0c94eb	0.0021451067
112	0xbd5f0f2b	-0.054457825
113	0xbd149811	-0.036277834
114	0x3e0ecb8f	0.13944839
115	0x3cb18332	0.021669004
116	0x3c67ca4a	0.014147351
117	0x3c6feec5	0.014644329
118	0x3cfc67e0	0.03081125
119	0xbd1919b1	-0.037378017
120	0x3e0f056d	0.13966914
121	0x3daff831	0.08592261
122	0x3b4a5bf1	0.0030877555
123	0x3defda6f	0.11711585
124	0x3e148c41	0.14506628
125	0x3d8e626e	0.06952368
126	0x3d0cc3cc	0.034366414
127	0xbe0f3723	-0.13985877
128	0x3bac87c7	0.0052652094
129	0x3d840fb3	0.06448307
130	0xbd9c7f29	-0.076414414
131	0x3d1ef3fe	0.038806908
132	0x3e3215f6	0.1739119
133	0x3dcb1a83	0.09917166
134	0x3cfb1191	0.030648025
135	0xbd694eaa	-0.056959786
136	0xbda48975	-0.0803403
137	0xbd09ec92	-0.033672877
138	0x3d602ece	0.054732136
139	0xbcff0442	-0.03112996
140	0xbce0985b	-0.027416399
141	0x3d262c48	0.040569574
142	0xbccc0bc3	-0.024907952
143	0xbc4f25b3	-0.012643266
144	0x3cd6612e	0.026169386
145	0x3d7637cc	0.060111806
146	0xbcd9baca	-0.026578326
147	0xbcab2ffa	-0.0208969
148	0x3d7a91b0	0.061174095
149	0x3cf2d738	0.02964364
150	0xbe0790c8	-0.13238823
151	0xbd211c53	-0.039333653
152	0xbd7c86e8	-0.061652094
153	0x3d83371e	0.06406997
154	0xbd7d78df	-0.06188285
155	0xbe30a415	-0.17250092
156	0x3e207d57	0.15672813
157	0xbd8aafbc	-0.067718
158	0x3d73f84d	0.05956297
159	0x3dbf0bf9	0.093284555
160	0x3c312d59	0.010814034
161	0x3e00879c	0.12551731
162	0x3d37e079	0.04489181
163	0x3c4d366b	0.012525181
164	0xbdd26faf	-0.10275208
165	0x3de69215	0.11258332
166	0x3d64254c	0.05569963
167	0xbc88bc2f	-0.016691295
168	0x3da20f04	0.0791302
169	0x3be9cff5	0.007135386
170	0x3d66a055	0.05630525
171	0xbd55ee51	-0.05222923
172	0x3c2b4960	0.010454506
173	0xbd8e1b50	-0.06938803
174	0xbd373027	-0.044723656
175	0x3d2c6322	0.042086728
176	0x3c4dd2f4	0.012562502
177	0xbde223a7	-0.110419564
178	0x3d6adcce	0.057339482
179	0xbdb466ce	-0.08808671
180	0xbd8b10fe	-0.067903504
181	0x3d328667	0.043585207
182	0xbe287d32	-0.16454008
183	0xbd28268a	-0.04105238
184	0x3d080742	0.033210047
185	0xbd25bcec	-0.040463373
186	0xbbe6ee0a	-0.0070474194
187	0xbcda0bf2	-0.026617024
188	0x3d1a41af	0.037660297
189	0x3cda9787	0.026683582
190	0x3cde11ef	0.02710816
191	0xbdf84a6d	-0.121235706
192	0xbd4077ef	-0.046989378
193	0xbceb06a8	-0.028689697
194	0xbd18e903	-0.037331592
195	0x3d1007b6	0.035163604
196	0x3ddf55df	0.109050505
197	0x3d060e86	0.032728694
198	0xbc24fc56	-0.010069927
199	0x3d333c36	0.043758593
200	0x3d51e55a	0.051244117
201	0xbd5eb8ed	-0.054375578
202	0xbc061adb	-0.008185114
203	0xbc214975	-0.009844174
204	0xbc6cefdc	-0.014461484
205	0x3d1aabaf	0.037761386
206	0x3d64ff3f	0.055907484
207	0x3d4bce9a	0.049757577
208	0x3d0d80e9	0.034546766
209	0xbd6f9ad3	-0.05849726
210	0x3d415bcb	0.04720668
211	0xbcf62aaf	-0.03004965
212	0xbd3e3cea	-0.04644481
213	0x3d8b3070	0.06796348
214	0xbc6c8ce8	-0.014437892
215	0x3dcf7682	0.101300254
216	0x3e6e2378	0.23255718
217	0x3d094412	0.033512183
218	0x3e30fd73	0.17284183
219	0x3dae09b9	0.08497948
220	0xbdb004c0	-0.08594656
221	0x3e14d56a	0.14534536
222	0xbd3678c7	-0.044548776
223	0xbd09a02a	-0.03360001
224	0x3d821797	0.06352156
225	0x3d596fbb	0.05308507
226	0x3cc6cdc5	0.02426804
227	0x3e290251	0.1650479
228	0xbb63b76c	-0.003474678
229	0xbdceb77e	-0.10093592
230	0xbdf1e1c0	-0.118106365
231	0xbd3c1131	-0.045914833
232	0xbce38869	-0.027775006
233	0xbd3fe275	-0.046846826
234	0xbc8c04b4	-0.017092086
235	0x3a531c1b	0.0008053199
236	0x3d65cbd5	0.056102592
237	0xbc0b1981	-0.008489967
238	0xbd6e4023	-0.058166634
239	0x3d486001	0.04891968
240	0xbbd9b83e	-0.006644278
241	0x3c4e9df8	0.012610905
242	0xbd8d024d	-0.068852045
243	0xbcb8866c	-0.022525035
244	0x3d24f005	0.040267963
245	0xbde40ebb	-0.11135622
246	0xbd84dae5	-0.06487063
247	0x3d35b583	0.044362556
248	0x3d86fd28	0.065912545
249	0xbdcb4bb5	-0.09926549
250	0xbd617cc1	-0.055050615
251	0xbd813843	-0.06309559
252	0xbdffabe5	-0.12483958
253	0x3db87b04	0.09007838
254	0xbe01590c	-0.12631625
255	0xbcb1602c	-0.021652304

down1.mpconv.1.conv.0.bias f4 [24]
0	0xbd495b97	-0.049159613
1	0xbd093c9e	-0.033505075
2	0x3cb51755	0.022105852
3	0x3d7daf5e	0.06193482
4	0xbc906b1c	-0.017629199
5	0xbd578d2a	-0.05262486
6	0xbcf9ea62	-0.03050727
7	0x3d11834b	0.0355256
8	0x3c726c01	0.014796258
9	0x3d721a48	0.059107095
10	0x3bb4fd7c	0.0055233818
11	0xbb5e3d58	-0.0033911075
12	0x3d5154a2	0.051106103
13	0x3d1eea37	0.038797583
14	0x3cd766a9	0.02629407
15	0x3d28daf7	0.041224446
16	0xbd766c5b	-0.06016193
17	0x3d6957b8	0.05696842
18	0x3d463b58	0.04839644
19	0xbcad6686	-0.021167051
20	0x3d622570	0.055211484
21	0x3d57c546	0.05267837
22	0x3c157d91	0.009124176
23	0xbd1c4151	-0.038148228

down1.mpconv.1.conv.1.weight f4 [24]
0	0x3f612717	0.8795027
1	0x3f78d1bd	0.97195035
2	0x3f647255	0.89236957
3	0x3f66b636	0.9012178
4	0x3f8b054a	1.0860989
5	0x3f82b542	1.0211565
6	0x3f72959d	0.9475954
7	0x3f6cbb34	0.9247315
8	0x3f88076f	1.0627269
9	0x3f6ae946	0.91762197
10	0x3f82023f	1.0156935
11	0x3f6055f3	0.8763115
12	0x3f6ad892	0.9173671
13	0x3f96aa62	1.1770747
14	0x3f76bc29	0.9638086
15	0x3f8cc16a	1.0996525
16	0x3f737d31	0.951129
17	0x3f82e5ec	1.0226417
18	0x3f7d752a	0.99006903
19	0x3f7de327	0.9917473
20	0x3fb852f7	1.4400319
21	0x3f90236e	1.1260812
22	0x3f8503bc	1.0391765
23	0x3f89cbd1	1.0765325

down1.mpconv.1.conv.1.bias f4 [24]
0	0x3dd3b552	0.103373185
1	0x3e411011	0.18853785
2	0x3d849c69	0.06475145
3	0xbe0bc9ce	-0.13651201
4	0x3e155f17	0.14587055
5	0x3bfbc5cf	0.0076834927
6	0x3d8d32a5	0.06894425
7	0x3e7f618f	0.2493956
8	0x3d88441a	0.06653614
9	0x3de8f021	0.11373926
10	0x3e6df28e	0.23237059
11	0xbe39b3bf	-0.18134974
12	0xbd8cbcb0	-0.06871927
13	0x3db07105	0.08615307
14	0x3c6a90df	0.0143167665
15	0xbd92610a	-0.07147415
16	0xbca73231	-0.020409675
17	0x3e15dbcf	0.14634632
18	0x3f056b6e	0.5211705
19	0xbed666a4	-0.41875184
20	0xbc162e36	-0.009166291
21	0xbe88ee65	-0.2674438
22	0x3e521a67	0.20517884
23	0x3e95f0c2	0.29285246

down1.mpconv.1.conv.1.running_mean f4 [24]
0	0xbf35c8bb	-0.71009415
1	0xc059edf8	-3.4051495
2	0xbfa813ad	-1.3131005
3	0x40096b70	2.1471825
4	0x3fee3788	1.8610697
5	0x3f6cc941	0.9249459
6	0x402cd05d	2.7002175
7	0xc03e4dd6	-2.9735007
8	0x406307e3	3.5473564
9	0xbfc1e67a	-1.5148461
10	0xc0062e4a	-2.0965753
11	0x4084fe50	4.156044
12	0x40023cfc	2.0349722
13	0xc019a20d	-2.4005158
14	0x3fcd4fc5	1.6039969
15	0x40e36743	7.106355
16	0xbf07ce74	-0.530494
17	0xbf88226a	-1.0635502
18	0xc09d9910	-4.9249344
19	0x409f4132	4.9767084
20	0x410b310c	8.699474
21	0x40ee8c54	7.45463
22	0xbfbf9739	-1.4968024
23	0x3f4edce3	0.80805796

down1.mpconv.1.conv.1.running_var f4 [24]
0	0x3f872787	1.0558938
1	0x3f682c7a	0.90692866
2	0x3fc5222d	1.5401055
3	0x3f96bfe2	1.1777308
4	0x3f92c9df	1.1467856
5	0x3f99c90f	1.2014483
6	0x4088922a	4.2678423
7	0x3fff2ee2	1.9936182
8	0x3fd82e6e	1.6889169
9	0x3f84f570	1.0387402
10	0x4005ee45	2.0926678
11	0x3fb02df5	1.3764025
12	0x3fdd74be	1.7301252
13	0x40b9c214	5.804941
14	0x3f82e753	1.0226845
15	0x3fd32934	1.6496949
16	0x3fa9f5be	1.327812
17	0x3fe809d2	1.8127997
18	0x3f9882fa	1.1914971
19	0x3fb765a1	1.432789
20	0x4038c15c	2.8868017
21	0x3ff88852	1.9416602
22	0x3f3a2a23	0.72720546
23	0x40961bd1	4.6908956

down1.mpconv.1.conv.3.weight f4 [24, 24, 3, 3]
0	0xbd65fb29	-0.056147728
1	0xbd457ba5	-0.04821362
2	0xbc01c925	-0.007921492
3	0xbd176b38	-0.036967486
4	0x3d1237d6	0.03569778
5	0x3d977eb1	0.07397211
6	0x3d310a3c	0.04322265
7	0x3de40267	0.11133271
8	0x3d50be6a	0.050962843
9	0xbd528fad	-0.05140655
10	0xbd906b33	-0.07051697
11	0xbe2001b7	-0.15625654
12	0xbe204564	-0.1565147
13	0xbd945620	-0.072429895
14	0xbdc872ab	-0.09787496
15	0xbdba6c81	-0.09102727
16	0xbda705ae	-0.0815538
17	0xbcebaad1	-0.028767975
18	0xbd4af651	-0.049551312
19	0xbd17d6de	-0.037070148
20	0xbdb06e25	-0.086147584
21	0xbb86adc9	-0.0041100723
22	0xbd84b9b8	-0.064807355
23	0xbdcb887b	-0.09938141
24	0xbd834633	-0.06409874
25	0xbd9412dd	-0.072301604
26	0x3c9f5fcb	0.019454857
27	0xbdfff8e7	-0.12498646
28	0xbd4da885	-0.05020954
29	0xbdb04dd3	-0.08608594
30	0x3d272905	0.040810604
31	0x3c49a9fa	0.012308592
32	0x3d6058fb	0.05477236
33	0x3df6b982	0.120471016
34	0x3dab9cbd	0.08379505
35	0xbc82f3f2	-0.015985463
36	0x3d5932aa	0.053026833
37	0x3c982ad7	0.018575115
38	0x3d802316	0.06256692
39	0xbdb7ff99	-0.08984298
40	0x3d78937a	0.06068752
41	0x3d9c15a9	0.07621319
42	0xbd4045cb	-0.04694156
43	0x3d9a2afe	0.07527731
44	0x3c9c3978	0.019070372
45	0xbc587de9	-0.013213613
46	0x3d3e3abe	0.04644274
47	0xbc520d2a	-0.012820521
48	0xbd5a61db	-0.05331598
49	0x3d858460	0.06519389
50	0xbd640f17	-0.055678453
51	0xbd00e779	-0.03147075
52	0x3e05a75e	0.13052127
53	0xbd9299ef	-0.07158267
54	0xbd385633	-0.04500408
55	0xbc7ae45e	-0.015313236
56	0xbd0400c4	-0.032227293
57	0x3dda5392	0.10660471
58	0x3d3b9a22	0.04580129
59	0x3df14e4e	0.117825136
60	0x3dd4d904	0.10392955
61	0x3de0c4db	0.10975047
62	0x3ddb6bc8	0.10713917
63	0xbe20f8c5	-0.15719898
64	0xbdaec3fd	-0.085334755
65	0xbacc4dfe	-0.0015587208
66	0xbd891f35	-0.066954054
67	0x3e15f77f	0.14645194
68	0x3d20b1fa	0.03923223
69	0x3da3c375	0.07996265
70	0x3e2295e5	0.15877493
71	0x3e007920	0.12546206
72	0xbdaa8b53	-0.08327355
73	0xbe1f4b0f	-0.15555976
74	0x3dc9e2c0	0.09857702
75	0x3d45cafb	0.04828928
76	0x3dde8b56	0.1086642
77	0x3e356fca	0.17718425
78	0x3e361cc3	0.17784409
79	0x3db47229	0.08810837
80	0xbc0dd553	-0.0086568175
81	0xbc99d4ab	-0.018778166
82	0x3d04bcce	0.03240662
83	0xbdacf7c4	-0.08445695
84	0xbdd4f7fc	-0.10398862
85	0xbdd4c62c	-0.10389361
86	0xbdb04838	-0.08607525
87	0xbd14eb08	-0.036356956
88	0x3b8f61ed	0.0043756873
89	0x3d50546d	0.050861765
90	0x3ce9209f	0.028457938
91	0x39869536	0.00025669642
92	0x3d2eb380	0.042651653
93	0x3e1468fb	0.14493172
94	0x3d9b37f3	0.07579031
95	0x3d70c002	0.058776863
96	0x3da131d8	0.07870835
97	0x3d65bb47	0.056086805
98	0x3d3a5253	0.045488667
99	0xbd3576a3	-0.044302594
100	0xbd249880	-0.040184498
101	0xbe0085c4	-0.12551028
102	0x3d3d7550	0.046254456
103	0x3cba2d6d	0.022726739
104	0x3cbb0884	0.022831209
105	0x3c3544e8	0.011063792
106	0x3d918b87	0.07106691
107	0xbd6ed726	-0.05831065
108	0x3d62e150	0.055390656
109	0xbc0d279e	-0.0086154025
110	0x3bcab62c	0.0061862674
111	0x3cc2f87e	0.023800131
112	0xbd01c96c	-0.03168623
113	0xbdd30f6b	-0.10305675
114	0xbc7da546	-0.015481299
115	0x3b00be2e	0.0019644606
116	0xbdab6809	-0.083694525
117	0xbe127173	-0.1430109
118	0xbe071a31	-0.13193585
119	0xbda8d713	-0.08244147
120	0xbd5a710d	-0.05333047
121	0xbb01b22d	-0.001979004
122	0x3d192853	0.03739197
123	0x3c794e4e	0.015216423
124	0x3d09b8cc	0.0336235
125	0x3d025539	0.031819556
126	0xbdb408a5	-0.08790711
127	0x3dc4893f	0.0959649
128	0x3d4ae41e	0.049533956
129	0x3db61f85	0.088927306
130	0x3dad159c	0.08451387
131	0x3dcff4c5	0.10154108
132	0x3d1a0e17	0.037611093
133	0xbdc6f7c5	-0.09715227
134	0xbd972ff8	-0.07382196
135	0x3d97f812	0.074203625
136	0x3ddb7820	0.107162714
137	0xbd04df82	-0.032439716
138	0xbd7d0778	-0.0617747
139	0x3d70879a	0.05872307
140	0x3ac1767f	0.0014760046
141	0xbd669e46	-0.056303285
142	0xbd1a7717	-0.03771123
143	0x3d14ce8e	0.0363298
144	0xbdbd562e	-0.09244953
145	0xbd2c50e5	-0.042069335
146	0xbd434752	-0.04767544
147	0xbc1cd5a1	-0.0095724175
148	0x3d339b67	0.043849375
149	0x3cfa1d78	0.03053163
150	0x3d17ca3a	0.037058093
151	0x3dbf869e	0.09351848
152	0x3d260c67	0.04053917
153	0xbd524238	-0.051332682
154	0xbd86e793	-0.06587138
155	0xbc228d16	-0.009921333
156	0x3d01f702	0.031729706
157	0xbd06f865	-0.03295173
158	0xb9f9aba9	-0.00047620878
159	0x3e098dc8	0.13432992
160	0x3d78074e	0.06055384
161	0xbcbb30a0	-0.022850335
162	0x3debc028	0.1151126
163	0x3e03c85a	0.12869397
164	0x3e0d7f09	0.13817991
165	0x3d877ea1	0.066159494
166	0x3db3bec4	0.0877662
167	0xbdb3a944	-0.08772519
168	0xbd9cdec7	-0.07659679
169	0xbdfc144a	-0.12308557
170	0xbe486d75	-0.19573005
171	0xbbe714ca	-0.007052039
172	0x3caab4d3	0.020838177
173	0x3d632d1a	0.055462934
174	0x3d3a176e	0.0454325
175	0xbd005bbf	-0.031337496
176	0x3dbd23d5	0.0923535
177	0x3d4b338c	0.049609706
178	0x3a51ea1d	0.0008007603
179	0x3d342cff	0.043988224
180	0x3b8b74d9	0.0042558727
181	0x3cbf9274	0.023385264
182	0xbc158fd1	-0.009128527
183	0x3d1b8159	0.037965152
184	0x3e025a46	0.12729749
185	0xbdd0bbe3	-0.101920865
186	0x3d8d3877	0.068955354
187	0x3e2c60aa	0.1683375
188	0xbcf34733	-0.029697036
189	0x3c04d580	0.008107543
190	0x3d07771b	0.033072572
191	0x3dff4778	0.124648035
192	0x3d6001d3	0.05468924
193	0x3e623964	0.22092205
194	0x3d3d61aa	0.046235718
195	0x3ca13962	0.019680683
196	0xbbfba13e	-0.0076791337
197	0xbdbd0334	-0.092291266
198	0x3dd04fa2	0.10171439
199	0x3e194f0a	0.14971557
200	0x3bba4ab6	0.005685176
201	0x3da8dbe9	0.082450695
202	0x3c9761dc	0.01847928
203	0xbcb1f8b6	-0.02172504
204	0x3c7eea2f	0.015558763
205	0xbe1fdbdc	-0.15611213
206	0x3cd712eb	0.026254138
207	0xbd34b2c0	-0.04411578
208	0x3da83e2d	0.08214984
209	0x3ccce131	0.025009723
210	0x3c7755f8	0.01509618
211	0x3d921924	0.071337014
212	0x3d2ef93b	0.042718153
213	0x3d7db803	0.061943065
214	0x3dba09d1	0.090839036
215	0xbbba23d1	-0.005680539
216	0xbd2ff426	-0.042957447
217	0x3b34cc87	0.0027587728
218	0xbdd2ed63	-0.10299184
219	0x3d19ada9	0.03751913
220	0x3dfe2994	0.12410274
221	0xbd4b9181	-0.04969931
222	0x3e2c752b	0.16841571
223	0x3cdfa30a	0.027299423
224	0xbd4b3d1d	-0.04961883
225	0x3d8ffd3b	0.07030722
226	0xbd36b842	-0.044609316
227	0xbd8f5d5b	-0.07000228
228	0x3d625c57	0.055263843
229	0xbd1642cf	-0.036684807
230	0xbd1e6d8f	-0.038678702
231	0x3d933295	0.07187382
232	0xbca0468d	-0.019564891
233	0x3d332c7b	0.04374359
234	0xbcc301bd	-0.02380454
235	0x3d35ab1b	0.044352632
236	0x3e08a0c4	0.13342577
237	0xbb2b9f75	-0.0026187573
238	0x3d1d4e60	0.038404822
239	0x3d8b910c	0.06814775
240	0x3daba2cc	0.083806604
241	0x3b2fcb5f	0.00268241
242	0xbe25cd70	-0.1619165
243	0xbd9c8f99	-0.076445766
244	0xbd3e12b0	-0.04640454
245	0x3d3a429d	0.045473684
246	0x3d17c31a	0.037051298
247	0x3db1b1ae	0.08676468
248	0x3e1ac34d	0.15113564
249	0x3dc74f61	0.09731937
250	0x3de061a4	0.109561235
251	0x3df3afc5	0.1189876
252	0x3d186ace	0.037211232
253	0x3cc60bf5	0.024175623
254	0xbe12ca45	-0.14334972
255	0xbd43cf74	-0.047805265

down1.mpconv.1.conv.3.bias f4 [24]
0	0xbd60e2f8	-0.054903954
1	0x3afbb3ef	0.0019203405
2	0xbd35a727	-0.044348862
3	0x3ced0db2	0.028937194
4	0xbb352f15	-0.0027646471
5	0x3cd3ebc3	0.025869256
6	0x3ccb75a5	0.02483637
7	0xbd859b9f	-0.06523823
8	0xbd824a47	-0.063618235
9	0xbabcda03	-0.0014408234
10	0x3d6144dc	0.05499731
11	0xbcccc4e9	-0.024996238
12	0x3d184c4b	0.037182134
13	0xbd4190f2	-0.04725737
14	0xbcd2edd1	-0.025748165
15	0xbd706bd9	-0.0586966
16	0x3c5d1695	0.0134941535
17	0xbc7fc345	-0.015610521
18	0xbd732596	-0.059362017
19	0xbc9dd01e	-0.019264277
20	0xbd1c4a62	-0.038156874
21	0x3c186d43	0.009303394
22	0x3ca0fa69	0.019650655
23	0xbc7f91fe	-0.015598772

down1.mpconv.1.conv.4.weight f4 [24]
0	0x3f677039	0.90405613
1	0x3f58de76	0.8471445
2	0x3f40c229	0.75296265
3	0x3f85160a	1.0397351
4	0x3f7ce745	0.9879039
5	0x3f82f07a	1.0229638
6	0x3f8a2372	1.0792067
7	0x3f372645	0.7154277
8	0x3f8e834a	1.1133816
9	0x3f738a03	0.95132464
10	0x3f6c7588	0.9236684
11	0x3f864810	1.0490742
12	0x3f73a70c	0.9517677
13	0x3f8cd3f0	1.1002178
14	0x3fa05652	1.2526343
15	0x3f85241d	1.0401646
16	0x3f8c216c	1.09477
17	0x3f6c790f	0.9237222
18	0x3f581519	0.8440719
19	0x3fac8157	1.3476971
20	0x3f69fbc2	0.91399777
21	0x3f8fe434	1.1241517
22	0x3f705a6f	0.9388799
23	0x3fa29d79	1.2704307

down1.mpconv.1.conv.4.bias f4 [24]
0	0x3d21a6e0	0.039465785
1	0xbe1cf544	-0.15327936
2	0x3db95309	0.09049041
3	0x3e8436f1	0.25823167
4	0x3eb689b1	0.35651925
5	0x3e6bf847	0.23043929
6	0x3caafb4c	0.02087178
7	0x3ced1969	0.02894278
8	0x3ebdf9c4	0.3710462
9	0x3e2130a2	0.15741208
10	0x3d81c35c	0.0633609
11	0x3d908cc0	0.07058096
12	0x3c9fe08e	0.019516256
13	0x3d0d9d8f	0.034574088
14	0x3ea6a674	0.3254887
15	0x3e01d284	0.12677962
16	0x3e95ffe1	0.29296783
17	0x3e9bd9fb	0.30439743
18	0x3a82bc18	0.0009974269
19	0x3ed01215	0.40638795
20	0x3e5a5923	0.21323065
21	0x3d13243e	0.035923235
22	0xbc11021b	-0.0088506
23	0x3dfa04a4	0.122079164

down1.mpconv.1.conv.4.running_mean f4 [24]
0	0x3ee823a4	0.45339692
1	0xbea38f91	-0.3194547
2	0xbd385e5d	-0.045011867
3	0x3dec985f	0.115525
4	0x3eb1dda4	0.3473941
5	0x3e314da9	0.17314781
6	0x3e9e96d5	0.3097445
7	0xbd879fb0	-0.06622255
8	0x3ef32447	0.47488615
9	0xbd25d01a	-0.040481664
10	0x3e90132e	0.28139633
11	0xbe8132a7	-0.25233957
12	0xbda05662	-0.07828976
13	0x3e1df7f0	0.15426612
14	0x3f01be6d	0.5068119
15	0xbde273a5	-0.11057214
16	0x3f052be1	0.5202008
17	0x3d3cd95e	0.046105735
18	0xbece8e18	-0.40342784
19	0xbf770fec	-0.9650867
20	0x3e26e7fe	0.16299435
21	0x3f3e0fbd	0.74242765
22	0x3e9a06e8	0.30083394
23	0xbeab5a28	-0.3346722

down1.mpconv.1.conv.4.running_var f4 [24]
0	0x4054440e	3.3166537
1	0x3f9f9734	1.2468019
2	0x4008aaa6	2.1354156
3	0x4097dd82	4.7457895
4	0x4039864c	2.8988218
5	0x4095d077	4.6816974
6	0x40dccfea	6.90038
7	0x3fa7552e	1.307287
8	0x4102fc85	8.18665
9	0x4078260b	3.877322
10	0x4007cf1e	2.1220164
11	0x4090ffe9	4.531239
12	0x40696403	3.6467292
13	0x409bf155	4.8732095
14	0x4119f8fa	9.623285
15	0x40a824a5	5.254473
16	0x41048810	8.283218
17	0x4024886e	2.570827
18	0x4009f401	2.1555178
19	0x4001eb89	2.030001
20	0x4071421d	3.7696602
21	0x3ffd1f9e	1.9775274
22	0x4094f3b2	4.654748
23	0x3fb23e1f	1.3925208

down2.mpconv.1.conv.0.weight f4 [48, 24, 3, 3]
0	0xbdc044f8	-0.09388155
1	0x3cb9ae1e	0.022666033
2	0xbb04c1ad	-0.0020257041
3	0x3d53d311	0.05171496
4	0xbb600f31	-0.0034188742
5	0x3dc259c5	0.094897784
6	0x3cbdda25	0.023175308
7	0x3bfcb08d	0.007711476
8	0xbd468c8d	-0.048473883
9	0x3d87c105	0.066286124
10	0x3d4fa4aa	0.050694145
11	0x3df418be	0.11918782
12	0xbcfdfeef	-0.03100535
13	0x3d953eca	0.07287367
14	0x3db95282	0.0904894
15	0x3ddefc7a	0.10888
16	0x3d94ce85	0.07265953
17	0xbd6935e6	-0.056936167
18	0x3cbaf55d	0.022822076
19	0x3d213b10	0.039362967
20	0x3c4812b0	0.012211487
21	0x3d623b7d	0.055232514
22	0x3dac4a16	0.08412568
23	0x3d298f0d	0.04139619
24	0x3d3c3b3b	0.045954924
25	0x3e01bd52	0.12669876
26	0xbcad43f6	-0.02115057
27	0x3df46e2f	0.11935078
28	0x3c568184	0.013092402
29	0x3d495175	0.04914995
30	0x3dcd34e2	0.10019852
31	0xbcd5ec2b	-0.02611359
32	0x3d3352f5	0.043780286
33	0x3d0b8db6	0.034070693
34	0x3d0343df	0.03204715
35	0xbc7c61d6	-0.015404185
36	0x3d18bcd9	0.037289474
37	0x3c78b1c4	0.015179101
38	0x3db8f4d7	0.090310745
39	0x3d657f0c	0.056029364
40	0xbddc9a76	-0.107716486
41	0x3d8cb752	0.06870903
42	0x3e29985c	0.16562027
43	0xbd20fbf2	-0.039302774
44	0x3deedd2b	0.11663278
45	0x3bd79bea	0.0065798657
46	0x3deac0fa	0.114625886
47	0x3e2e4e4c	0.17022055
48	0x3c6ac1ff	0.014328479
49	0x3d8ab7f6	0.06773369
50	0xbca1be6a	-0.019744117
51	0x3c9aba2e	0.018887606
52	0x3e0ea0f2	0.13928583
53	0x3e0342ae	0.12818405
54	0x3e09ac26	0.13444576
55	0xba7d23ae	-0.0009656501
56	0x3d86476e	0.06556593
57	0xbd6a6657	-0.057226505
58	0xbdc153ca	-0.094398096
59	0x3dc9825f	0.098393194
60	0x3e0f55c2	0.13997558
61	0xbc476f77	-0.012172571
62	0x3de6b87b	0.112656556
63	0x3dbd89f9	0.09254832
64	0xbd144999	-0.036203
65	0x3d83ca7d	0.06435106
66	0x3c2ea237	0.010658792
67	0x3da8aafd	0.082357384
68	0xbc3b048f	-0.011414661
69	0xbd9a00e7	-0.07519703
70	0xbd702c08	-0.05863574
71	0xbd544182	-0.051820286
72	0x3d1f9857	0.038963642
73	0x3d860384	0.06543639
74	0xbcd7df8e	-0.026351716
75	0xbd424df9	-0.04743764
76	0xbc97512a	-0.01847132
77	0xbd3c074e	-0.045905404
78	0x3d8e6751	0.069533
79	0x3d535ee0	0.05160415
80	0x3c90823e	0.01764023
81	0xbd4303fb	-0.047611218
82	0xbd117eac	-0.035521194
83	0x3d91dda5	0.071223535
84	0xbb733447	-0.0037110017
85	0x3cb3a5cd	0.021929646
86	0x3daccb71	0.08437241
87	0xbcffd280	-0.031228304
88	0xbc54ecb0	-0.012995884
89	0x3d170f8d	0.036880065
90	0xbdb3d054	-0.0877997
91	0x3d17d895	0.037071783
92	0x3d19b788	0.037528545
93	0xbd4fef7a	-0.050765492
94	0xb757515c	-1.2833942e-05
95	0xbd9aac63	-0.075524114
96	0x3e412ae9	0.18864025
97	0x3d0e6a13	0.03476913
98	0xbb2667ee	-0.0025391537
99	0x3c642cb3	0.013926673
100	0xbd3d116a	-0.046159185
101	0x3c09afe2	0.00840375
102	0xbdaf405c	-0.085571975
103	0xbdbed08b	-0.0931712
104	0xbda3bfaa	-0.079955414
105	0xbc69e063	-0.014274689
106	0xbd7a3394	-0.061084345
107	0x3b5806eb	0.0032963108
108	0x3db4931a	0.0881712
109	0xbda23360	-0.07919955
110	0x3dc76845	0.09736685
111	0x3d960e3d	0.073269345
112	0x3d87a959	0.066240974
113	0x3d568ed9	0.052382324
114	0x3cae6f5b	0.021293333
115	0xbb80634c	-0.003918087
116	0xbb8d0956	-0.0043040914
117	0x3dc24f5a	0.09487791
118	0xbbc4cad4	-0.0060056243
119	0x3b6c9d2a	0.003610442
120	0xbd771d57	-0.060330715
121	0x3d610732	0.054938503
122	0x3c06ef0e	0.008235706
123	0xbd6ff185	-0.05857994
124	0x3d6e0443	0.058109533
125	0x3cad6ed5	0.021171013
126	0x3dc32a8c	0.095295995
127	0xbdcc5776	-0.09977619
128	0x3da78761	0.08180118
129	0xbd66ac53	-0.056316685
130	0xbd8cf375	-0.06882373
131	0xbd0908aa	-0.03345553
132	0x3d2cbc9d	0.042172063
133	0x3c1b5627	0.00948099
134	0x3c123f6b	0.008926253
135	0x3ded6763	0.11591985
136	0xbde33d03	-0.110956214
137	0xbccb9d77	-0.024855359
138	0x3db67d4d	0.08910618
139	0xbd55d30f	-0.052203234
140	0xbc3c6e1b	-0.011500861
141	0x3de93d9a	0.11388703
142	0xbb35ef0b	-0.002776089
143	0x3d355743	0.044272672
144	0xbc8c6146	-0.017136227
145	0xbc5329bf	-0.012888371
146	0x3afd32c1	0.0019317494
147	0xbddd2c64	-0.107994825
148	0xbd5a524f	-0.05330115
149	0xbd831464	-0.064003736
150	0xbd8c206b	-0.06842121
151	0xbd892f77	-0.06698506
152	0xba655504	-0.0008748325
153	0xbda89230	-0.08231008
154	0xbd19deb8	-0.037565917
155	0xbdb0c730	-0.08631742
156	0xbd677bff	-0.056514736
157	0x3d2e6e21	0.042585496
158	0xbda347a9	-0.079726525
159	0xbe01a2c0	-0.1265974
160	0x3d42fbac	0.047603294
161	0xbd64bc5e	-0.055843703
162	0xbb3494f8	-0.0027554613
163	0x3c7bea5f	0.015375703
164	0x3cb9c88c	0.022678636
165	0x3ce2214e	0.027603772
166	0x3db28351	0.08716453
167	0xbdffdae4	-0.12492922
168	0xbe016b83	-0.12638669
169	0x3ce74843	0.0282327
170	0xbcda8dd2	-0.026678953
171	0x3bef1e52	0.0072973156
172	0xbc12445a	-0.008927429
173	0xbda62755	-0.08112971
174	0xbe0ff810	-0.14059472
175	0xbd75d5dc	-0.060018405
176	0xbde84b14	-0.11342445
177	0xbd8f259b	-0.069895945
178	0xbc7a1b88	-0.015265353
179	0xbd6c7ddd	-0.05773722
180	0x3d4e616e	0.050385885
181	0x3c2faca8	0.010722317
182	0x3d6b3209	0.057420764
183	0x3d4dbc2f	0.050228294
184	0x3cdc63d4	0.02690307
185	0xbd1bd2e0	-0.038042903
186	0x3dda4771	0.106581576
187	0x3d2a1707	0.041525867
188	0x3dd506f0	0.10401714
189	0x3d7a1c88	0.061062366
190	0xbd9bc968	-0.076067746
191	0x3d6f00a2	0.058350213
192	0xbd722197	-0.059114065
193	0xbc1ff9ea	-0.009764174
194	0x3d8acfea	0.06777938
195	0xbcb71fb8	-0.022353992
196	0xbd65b26a	-0.056078352
197	0xbd48227d	-0.048861016
198	0x3d6a0b52	0.057139702
199	0xb92d4ac7	-0.00016526422
200	0xbbc136e2	-0.005896435
201	0xbcb1bc41	-0.021696212
202	0xbd05cfc8	-0.03266886
203	0xbd9a1de4	-0.075252324
204	0x3d7663f1	0.060153905
205	0xbd28180c	-0.041038558
206	0xbbe6d46c	-0.0070443656
207	0x39e1917b	0.00043023736
208	0x3d75331a	0.059863187
209	0xbd70ec9a	-0.05881939
210	0xbd47cea1	-0.04878104
211	0x3ce39161	0.027779283
212	0xbde359d2	-0.11101116
213	0xbe358894	-0.17727882
214	0x3d86af70	0.06576431
215	0xbd726c6e	-0.059185438
216	0x3e430f09	0.19048704
217	0xbce7a56a	-0.028277118
218	0xbda0d533	-0.078531645
219	0xbd01d702	-0.031699188
220	0xbd9d11d5	-0.07669417
221	0x3e52a807	0.2057191
222	0x3d61ad3e	0.055096857
223	0x3e17b530	0.14815211
224	0xbc276965	-0.010217999
225	0xbc7903a0	-0.015198618
226	0xbd3fc8fb	-0.04682253
227	0xbce7be6e	-0.028289046
228	0xbe14f421	-0.14546253
229	0x3dab5623	0.08366039
230	0x3de504cc	0.111825556
231	0x3dfb988a	0.12284954
232	0x3d9f88b1	0.07789744
233	0xbd99341b	-0.074806415
234	0x3da698f8	0.08134645
235	0xbd177f45	-0.036986608
236	0x3d1effab	0.038818043
237	0xbdc6c874	-0.09706202
238	0x3d227b05	0.0396681
239	0x3d0b7d70	0.034055173
240	0xbca046b3	-0.019564962
241	0x3d3cffb8	0.04614231
242	0xbcbdec56	-0.023183983
243	0xbdcacb99	-0.099021144
244	0x3da31b67	0.07964211
245	0x3c06e2a5	0.008232747
246	0xbccb8fb3	-0.024848795
247	0xbe183107	-0.14862452
248	0xbd977c1d	-0.073967196
249	0x3d1fddae	0.03902977
250	0x3c51fcc3	0.012816611
251	0x3e20029c	0.15625995
252	0xbccf81fe	-0.02533054
253	0x3a621f6e	0.0008625899
254	0x3b93788f	0.0045004557
255	0xbcd68281	-0.026185276

down2.mpconv.1.conv.0.bias f4 [48]
0	0x3b4a7dc5	0.0030897718
1	0x3d17745c	0.036976203
2	0x3d272195	0.04080351
3	0x3a417e7d	0.0007381214
4	0xbcdd869d	-0.027041728
5	0x3c38aaa3	0.011271152
6	0xbcb084c3	-0.02154768
7	0x3d0f541c	0.034992322
8	0xbd863495	-0.06552998
9	0xbd891e98	-0.066952884
10	0xbc52e5b4	-0.012872148
11	0x3cc59a93	0.024121558
12	0x3ccd76ee	0.025081124
13	0xbcd41714	-0.02588991
14	0xbc65048f	-0.013978138
15	0x3cc0f0f3	0.023552394
16	0x3a522915	0.0008016986
17	0xbc83d1ba	-0.016091216
18	0x3d194e48	0.03742817
19	0x3c94c3be	0.018159743
20	0xbca1f150	-0.019768387
21	0xbc4a442f	-0.012345358
22	0xbca1bfaa	-0.019744713
23	0xbd3d7bc4	-0.04626061
24	0x3d3c2da6	0.04594197
25	0x3d3f31a8	0.046678215
26	0xbcd195ab	-0.025584063
27	0x3d5e5ec6	0.0542896
28	0x3d482a7e	0.04886865
29	0xbd546986	-0.051858447
30	0xbc8f79d5	-0.017514149
31	0x3d6442db	0.05572782
32	0xbd115674	-0.03548284
33	0xbd3918d0	-0.04518968
34	0xbc6bf59f	-0.014401822
35	0x3cfb6721	0.030688824
36	0x3d4bcb11	0.049754206
37	0x3cacd67b	0.021098366
38	0x3c34bae2	0.011030884
39	0xbd190ac6	-0.03736379
40	0xbca9b1d6	-0.020714682
41	0x3b53ce14	0.0032318877
42	0x3afe67a3	0.0019409548
43	0x3d01a91a	0.03165541
44	0xbd02b1a8	-0.031907707
45	0xbd3bb675	-0.0458283
46	0xbcda0947	-0.026615752
47	0xbccd6e84	-0.025077112

down2.mpconv.1.conv.1.weight f4 [48]
0	0x3f9da0a7	1.2314652
1	0x3f68a554	0.9087727
2	0x3faffa79	1.3748313
3	0x3f2e6996	0.6812986
4	0x3fa8986f	1.3171519
5	0x3f74bdf6	0.9560236
6	0x3f6f62e7	0.9351029
7	0x3fac4c0a	1.3460705
8	0x3f754f7c	0.9582441
9	0x3f561d7b	0.83638734
10	0x3f4d2a7b	0.80142945
11	0x3f3fc226	0.7490562
12	0x3f588c22	0.84588826
13	0x3fa13f76	1.2597492
14	0x3f664e59	0.899633
15	0x3f8f0e12	1.1176169
16	0x3fa39e99	1.2782775
17	0x3f7ebf81	0.9951096
18	0x3fb108ff	1.383087
19	0x3f790f50	0.9728899
20	0x3f93d616	1.1549709
21	0x3f5a0e4c	0.85178065
22	0x3fae5bd0	1.3621769
23	0x3f653eb5	0.8954881
24	0x3f8e9f7c	1.1142421
25	0x3fa87f6c	1.3163886
26	0x3fa9feaa	1.3280842
27	0x3f49a2b3	0.78763884
28	0x3f67b1cb	0.90505666
29	0x3f53698e	0.8258294
30	0x3fba9ee8	1.4579744
31	0x3f6d9e4d	0.9281967
32	0x3f718ca2	0.94355214
33	0x3f90953b	1.1295542
34	0x3fa3688b	1.2766279
35	0x3f86b471	1.0523816
36	0x3f64b57f	0.8933944
37	0x3f618c56	0.8810476
38	0x3f54bccb	0.83100575
39	0x3f8f5a9b	1.1199526
40	0x3f4e3106	0.80543554
41	0x3f9ecaae	1.2405603
42	0x3f522bdd	0.8209818
43	0x3f9ee091	1.2412282
44	0x3f75aaf6	0.9596399
45	0x3f8d11a3	1.1021007
46	0x3f49256e	0.7857274
47	0x3f652d45	0.895222

down2.mpconv.1.conv.1.bias f4 [48]
0	0x3dde491a	0.10853787
1	0x3d586715	0.05283268
2	0x3e4d3c8c	0.20042628
3	0xbde65e04	-0.11248401
4	0x3ec19863	0.37811574
5	0x3e1102bf	0.14161204
6	0xbdf01f25	-0.1172469
7	0xbcfc8719	-0.030826138
8	0x3df39229	0.11893112
9	0xbdb15484	-0.08658698
10	0x3dfba194	0.12286678
11	0xbe52c953	-0.20584612
12	0x3e173962	0.14767984
13	0x3e02af8b	0.12762277
14	0x3e47aa5c	0.1949858
15	0xbcb6f68f	-0.022334365
16	0x3cbfca7a	0.023411978
17	0x3d236890	0.03989464
18	0x3cb60bfd	0.022222513
19	0x3bba7fc4	0.0056915004
20	0x3e7d1729	0.24715866
21	0x3d267127	0.040635254
22	0x3ef303b5	0.47463766
23	0x3c828a98	0.015935227
24	0xbdd59a20	-0.10429788
25	0xbbf9550e	-0.0076090163
26	0x3d9f9511	0.07792104
27	0x3dd0b932	0.10191573
28	0xbc71c4e3	-0.014756414
29	0xbd1bd5e3	-0.038045775
30	0xbde915f7	-0.113811426
31	0x3d28a5f2	0.041173883
32	0x3e18764a	0.14888874
33	0x3ea6d8dc	0.32587326
34	0xbd10f27a	-0.035387494
35	0xbe5c9074	-0.2153948
36	0x3e2ac252	0.1667569
37	0xbddcf767	-0.10789376
38	0x3e6a3457	0.22871529
39	0xbe5d92f3	-0.21638088
40	0x3d2e9f59	0.042632435
41	0xbdbca1dd	-0.092105605
42	0x3d8ececc	0.06973037
43	0x3e94cd03	0.29062662
44	0xbe05b625	-0.13057764
45	0x3dfc9672	0.12333383
46	0x3e034a49	0.12821306
47	0xbba4501c	-0.0050144326
