src/gen_models/cifar10_224_gradient_ae_9408_generator.model (torch_old, 993139 bytes, 110 tensors)

inc.conv.conv.0.weight f4 [24, 3, 3, 3]
00000000: 5281 d5bd bb9a 2bbe a341 14be b462 033e
00000010: 67cc 00be bc50 883e 45f4 6c3d b256 153d
00000020: 9491 823d 65c3 cd3d 292d 583f 19d1 6cbe
00000030: 364e bdbe c324 a0bd 8c09 c6bd d465 0bbb
00000040: 9d5e 973b 231e 95bd cdd7 80be 5b3d bbbd
00000050: fb8f babe 00aa 8e3e 9a52 36be a0a8 bf3e
00000060: c712 983d 7872 02be b595 163e b12f 573e
00000070: 1b0d 98bb 0fc9 7ebd 1068 e03d f181 6ebd
00000080: 33c0 af3c 6ac3 a7bc 212b f5bd fdde a3bc
00000090: dcbe 26be dbe7 233d 0f91 d8be 1f1e 36bc
000000a0: d0b0 02be 6e49 0bbe ed3d c43e 70bb bc3e
000000b0: ee11 6ebc 2188 adbd 25c0 edbd b995 903d
000000c0: e3f6 fc3d 0e4c 493e 41d5 313e e45e fcbd
000000d0: 3479 83be cdb5 e3bd 6f51 663e 8114 07be
000000e0: 573f c33e 42bb babc 0a47 83be 44a5 413d
000000f0: 1bd9 483e 87d3 113e 90fe 703e 438f 2abe
00000100: 5bcd 273d 9a21 0ebe 34b7 773d 1c64 693e
00000110: 0413 5fbc fd7c 03be c637 38be a0f2 073d
00000120: d5a7 113d bbfc 1cbe b888 bcbd b531 00be
00000130: 3579 15be 77dd d63d 1eed 2b3d c683 a43d
00000140: df9e f1bd cfc1 a5be b863 2bbe c055 5cbe
00000150: 1c82 d9bd bfe2 9b3e bf9e 5ebc 62ea 9dbd
00000160: ff64 5b3e 2a88 bfbd caeb 1bbc b98b 5ebe
00000170: 1e42 093e 1a62 5e3d 8f81 06bc e7f4 e43e
00000180: 03ac e73c a673 b5bc 6f8d 8b3e 6f03 09bd
00000190: e18a d83d d54c 64be 28da 8ebd 30db c7bc
000001a0: 9ad7 01bf 5f04 793d 94a8 1d3e 2c53 323d
000001b0: 01d6 bfbd 9ff6 4a3e cdb8 21be aa27 013c
000001c0: 6a7e c53d e051 c33d a536 19be a3ce 273e
000001d0: 331f 4fbe a7a3 623e ed3c b4bd eaba a53e
000001e0: df22 803d 1223 07bf 3e1a a2bc 8da1 a43e
000001f0: fd5a 023e 299c 7b3e 7245 7cbd 4fcc 1a3e
00000200: b112 e7bd 48f0 94bd da81 0b3d 7b4e fb3d
00000210: 2ad1 403d dd63 d73d 1256 26be 75bf 293e
00000220: 055c a5bd e3e9 cbbd 67d2 713e aebf 413e
00000230: bf19 a53d 1a52 343e 0834 4dbe b031 d53d
00000240: 4d1b 00be 4edc fcbc 23df 6a3e 7920 c1be
00000250: e2ee 7fbe 70ff 58be 98f1 abbd 1518 0e3e
00000260: 5e44 5e3d 30b6 643e bc52 a0bd ab9d 0bbe
00000270: c6eb a23e 260f ce3e 3230 893d 8aaf 683e
00000280: f103 56be f0f8 dc3c df47 0a3d 7c7c 003e
00000290: 3636 b8bc f505 e83c 01bb 823d 62d5 8cbd
000002a0: d1e0 80bd 30c5 833b ee42 d73c 0df2 133e
000002b0: 22d5 f2bd 241c 0a3f b839 b7bd c03b 2dbf
000002c0: 8ed9 e4bd 8012 b63e 7cf4 debd bef8 a83e
000002d0: 0ee3 a8bd de75 0d3d d8c8 70bd 9975 4b3d
000002e0: 4b93 4a3e b3ea e43d ea83 88be e2c4 f03d
000002f0: d680 94be e87f 08bd 0055 be3d d170 023c
00000300: 9b77 8ebe 6152 3abe 0742 ecbe 9736 80bd
00000310: 5fdc 883c e046 e6bd 6f5d 373e 4c5f f2bd
00000320: 5323 383e aaf3 a63e 9029 7d3e bcaa f03e
00000330: 76c7 f33b d2a5 b7bd 1a3d b93d f0ed d4be
00000340: 90a8 a33d 64b8 04be d0b1 d9be 69da 79be
00000350: 5f8b 12bf 96d2 01be ecbb 8fbd 1541 21be
00000360: 4d48 a7bd 0fab f93d 8543 ee3d 9699 883e
00000370: af29 8f3d f282 473e d5c3 bebd 5d5f 2dbc
00000380: 3fa0 8a3e 1a9e 403e cd1b e33e c5a0 153e
00000390: b84e 8b3e 3a23 6d3e 1f3b a73e 1624 423e
000003a0: 25ab fc3e cf22 323e 4859 6f3d 8a71 b0bd
000003b0: 50bd db3d f893 4b3d d5e9 783e c126 513e
000003c0: facc 0e3e aebe e53d b770 c63d ab02 9d3e
000003d0: 7c87 7cbc 31b8 b43e d125 2dbc a89e 63be
000003e0: 7273 d4bd f165 2a3e 1ff1 8fbe cad1 2d3e
000003f0: a6b8 3abd 83f2 3f3e f578 6fbe ba0e 60bc
-0.104250565 -0.16758244 -0.14478163 0.12830621 -0.12577973 0.26624095 0.05785014 0.036459632
0.06375423 0.10047034 0.8444391 -0.2312664 -0.36973733 -0.07819512 -0.0966979 -0.002127041
0.004619433 -0.07281139 -0.25164643 -0.09142562 -0.36437973 0.27864075 -0.17804947 0.37433338
0.074254565 -0.12738979 0.14705546 0.21014287 -0.004640234 -0.062203463 0.10957348 -0.05822939
0.021453952 -0.020478923 -0.11971117 -0.02000379 -0.16283745 0.040016036 -0.4229817 -0.01111558
-0.12762761 -0.1360223 0.38328496 0.36861753 -0.014530642 -0.0847323 -0.11608914 0.07059807
0.123517774 0.19657919 0.17366506 -0.123227865 -0.25678408 -0.1111866 0.22492002 -0.13191415
0.38134262 -0.02279437 -0.25640136 0.04727675 0.19614069 0.14240848 0.23534608 -0.16656213
0.040967327 -0.13880005 0.06047745 0.22792095 -0.0136153735 -0.12840648 -0.17990026 0.03319037
0.035560448 -0.15330784 -0.092057645 -0.12518962 -0.14597018 0.1049146 0.04197418 0.08032946
-0.117978804 -0.32374427 -0.16737258 -0.21517086 -0.106205195 0.3044643 -0.013587653 -0.077107206
0.21425246 -0.09352143 -0.009516666 -0.21732987 0.13404128 0.054292776 -0.0082096 0.44718096
0.028280264 -0.022149872 0.27256343 -0.03345054 0.10573364 -0.22294934 -0.06975204 -0.024396509
-0.50719607 0.060795184 0.15396339 0.04353635 -0.0936699 0.19820641 -0.15793152 0.007882992
0.09643252 0.09537101 -0.14962251 0.1638742 -0.20226745 0.22132741 -0.08800683 0.32369167
0.06256651 -0.5278789 -0.019787904 0.32154503 0.12730022 0.24571289 -0.061589666 0.15117
-0.11282862 -0.072723925 0.034059383 0.12270828 0.047074474 0.10517094 -0.1624377 0.16576941
-0.08074192 -0.0995672 0.23615418 0.18920776 0.08061551 0.17609444 -0.2003938 0.10409868
-0.12510414 -0.030866768 0.22936682 -0.37720087 -0.2499347 -0.21191192 -0.0839569 0.13876374
0.05426442 0.22335124 -0.0782828 -0.13634364 0.31820506 0.40245932 0.06698646 0.22723213
-0.20899941 0.026974171 0.033759948 0.12547487 -0.022486787 0.028323153 0.063833244 -0.06876637
-0.0629288 0.0040213093 0.026277032 0.14447804 -0.11857058 0.5394919 -0.08946556 -0.67669296
-0.11174308 0.3556099 -0.108864754 0.33002275 -0.08246432 0.034536235 -0.05878529 0.049672697
0.1978275 0.11177578 -0.26663142 0.117563024 -0.29004544 -0.033325106 0.09293556 0.007961468
-0.27825627 -0.18195488 -0.46144125 -0.06260412 0.016706644 -0.11243987 0.17906736 -0.11834583
0.17982225 0.32607776 0.24722886 0.4700526 0.007439549 -0.089671746 0.09044857 -0.41587782
0.07991135 -0.12960964 -0.42518473 -0.24399723 -0.57243913 -0.12677988 -0.07018265 -0.15747483
-0.08168087 0.1219083 0.11633972 0.26679677 0.069903724 0.19483545 -0.09314696 -0.010581818
0.27075383 0.18810311 0.44357148 0.1461211 0.27208495 0.23157969 0.32662293 0.18959078
0.49349323 0.17396091 0.058434755 -0.08615406 0.10729468 0.04970166 0.2430795 0.2042494
0.1394538 0.1121801 0.096894674 0.30666098 -0.015413161 0.35296777 -0.010568098 -0.22228491
-0.10373582 0.1664045 -0.28113648 0.1697456 -0.04558625 0.18744855 -0.23385985 -0.013675386

inc.conv.conv.0.bias f4 [24]
00000000: 9aff 21be 9afd 2b3e cb50 eebd a0d5 163d
00000010: 4fa5 1ebd 0472 72bd 5cfc 1d3e 8649 bebd
00000020: 3f33 e6bc 827d 603d c59e a33c d56f 9abd
00000030: 28bb 0dbe e3a3 1a3d 0c7f 3e3d 657d 6ebc
00000040: ca40 583d 6fdf 42be 9183 39bd 8a3d 893b
00000050: 81de 253e ec2e 30bd 9bb1 18be f0b6 273e
-0.1582016 0.1679596 -0.11636504 0.036824822 -0.03873187 -0.059190765 0.15428299 -0.09291367
-0.028100608 0.054807194 0.019973168 -0.075408615 -0.13840926 0.03775395 0.04650788 -0.014556264
0.052796163 -0.19030546 -0.045291487 0.004188244 0.1619816 -0.0430135 -0.14911501 0.16378379

inc.conv.conv.1.weight f4 [24]
00000000: 71b5 a63f 95d3 823f ec4c 913f 64c3 4d3f
00000010: 473e 873f 176a 7f3f 64b3 a43f 87c6 343f
00000020: 433f 643f e7c5 753f 703d 813f 554d 6b3f
00000030: 4048 7a3f 63eb d63f 4c2b 763f 0f3f 733f
00000040: 0ad0 213f a36a 633f 7410 5f3f 989d 603f
00000050: a282 673f 9c3f ad3f bc06 7a3f d8b9 aa3f
1.3024122 1.022082 1.13516 0.8037627 1.056588 0.99771255 1.2867246 0.7061543
0.8915903 0.960051 1.0096874 0.91914874 0.97766495 1.6790584 0.96159816 0.95018095
0.6320807 0.8883459 0.8713448 0.8774047 0.90433705 1.3535037 0.97666526 1.3337965

inc.conv.conv.1.bias f4 [24]
00000000: 1f64 3b3e 2796 be3d 434b cb3d 2648 6e3e
00000010: e0d7 b23e 041a 6b3b 5a1c c03d a27f 7d3d
00000020: cd82 3f3e 11a5 243e 856b eb3c 0619 ddbe
00000030: a2ba 32be ecf6 2bbd fdf6 423d eb3f 89be
00000040: 8955 743f 6a3a 743e a67d ef3e bfc3 8a3e
00000050: 6f43 d13c e7a6 f03a fb7d 013e 5145 f3be
0.18299912 0.09305983 0.099264644 0.2326971 0.34930325 0.003587366 0.09380408 0.0618893
0.1870224 0.16078593 0.028737793 -0.43183154 -0.17454007 -0.04198353 0.047598828 -0.26806578
0.95443016 0.23850408 0.4677555 0.27102467 0.02554485 0.0018360288 0.12645714 -0.47513822

inc.conv.conv.1.running_mean f4 [24]
00000000: 43ff 21be e3fc 2b3e 7450 eebd 1dd4 163d
00000010: a0a7 1ebd 0e69 72bd f9ff 1d3e d04b bebd
00000020: dc37 e6bc 0f7d 603d 76b2 a33c 3b71 9abd
00000030: 8bb8 0dbe 75b0 1a3d 9b8c 3e3d dc80 6ebc
00000040: a440 583d 66df 42be 2f7f 39bd 8337 893b
00000050: 6ce1 253e 45f8 2fbd 8ab1 18be fcb7 273e
-0.15820031 0.16795687 -0.11636439 0.03682338 -0.03873408 -0.05918222 0.15429677 -0.09291804
-0.028102808 0.054806765 0.019982558 -0.07541128 -0.13839929 0.03776594 0.04652081 -0.01455709
0.05279602 -0.19030532 -0.045287307 0.0041875257 0.16199273 -0.042961378 -0.14911476 0.16378778

inc.conv.conv.1.running_var f4 [24]
00000000: 2115 1f36 9fb6 7936 5ca5 f335 703a ac36
00000010: a5b6 6336 3c0d 0036 67e8 6c36 a93c d036
00000020: 3bed 8438 9081 2d36 4e0c d835 9698 1c38
00000030: 353e 3937 bae7 6136 ba42 b536 7538 d136
00000040: ac83 4237 e514 ff36 e134 e538 21b1 3036
00000050: 290c a035 e2a6 b435 49a7 1037 5fbb 8035
2.3705145e-06 3.721019e-06 1.8153037e-06 5.1328025e-06 3.393195e-06 1.908119e-06 3.5302016e-06 6.205945e-06
6.338438e-05 2.5854424e-06 1.6096835e-06 3.7335405e-05 1.1041343e-05 3.3662495e-06 5.4019883e-06 6.235258e-06
1.1593958e-05 7.6020247e-06 0.000109294204 2.6329146e-06 1.1924468e-06 1.3459614e-06 8.622018e-06 9.591275e-07

inc.conv.conv.3.weight f4 [24, 24, 3, 3]
00000000: d759 46be 688a 44be 3d83 62be e0bf af3d
00000010: b5a6 f73d c480 38be 3bb9 d0bd 3d51 3e3e
00000020: a98a 30bd f4f9 cebd 03d2 b2bd 6871 97be
00000030: 245e c43d 0196 1e3e c0b6 59bd 10d1 deb9
00000040: 54c4 153d d6e2 c53d 4559 49be 8b7e 4e3d
00000050: c029 8fbe 3086 82bd eb9d f5bc a6c0 d6bd
00000060: 2069 40be e1a3 9bbd d708 22be 72f2 c6bd
00000070: 85fe 85be 36ee 0bbe 3396 303e 7f21 79bd
00000080: cfa2 ad3d 31c8 f03d a3c9 0e3c dc97 423e
00000090: 5648 123e 1655 9fbd 3c88 ef3d ff5a c93d
000000a0: 574d 37be cf71 403e dfe1 863c 692b 23be
000000b0: dec8 073e 990f 2bbe f8d8 e3bc 4639 fdbd
000000c0: 7d86 bb3d f80f 1e3d db0c af3b 2245 67be
000000d0: d759 65be 2d17 83be 40ae 62be 5bbc 4abd
000000e0: 71f4 65be 6afa 07be 7090 2fbd 9389 47bc
000000f0: 99e0 e1be 3354 68be 0e05 79be bad6 44bc
00000100: 8350 09bd ddc6 08be c0eb be3d 1eb6 103e
00000110: 1902 723d 9de8 b83d 7714 c53d 90a3 aabc
00000120: 6cc2 023d 3905 b43d 01bc 913d b602 b53d
00000130: 79c3 343e 2216 b13d 3f84 68bd 3f43 a13d
00000140: fdea a0bd 60de 04be ccba b03d 3ac8 09be
00000150: a8a5 993c 377e c73d fba6 bcbd 0461 5e3e
00000160: 5876 343e 95c4 25bc dfbb 3b3d 0318 dcbd
00000170: cac1 45be 40fa ea3d 9f04 bb3d 19ac 05bd
00000180: cbf5 8c3c c224 443a ca6c 01be 7841 db3c
00000190: 1eef a53c a1f2 b73d dcba 253d 9023 c23d
000001a0: cd03 143e 8693 09bc a7bb 063e d84b 0c3e
000001b0: a4c7 a23d 8bfa 113e 22b9 233e c94f 673e
000001c0: 85f5 693e 81f6 1c3e f735 0f3e 6450 af3e
000001d0: fbfa 293e abb2 9cbe 7c20 94be 6d23 b9be
000001e0: 12a7 c9be c21b 41be 99b6 8bbe 80de 1ebe
000001f0: 19d0 6cbe 602d 6ebe c4b3 b6be b1c0 4bbe
00000200: 19ef cfbe f11b 87be 16a4 24bc 4478 5bbc
00000210: eccb aabe c074 d63d d755 14bd 0ce7 3fbd
00000220: 6301 36be e18e 1ebd 4d32 a13d 8be2 5dbd
00000230: ba1d 7f3c e101 a93d 8036 543d 11e9 aebc
00000240: 379c 203e 7306 233e 64cc fe3d a90d 773e
00000250: 0b83 6a3e 71b1 303e c2a9 503e e2d8 613e
00000260: 35e8 2d3e 3e89 81bd 389d 0abd cb1c bb3d
00000270: 6c11 7fbe 44bc e4bd 68d7 11be 1221 693c
00000280: edef fab9 a160 a93d 3d1a 70bd a12d 70bd
00000290: 98ef aebd d779 60bd 30b3 4bbd fa33 8fbc
000002a0: a6c7 003e ea1c e73c 1c6d fd3c eabc ea3c
000002b0: c904 d1bb 7ff7 213e 1e3a 663d c2ac 88bc
000002c0: 21d2 213e 3db4 e5bd c084 b1bc ca26 613d
000002d0: 7a7b 98bc 8ef4 3dbd 1c76 99bd 6bc0 b33d
000002e0: 021d 2a3e d699 cd3d 682a 31bd 2c2e 89bd
000002f0: 0915 bebd 944e c5bc 39f2 f6bd 30b8 d3bd
00000300: 87d8 3bbd 2629 2dbc 433a f9bd 9f49 92bc
00000310: f784 80bc 1221 f2bc d7d3 e5bd de2e 1b3d
00000320: da73 b2be 5a16 67bc bde9 1c3d 9286 d0bc
00000330: 0eef b6bd 9ad0 dabd ff30 a6be 3983 523c
00000340: f7ff 7e3e 5e7e 2ebd 190a 213d 0c17 183e
00000350: e270 9abd 8086 67bd 427c 533d 214f 78bd
00000360: 0e1a 32bd fedd 97bd 0681 9ebd 96b7 813c
00000370: b3dc a1bc 1c25 773d 9161 76bd b0c3 8ebb
00000380: 893e 3a3d 8719 6fbd bcd7 6d3b 6338 81bc
00000390: ddf3 88bb 986e e83d dfbd 74bc 354d d43d
000003a0: a33a 5b3d b287 ab3d 7b82 12bd b78a 6bbd
000003b0: e21a f03b e3fb d2bc 9705 c5bc 451f ef3b
000003c0: eaec 5fbd 10f6 3a3d 509b 313b be46 5ebe
000003d0: d84d ac3c 8267 b4bd 2e01 d7bd 7cb3 e83d
000003e0: e3cc 0ebe c713 37bd 4c8c d93d a583 8c3d
000003f0: 5df2 9cbd f8ab 03bd dedb 3ebe 92f1 ecbd
-0.19370209 -0.19193423 -0.22120376 0.08581519 0.12092344 -0.1801787 -0.1019158 0.18585677
-0.043100987 -0.101062685 -0.08731463 -0.2957871 0.095882684 0.1548691 -0.0531528 -0.00042498903
0.036564186 0.09662406 -0.1966296 0.05041365 -0.2796154 -0.063732505 -0.029982528 -0.104859635
-0.18790102 -0.07599617 -0.15823685 -0.097142115 -0.26170745 -0.13665089 0.17244796 -0.06082296
0.08478319 0.117569335 0.008715066 0.19003242 0.14285406 -0.07779901 0.116959065 0.09831809
-0.17900597 0.18793415 0.016465126 -0.15934528 0.13260219 -0.16705169 -0.02781342 -0.1236444
0.09156511 0.038589448 0.0053421087 -0.22584966 -0.22397552 -0.2560362 -0.22136784 -0.049496036
-0.22456528 -0.13279119 -0.042862356 -0.012178796 -0.44116667 -0.2268837 -0.24318334 -0.012014085
-0.033524048 -0.1335711 0.093223095 0.14131972 0.05908403 0.090287425 0.09623044 -0.020829946
0.031923696 0.08790059 0.07115937 0.08838408 0.17652692 0.086467996 -0.056766745 0.07874154
-0.078573205 -0.12975454 0.08629379 -0.13455287 0.018755749 0.097408704 -0.092115365 0.21716696
0.1762327 -0.01011767 0.045833465 -0.10746767 -0.19312206 0.11473513 0.09131741 -0.03263483
0.017207047 0.0007482284 -0.12639156 0.026764616 0.020255622 0.08981825 0.040461406 0.09479439
0.14454575 -0.008396989 0.13157521 0.13700807 0.07948235 0.14255731 0.15988591 0.2258903
0.22847565 0.15328409 0.1398543 0.3424102 0.16599648 -0.30605063 -0.28931034 -0.3615984
-0.39385277 -0.18858245 -0.27287748 -0.15514565 -0.23126258 -0.23259497 -0.35684025 -0.19897725
-0.40612105 -0.26388505 -0.010048887 -0.013395373 -0.33358705 0.10471487 -0.036214676 -0.046851203
-0.17773966 -0.03871048 0.07870922 -0.054171126 0.015571052 0.082523115 0.051809788 -0.02135137
0.15684591 0.15920429 0.12441328 0.24126305 0.22901551 0.17255189 0.20377257 0.2205539
0.16983111 -0.06325005 -0.03384134 0.09136351 -0.2490899 -0.11168721 -0.14242327 0.014229076
-0.00047862474 0.082703836 -0.058618773 -0.058637265 -0.08541793 -0.054803696 -0.049731433 -0.017480839
0.1257616 0.02821203 0.030935816 0.028654534 -0.0063787443 0.15817069 0.05620777 -0.01668394
0.15802814 -0.11216018 -0.021669745 0.054968633 -0.018613566 -0.046375804 -0.07493231 0.08776935
0.16612628 0.100391075 -0.043253332 -0.0669826 -0.09281356 -0.02408532 -0.12057919 -0.10337865
-0.045860793 -0.010568893 -0.12169316 -0.01785737 -0.015688403 -0.029556785 -0.11222046 0.037886493
-0.34854013 -0.01410445 0.038308848 -0.025454793 -0.08932315 -0.10684319 -0.32459256 0.012848669
0.2490233 -0.042600982 0.03931627 0.14852542 -0.07541062 -0.056524754 0.051632173 -0.06062234
-0.04348188 -0.074153885 -0.07739453 0.01583461 -0.019758558 0.060338125 -0.06015164 -0.004356824
0.045469794 -0.058373954 0.0036291918 -0.015773958 -0.0041794614 0.11349219 -0.014937847 0.103662886
0.053522717 0.08375491 -0.035768967 -0.057505336 0.0073274234 -0.025754875 -0.024050517 0.007297429
-0.0546693 0.04564482 0.002710063 -0.21706674 0.021033213 -0.08808805 -0.10498272 0.11362359
-0.13945346 -0.044696596 0.10622463 0.06861047 -0.076634146 -0.032146424 -0.1863856 -0.115695134

inc.conv.conv.3.bias f4 [24]
00000000: 2cfa 993c 05a4 ebbc 0fa2 833d e35c e43c
00000010: 1f2d b13c a690 593d c5b0 db3c 7af9 cbbc
00000020: 2d9c 6dbd 0f6a 0d3d b7bc 7d3d 9cb8 353c
00000030: 9ac1 283d 5247 1ebd 87b1 543d fe86 22bd
00000040: 30d9 57bd f3fd 70bd 2149 be3c 2e5d 7f3d
00000050: 94d8 eb3c fefb f8bb eee0 733d 8c8e 71bc
0.018796049 -0.028764734 0.064273946 0.027876323 0.02162796 0.053116463 0.026817689 -0.024899233
-0.05801027 0.034524973 0.06194755 0.011091378 0.041200258 -0.038642235 0.051927116 -0.03967952
-0.05269736 -0.058835935 0.02322823 0.062344722 0.028789796 -0.007598399 0.05954068 -0.0147434585

inc.conv.conv.4.weight f4 [24]
00000000: 90f0 6f3f 6d4c 773f 41b6 5c3f 0985 453f
00000010: f5d8 043f 6bae 2e3f ccd4 023f dd8c 7c3f
00000020: 123c 8f3f 7b40 313f 5e52 423f 0cbe ae3f
00000030: 5111 403f b5be 513f 1e3b 333f 1cfb 2a3f
00000040: 4a93 223f 179b 1d3f b266 373f f2cf 0e3f
00000050: ba7b 083f aa10 833f 558a 353f f6cd 953f
0.93726444 0.9660099 0.862156 0.7715612 0.5189355 0.6823489 0.5110595 0.9865244
1.1190207 0.69239014 0.7590693 1.3651748 0.7502642 0.8193162 0.7001208 0.6678941
0.63505995 0.61564773 0.71641076 0.5578605 0.5331379 1.023946 0.709142 1.1703479

inc.conv.conv.4.bias f4 [24]
00000000: e3e0 bc3e cfdc c73e b69f 203f aecb 403f
00000010: 3b93 a13e 185b 803f f131 973f 8e5d 1a3f
00000020: c661 6f3f 74e3 913f 342d 163f f28e 99be
00000030: cb88 bc3e f95e 423f 47b6 d63e 8f8a c53f
00000040: a526 6c3f 9a51 a53f 4035 833f e623 513f
00000050: 43d4 8c3f cbee cfbe 9433 433e 8150 283f
0.36890325 0.3903565 0.627437 0.7531079 0.3155764 1.00278 1.1812116 0.60299003
0.93508565 1.1397538 0.58662724 -0.2999187 0.36823115 0.75926167 0.41935942 1.543291
0.92246467 1.2915528 1.0250626 0.816954 1.1002277 -0.40611872 0.19062644 0.6574784

inc.conv.conv.4.running_mean f4 [24]
00000000: 0294 ad3e b716 8e3f 42f3 ccbe a666 45bf
00000010: ea95 a63f 82b1 96be fcd5 c5be ab49 39bf
00000020: 9571 3fc0 b23d c1bf 9596 fe3f 8f73 87bf
00000030: 44a9 f73f f7a4 7c3e 2d04 1b3f 60bc e9bc
00000040: 4f99 783d 3512 f3be 9506 85bf b512 41bf
00000050: 83dc 48bf 2a17 2bbd d954 b03f a3eb 01c0
0.33901983 1.1100682 -0.4002934 -0.77109754 1.30145 -0.29432303 -0.3863982 -0.72378033
-2.9913075 -1.5096953 1.9889704 -1.0582141 1.9348531 0.24672304 0.60553247 -0.028532207
0.06069308 -0.47474828 -1.0392634 -0.7541917 -0.78461474 -0.041770138 1.3775893 -2.0300071

inc.conv.conv.4.running_var f4 [24]
00000000: 59cf e83f f339 4740 0e41 083f 1307 e63e
00000010: fa13 613f 07bb 4c3f d6f7 d53e b5a9 163f
00000020: d577 8d40 ed44 623f d27e 843f 27eb 0940
00000030: 1656 9b3f 956f de3f 5d1c ab3f b3a4 3140
00000040: 7668 843f 2763 ce3f b097 ad3f bb4d 163f
00000050: 1deb 3d3f 3e69 e93f aa33 b33f 0eb1 6440
1.8188277 3.112912 0.53224266 0.44927272 0.87921107 0.7997288 0.41790646 0.588527
4.420878 0.8838642 1.0351202 2.1549776 1.2135646 1.7377802 1.3368031 2.7756774
1.0344379 1.6124009 1.3561916 0.5871236 0.7418688 1.8235242 1.4000142 3.5733066

down1.mpconv.1.conv.0.weight f4 [24, 24, 3, 3]
00000000: cde8 23bc 050e bebc ee75 45be cc98 1dbd
00000010: e639 953c 0bf9 01be 2ea7 46bd fea1 abbc
00000020: 85bc 14bd b788 6abd a57b 873c fbfa 833d
00000030: 7ef2 c0bd 9a2b 58bc 448a ecbd 3074 05be
00000040: 0b78 2ebd a19f 56be 300b 30be 4900 efbd
00000050: b363 b3be aa4f 8a3d 9f0d af3d 5761 5cbd
00000060: f9d3 13be 9b48 dcbd d85f 87be 876f 50be
00000070: 292f 83be 2fd4 52be 2963 9c3d c9cd 313e
00000080: 16e8 8f3e 9500 15bd 40d1 87be 8584 2abe
00000090: 2d2c 74bd 9aac 813b d006 013e 29c0 db3d
000000a0: cf7b 473e 0a80 7f3e 7017 04be 10c6 64be
000000b0: 59ed 99bd 9b4d a93d a6d5 d9bb 6e84 f33d
000000c0: 8a6c 1f3e b137 fb3c db78 ae3d 6dc4 54be
000000d0: c617 44be e8e5 1cbe 72c0 373d 7f47 69be
000000e0: 81e4 3e3e 5063 c4bd 1413 32be 1c3e 84be
000000f0: ccc2 f73c 0fd5 36be 04c7 16bd 95a4 a53d
00000100: 3205 87be c26d 4ebd 01db 103d 8bd5 5f3d
00000110: 00f6 533d 58ea 183e e602 0cbd 85fc e43d
00000120: c4fb 0e3e a2df 9e3d 2c8c 153e b540 d93d
00000130: ad94 763c 848f 463e 0d5e 553e dca6 9d3d
00000140: 3713 7d3e b48e 143e 4766 c13d a3ed 18bc
00000150: d5e0 1d3e ee6e de3c 7865 9abd 17cf 153e
00000160: d5f3 a23e 897a 203e 1dc8 a0bc 9968 4bbd
00000170: 059d e83d 0dc9 16be f99a 93be 0083 17be
00000180: d635 9cbd f6bf e8bd 726d 92bd 55e1 533d
00000190: 4dc0 a53d cbc7 303e dc64 db3d 9b82 123d
000001a0: dada 5a3e b353 a13d bccb 4a3d 6e4a 5b3d
000001b0: e545 93bd 3b99 b5bd 9da9 483e 04c3 003e
000001c0: 664e a9bd d6bd 2b3d 3240 8e3e 87db 423d
000001d0: 70ce 123d 9c46 06be 1368 1abd bd5d 6fbd
000001e0: 7564 cfbd 2f53 b23e fe5a bb3e 8b7a 92be
000001f0: 7454 443d 9594 7abe d1c8 0dbd 64dc 0b3e
00000200: c494 31be 41f2 9e3d 9a82 453d 6be7 d0bd
00000210: 1b6d d0bd e921 2f3d 2718 07be 3511 e23d
00000220: 44dd 9d3e 15a5 03be 7a3a a13d 010a dc3e
00000230: a60b 883d 234d 8cbe 3aaa 883d 4ef2 96be
00000240: 2958 893d d6b9 38bd aa5b 33bd 13eb 323e
00000250: 3b7d a73b ecc9 0dbd 01fe 633d 3fc9 723d
00000260: cab7 2d3d cdc7 573d ad45 4dbd efa1 6f3d
00000270: 48f0 15be 424b b2be f533 80bd b00d f2bd
00000280: 3b74 35be 6802 463c 84dd 1b3e af49 0f3e
00000290: f9e4 da3d 1fe9 d23c a475 97bc 8db2 5e3d
000002a0: 4df2 0d3e 51d8 46bc df6a fa3d f343 06be
000002b0: 46ed 63be cf23 febd 4015 e0bd c422 5f3e
000002c0: 7bf7 793e dfe9 d5bc 643c 8dbd 4d6e 003e
000002d0: 858e 50bd 9f16 85bd 5240 a3bd c33d 6a3c
000002e0: 09ec 5abc 068d 7dbd 8501 17be 2a13 97bd
000002f0: d1b2 bfbd e634 253e 28f0 47bd 583e 81bc
00000300: 7082 babd 7372 c93d 0937 53bb f0ad 453e
00000310: db39 c83c a297 063e 260d b03d 0bc8 6a3e
00000320: 3dfa 233e ba1c 713d 446f 0d3e 7664 283e
00000330: 5785 9bba 1897 713e 710b 073d 5604 763e
00000340: 686a 143d 7d07 343d ad3d 2b3b 1396 cebd
00000350: 9810 1cbd 3906 563e 4eda 553e 4629 9b3e
00000360: 44f9 41be 17c7 78bd 2ba8 183d 1c81 a2bc
00000370: b77b 9b3d 93fe 293d 2ffd 12bd 1e74 833d
00000380: 228d 5d3c 7c80 a3bd 013b 2ebd f440 93ba
00000390: 2bcb 7e3d e1b5 ad3d fc43 c73d 0cf8 7e3d
000003a0: 4095 de3d 3caa 523d fb70 03bd 3792 be3c
000003b0: dd50 45bd a501 843d f03b 1bbd b3ad 0abb
000003c0: 0251 593e 2672 65bb b4ff 0fbb 96c3 dfbd
000003d0: 20af 40be 37b1 6cbe 65ae 433d 015d 06be
000003e0: bd20 cdbc c803 09be de36 a53d f44b 78bd
000003f0: 1de8 b33d d08f 433e 2eb2 dcbc 2b04 8a3e
-0.0100042345 -0.023200044 -0.19283268 -0.038475797 0.018216085 -0.12692659 -0.04849928 -0.020951267
-0.0363126 -0.057259288 0.01653845 0.06444355 -0.09421252 -0.013193989 -0.115498096 -0.13032603
-0.04259495 -0.20959331 -0.17191768 -0.11669976 -0.35037002 0.06753476 0.0854752 -0.053803768
-0.1443633 -0.10756036 -0.2644031 -0.20355044 -0.25621918 -0.20588754 0.07636101 0.17363657
0.28106755 -0.03637751 -0.26526833 -0.16652115 -0.05961244 0.0039573433 0.12600255 0.10730011
0.19480823 0.24951187 -0.12899566 -0.2234118 -0.075159736 0.08266755 -0.0066477833 0.11890493
0.15568748 0.030666204 0.08519145 -0.20778055 -0.19149694 -0.15322077 0.044861265 -0.2278118
0.18641855 -0.09589255 -0.1739009 -0.25828636 0.030244254 -0.17854713 -0.03681089 0.08088032
-0.2637115 -0.050397642 0.03536511 0.05464701 0.051748276 0.14933145 -0.03418245 0.11180977
0.13963228 0.07757498 0.14604253 0.10608045 0.0150500955 0.19390684 0.20836659 0.076978415
0.24714361 0.14507562 0.09443336 -0.009334001 0.15417798 0.027152505 -0.07538885 0.1462978
0.31826654 0.15671743 -0.019626671 -0.0496603 0.11358074 -0.14725132 -0.28829172 -0.14796066
-0.07627456 -0.11364739 -0.07149781 0.051728565 0.08093319 0.17263715 0.10712597 0.035769086
0.21372548 0.078772925 0.049510702 0.05353778 -0.07191066 -0.08867117 0.19595952 0.12574393
-0.082669064 0.04192909 0.27783352 0.04757264 0.035841405 -0.13112873 -0.03769691 -0.058439005
-0.101265825 0.3482909 0.3659286 -0.28609118 0.047932103 -0.24470742 -0.03461534 0.13658291
-0.17341906 0.0776105 0.048220254 -0.102003895 -0.1017706 0.04275695 -0.13192807 0.11038438
0.30832875 -0.12855943 0.07872482 0.42976382 0.06642847 -0.274026 0.06673093 -0.2948174
0.06706268 -0.045099102 -0.04378859 0.17472486 0.005111364 -0.034616396 0.05566216 0.059273954
0.042411603 0.05268078 -0.050115276 0.05850404 -0.14642441 -0.34823042 -0.0625991 -0.11819017
-0.1772012 0.012085535 0.1522122 0.13992952 0.10688204 0.025745926 -0.018488713 0.054369498
0.13861962 -0.012136535 0.12227415 -0.13111858 -0.22258481 -0.12409174 -0.10941553 0.21790606
0.24410813 -0.026112495 -0.06896284 0.12542076 -0.050917167 -0.06498455 -0.079712525 0.014296952
-0.013361939 -0.06190207 -0.14746673 -0.07376702 -0.093602784 0.1613346 -0.048813015 -0.015776798
-0.0910691 0.098362826 -0.0032228848 0.19304633 0.02444165 0.13143781 0.08596258 0.22927873
0.16013427 0.058865286 0.13811976 0.16444573 -0.00118653 0.23592794 0.032969896 0.24025092
0.03623429 0.043952454 0.002612929 -0.10087218 -0.038101763 0.20900811 0.20884058 0.30304927
-0.18942744 -0.060736742 0.037269752 -0.019836955 0.07591956 0.041502547 -0.035885986 0.06418632
0.013522418 -0.07983491 -0.04253674 -0.0011234568 0.062205475 0.08481956 0.09729764 0.062248275
0.10868311 0.05143188 -0.03209017 0.02326308 -0.04817282 0.06445626 -0.037898958 -0.0021160662
0.21222308 -0.0035010665 -0.002197248 -0.10925977 -0.18816805 -0.23114477 0.047773737 -0.13121416
-0.025040025 -0.13380349 0.08067106 -0.06061931 0.087845065 0.19097829 -0.026940431 0.26956305

down1.mpconv.1.conv.0.bias f4 [24]
00000000: e5ab 6bbd 48c6 563d 612c f4bc e465 1d3d
00000010: 5e3f ef3c 9899 733d 2634 52bd 2228 863d
00000020: 34bc 6b3d 1812 b4bc b28f 303d 336b 803d
00000030: 2f9c fabc b6b6 d4bc 11d7 753d 248f edb9
00000040: 0603 c33c 1c55 273c 193b 853c a35a ba3c
00000050: 7643 6b3d 2b6b d53c 3e7e 093c 203e 773c
-0.05753698 0.05243519 -0.029806318 0.03842725 0.02920502 0.05947265 -0.051319264 0.065506235
0.05755253 -0.021981284 0.04310579 0.06270447 -0.030592052 -0.02596603 0.060019556 -0.0004531081
0.023805153 0.010213163 0.016263532 0.022748297 0.057437383 0.026052078 0.008391915 0.015090495

down1.mpconv.1.conv.1.weight f4 [24]
00000000: 72d7 463f 4b1c 493f 5ab3 533f 6b32 6d3f
00000010: 4cad 4a3f 14c9 493f 8948 423f e30c 393f
00000020: fbfd 7a3f 164e 4b3f 88b5 313f 700d 583f
00000030: 8325 073f 1e90 383f db1e 633f 1937 f23e
00000040: 5795 8a3f 596b 543f 0f2a 7d3f 9539 353f
00000050: aaf8 703f 473d 733f f9cc 133f e32e 513f
0.77672493 0.78558797 0.82695544 0.92655057 0.7917068 0.78822446 0.7589193 0.7228529
0.98043793 0.79416025 0.6941762 0.84395504 0.52791613 0.72094905 0.88718957 0.4730766
1.0826825 0.829763 0.988923 0.7079099 0.9412943 0.95015377 0.5773464 0.8171217

down1.mpconv.1.conv.1.bias f4 [24]
00000000: f26a d63d 4ed6 763e a648 2c3e da47 61be
00000010: 737c cabc 7c22 723f f422 683f 9e5f 7f3f
00000020: 8933 173e 19a5 c63f 5f17 8b3e ffb4 e33e
00000030: ecfa ab3f 00b1 043f b20d 1b3f 1c17 f03f
00000040: 0f24 ecbe 88cd 743d d378 56be 0f19 db3e
00000050: ed64 b3bd 6d9d 51be d0cc 2d3f 2d94 063f
0.10469617 0.24105188 0.16824588 -0.22000065 -0.024717545 0.9458387 0.90678334 0.99755275
0.14765753 1.5519134 0.27166268 0.44474027 1.343595 0.5183258 0.6056777 1.8757052
-0.4612126 0.059766322 -0.20944528 0.42792556 -0.087594844 -0.2047021 0.67890644 0.5256985

down1.mpconv.1.conv.1.running_mean f4 [24]
00000000: fd70 4c3f d2d8 0fc1 e33d 343e ff3b 1940
00000010: 5c69 e6bf ad30 2e3f 94fa ab3f b506 923e
00000020: 537f 0d3f c967 3f40 c210 06c0 d87c c03e
00000030: f3bf 32c0 14f1 8a40 8b72 1a40 acb4 a8bf
00000040: 82f8 11c1 cbe9 c2bf 2215 93c0 5ac2 f03e
00000050: 64dc f0be d4e7 40c1 0623 b7be ed06 b4c0
0.79859906 -8.990435 0.17601733 2.3942869 -1.8000903 0.68043023 1.3435845 0.28520742
0.55272406 2.9907095 -2.0947728 0.37595248 -2.7929657 4.3419285 2.4132411 -1.3180137
-9.123171 -1.5227598 -4.5963297 0.47023278 -0.47043145 -12.056599 -0.35768908 -5.6258454

down1.mpconv.1.conv.1.running_var f4 [24]
00000000: 9194 4340 a2ed 4a41 5019 4540 46f3 9940
00000010: ddf0 1640 e9b4 de40 7917 8040 de5c 2040
00000020: fa06 5040 09b1 f540 a346 1c40 b177 8140
00000030: 4528 1340 cc36 6540 2e4f c140 1921 4d40
00000040: 0623 f340 1f03 fe3f 68ff 7a40 08f5 7f40
00000050: d2d3 6740 f0f6 2b41 d174 2340 3057 a740
3.0559428 12.683016 3.07967 4.8109465 2.3584511 6.9595838 4.0028653 2.5056682
3.2504258 7.6778607 2.4418113 4.045861 2.2993329 3.5814695 6.0409155 3.2051451
7.5980253 1.9844702 3.9218388 3.9993305 3.6223035 10.747787 2.554005 5.229393

down1.mpconv.1.conv.3.weight f4 [24, 24, 3, 3]
00000000: 54ab e13c 048c 0d3d 57a6 c03d 766b bdbc
00000010: b5b1 b63b a341 003e dd4d adbd 7a29 9cbd
00000020: 63e1 eebb f5bc 50be de06 17be eeaa 8bbd
00000030: 90d6 0abe c710 e3bd 628f 06bd 4622 0dbd
00000040: 5d0b 16bd 9614 c4bc b35b f9bb bc44 c2bc
00000050: fa98 553c 9dd8 243e 0893 ed3d a973 b23d
00000060: 9c5b 083e 1469 e93c dbe5 03bd 05bb 06bc
00000070: 3aa2 9fbd 6fa0 ddbb e737 34bd 3df9 7d3c
00000080: e1c2 a5bd afd8 8ebd 8081 93bd 1b82 1ebd
00000090: b42e 3b3e ebee 223c bdc7 9dbc 5274 d63c
000000a0: ceff 5c3c 0456 d33d a18f 37bc ac03 6abd
000000b0: 9e0a b1ba ddaf fe3c 9aeb 513e 653f 723e
000000c0: 06f6 363e a93d 8b3e b77d a63e fd81 393e
000000d0: e735 f13d 6625 0e3e 39e2 ff3d f9fc 013e
000000e0: 3528 6e3e 9fdf 303e 1bad 163d e3a7 343e
000000f0: 3fef d93d 5932 1cbe 8fd4 9f3d 4ee7 1bbd
00000100: 6683 82bd 326b e4bd 7046 873d 26bf 8e3d
00000110: fb89 a13d 64bb 2fbd 782e dabc c04d 8e3d
00000120: 0426 753d 6817 553d 93ba 8c3d fe3b 7e3d
00000130: a849 163e 9e2c 003e ce53 f63d de04 3a3e
00000140: 17d0 063e da6a 5cbe dd91 1ebe cb9d 02be
00000150: 18fd b1be 5514 3ebe 231b 913d 3acb 60be
00000160: fb4c 24be c2bc 993d 096a 82be d89f acbd
00000170: 50f1 323d 28d6 b7bd ca68 dd3a a6aa 473d
00000180: 5d1b 8f3d ad3f a03d 883c 4e3e 1f0b 293e
00000190: c6f7 e93c ceb9 b53d 21e5 23bd 86e0 293d
000001a0: 9d46 e83a 997a 443b 83fb 0c3a c466 51bd
000001b0: da4b e0bc af96 f0bd 5fc3 45bd d7f8 94bd
000001c0: 3a5c 1fbe 9998 113c 5ce6 60bc 9297 d6bd
000001d0: 2f0f 843d 34fb d8bd 140c 9fbd 7000 b63d
000001e0: a53b 013d 3469 8c3d ea4a d13d 80f8 443e
000001f0: 9da0 5f3d de19 f13d 5a35 323e 366d 0f3e
00000200: f14b 4f3e efa0 a53d f9aa 563e 3b12 a53e
00000210: a7ea 263e 1175 2b3e 7757 5a3e 1170 ee3d
00000220: 870b 33bd 9ea4 153e 0ed7 953d 19a2 30be
00000230: af62 f63d 4c9e ff3c 8ae4 1ebe 7a7e f63d
00000240: e9e6 a5bd 5307 08be d5ba a93c 9607 42bd
00000250: 8599 6e3c d18b b23c e92e 26bd 260d 26bc
00000260: 2f68 5e3d 2d71 97bd 3049 3cbd b45a 433d
00000270: 8778 0fbb c12e db3d 1073 033e 0afe 8bbd
00000280: 8d36 31bd 3e70 ff3c b276 14bc 8ccd 14bd
00000290: ba93 9a3c 95b1 8c3c 5e50 1fbd 58e4 cebd
000002a0: 7ecf 7abc 7dce 21bd 35ae c9ba 5f1f 9d3c
000002b0: 0a3c 16be ca33 0ebd 8249 113e 07b3 603e
000002c0: 5f62 7a3e 1415 aa3d 8fb9 0f3e 684d 1d3e
000002d0: e24a 9a3d 777c a83d 1bc2 133e 0560 f33d
000002e0: 41f1 9d3d 5c3c 203e 5a7e 043d 5149 5f3d
000002f0: 570d a53d 1e89 0c3e efce 023e cd1a 1b3e
00000300: e2c2 653d 9b57 31bd 56f6 8b3d 58ef fabd
00000310: 357c e0bc f4d5 39bc 51d3 3e3d 012f 2a3d
00000320: 8fc9 433e ecbf 5b3c c052 1d3c f328 493e
00000330: 902a e7bb 5916 ee3c 4615 5c3e 2b26 bb3d
00000340: d6b1 5a3e 3bae c73d 6b25 393d 28fb 11bd
00000350: 130e b83c d661 8e3d 3e2d f63d 9fe1 0e3e
00000360: 8d72 a23b de67 723c dd2d e3bc 1c50 c5bd
00000370: 7b07 87bd 17ce e6bd 14ae 703d 665a 603c
00000380: 449d a5bd 1838 0ebe c455 e63d 592e 6cbc
00000390: 06a9 7abd 6929 043e f350 22bd 3ba9 21bc
000003a0: 39c7 123e 6e82 3bbe a33b ab3c d337 6bbd
000003b0: 1e46 983c a31d 073e df65 153e 06e0 953d
000003c0: e8d1 7dbc 50f6 423d c4ee e43c b6e8 85bc
000003d0: 063a a6bd d311 3d3e 0432 7bbc 4db2 21bd
000003e0: c73a 6c3d b814 38bd a087 383e 0c99 a83d
000003f0: a6f1 a43c a627 803c f885 4b3d 726a 873c
0.027547516 0.034557357 0.09406727 -0.02312253 0.0055753835 0.12525038 -0.08462117 -0.076250985
-0.007290052 -0.20384581 -0.14748713 -0.068197116 -0.13558412 -0.110871844 -0.032851584 -0.034456514
-0.03663193 -0.023935597 -0.0076098084 -0.023714416 0.013036961 0.16098256 0.116003096 0.08713467
0.13316196 0.028492488 -0.03220163 -0.0082233 -0.07794614 -0.00676351 -0.043998625 0.015501318
-0.08093811 -0.06974923 -0.072024345 -0.038698297 0.18279535 0.009944658 -0.019260282 0.026178513
0.013488723 0.103191406 -0.011203677 -0.057132408 -0.0013507192 0.031089718 0.20500031 0.23656996
0.17867288 0.2719548 0.32517788 0.18115993 0.11777859 0.13881454 0.124943204 0.12694158
0.23257525 0.17272805 0.03678618 0.17642169 0.10641336 -0.15253581 0.07804214 -0.038062386
-0.063727185 -0.111532584 0.06605232 0.069700524 0.07887646 -0.04290332 -0.026633486 0.069484234
0.059850708 0.052024275 0.06871524 0.06206893 0.14676535 0.1251702 0.12027703 0.18165919
0.13165317 -0.21525136 -0.1548533 -0.12755506 -0.34763408 -0.18562444 0.07085254 -0.21952525
-0.1604499 0.07506706 -0.25471523 -0.08428925 0.043687165 -0.08976394 0.0016892191 0.048746727
0.06987641 0.07824645 0.20140278 0.16508149 0.02856053 0.0887333 -0.040013436 0.041473888
0.001772124 0.00299803 0.00053780543 -0.051123396 -0.027379919 -0.117474906 -0.048282024 -0.07274025
-0.15562525 0.00888648 -0.013726797 -0.104781285 0.064482085 -0.10594788 -0.077659756 0.08886802
0.031551022 0.068560034 0.10219367 0.1923542 0.054596532 0.11772512 0.17403165 0.14006504
0.20243813 0.08087336 0.20963658 0.3224047 0.1630045 0.16743876 0.21322428 0.11642469
-0.043712165 0.14613578 0.07316409 -0.17249335 0.12030541 0.031203412 -0.15516868 0.12035842
-0.08100683 -0.13284044 0.020718971 -0.047370516 0.014562969 0.021795185 -0.04057208 -0.010134971
0.054298576 -0.073946334 -0.045968235 0.047693923 -0.0021891908 0.10702277 0.12836862 -0.068355635
-0.043264914 0.031181451 -0.009061502 -0.036328837 0.01886927 0.017174521 -0.038895003 -0.10102147
-0.015308259 -0.039503563 -0.0015387001 0.019179998 -0.1467134 -0.03471736 0.14188197 0.21943294
0.24451588 0.083048016 0.14035629 0.1536156 0.07533814 0.08226865 0.14429514 0.11883549
0.07712031 0.15648025 0.03234706 0.05451328 0.08059185 0.13724181 0.12774251 0.15146942
0.056094058 -0.043296438 0.06834094 -0.122526824 -0.027402977 -0.011342514 0.046588246 0.041548733
0.19119857 0.013412457 0.009602249 0.19644527 -0.0070546344 0.02906339 0.2149249 0.09138139
0.21356902 0.09750029 0.0452017 -0.035639912 0.022467649 0.069522545 0.12020348 0.13953255
0.004957503 0.014795272 -0.02773183 -0.0963442 -0.06593224 -0.11269777 0.058759764 0.013693428
-0.08086637 -0.13888586 0.11246827 -0.014415347 -0.06119635 0.12906422 -0.03962798 -0.009867008
0.1433381 -0.18311474 0.02090246 -0.057426285 0.018588122 0.131949 0.14589642 0.0731812
-0.01549194 0.047598183 0.027945884 -0.016346317 -0.08116536 0.1846383 -0.015331749 -0.03947668
0.057673242 -0.044941634 0.18020487 0.082323164 0.020134758 0.015643906 0.04968831 0.01653025

down1.mpconv.1.conv.3.bias f4 [24]
00000000: 27ac 9abc 244c 61bd ed71 0abd b794 e8bc
00000010: 705e 533d 6ff4 ddbc 0506 013b cc06 13bd
00000020: 3f1c 8fbc 76ac b23c dd0a 453c 738d 87bd
00000030: e2fc 2b3d c4ff 393d eaac 24bd 6766 6cbd
00000040: 1aaf 2ebc 09b0 80bd 6109 603d 4b45 eabc
00000050: e550 e43c 6f77 5f3d 7363 3bbd e0df 6f3d
-0.018880917 -0.055004254 -0.033800054 -0.028391225 0.051603734 -0.027094094 0.0019687426 -0.035895154
-0.017469523 0.021810751 0.012026516 -0.06618776 0.041989215 0.045409933 -0.040203966 -0.057714846
-0.010661865 -0.06283576 0.054696444 -0.028597495 0.027870605 0.05455726 -0.04574914 0.058563113

down1.mpconv.1.conv.4.weight f4 [24]
00000000: 1115 2b3f c0d2 2d3f 54c8 0d3f 1b62 033f
00000010: fa26 173f a175 0a3f 7935 243f 53ef 0c3f
00000020: 6dc5 193f 9b70 423f 6688 1b3f b93f 163f
00000030: 1179 fa3e 5f3f 0f3f b554 0a3f 16e3 243f
00000040: ffed f63e a30a 163f f51c 353f e0a4 2f3f
00000050: e815 033f 7577 073f a7fa 0d3f a28f 183f
0.6682902 0.67899704 0.553838 0.5132157 0.5904385 0.5408574 0.6414409 0.5505268
0.6006687 0.7595307 0.60755 0.58690983 0.4892049 0.5595607 0.540355 0.64409006
0.48228452 0.5860998 0.7074731 0.68610954 0.512053 0.5291665 0.5546059 0.59594166

down1.mpconv.1.conv.4.bias f4 [24]
00000000: 52b5 9c3f da30 0b40 bf19 453f 667f 973f
00000010: acee 043f b32f 723f b804 cb3e 44d2 b13f
00000020: 49cc 5c3f 0e53 893f 3685 8e3f 2b51 4c3f
00000030: ac4a cd3f bea9 3f3f cf53 9e3f 4672 1d3e
00000040: a1c9 c73f ead6 1c3f a1b2 603f 0087 313f
00000050: 04a9 a53f 73ae 213f 0fad 9a3f b28c 963f
1.2242835 2.1748567 0.7699241 1.1835754 0.51926684 0.94604033 0.39652038 1.3892293
0.86249214 1.0728471 1.1134403 0.7981135 1.6038413 0.7486838 1.2369326 0.15375623
1.5608407 0.6126543 0.87772566 0.6934662 1.2942204 0.63156813 1.2084063 1.1761687

down1.mpconv.1.conv.4.running_mean f4 [24]
00000000: 8256 6440 b885 8bc0 e384 ce3b 9259 533e
00000010: ff8e 2b40 e3e7 07c0 9ca7 ae3f f19f 16c0
00000020: 229d 0040 123c c240 b61b 6ebf 4409 433f
00000030: 6867 48c0 ba52 07bf 4371 15bf 4a8e d93e
00000040: 97e3 1e40 8b28 413f 2c84 99c0 643c 03c0
00000050: 5e05 b73f ff66 a63f 0181 a340 f069 1f40
3.56778 -4.360073 0.0063024624 0.20639637 2.6806028 -2.1235282 1.36449 -2.353512
2.0095906 6.069833 -0.93011034 0.76186013 -3.1313114 -0.52860606 -0.5837595 0.4249137
2.482641 0.7545249 -4.7973843 -2.050561 1.4298513 1.3000182 5.1094975 2.490841

down1.mpconv.1.conv.4.running_var f4 [24]
00000000: de87 f940 54d9 bc40 1106 2740 bfe0 1c40
00000010: 4c88 5d40 a1b9 1d40 0b7c 1540 bb1e ff3f
00000020: b806 7740 b2d1 0841 69eb 6940 4c0f f63f
00000030: 880c e43f a17c 1240 9f58 6340 b535 1940
00000040: 3410 3740 fcce 3c40 334d 3040 dc24 4140
00000050: 4080 0a40 132e ff3f b781 4c40 652e b440
7.7978354 5.9015293 2.6097453 2.4512174 3.461444 2.464455 2.335696 1.9931253
3.859785 8.551195 3.6549933 1.9223418 1.7816324 2.2888567 3.552284 2.393903
2.860364 2.9501333 2.7547119 3.0178747 2.1640778 1.9935936 3.1954172 5.6306634

down2.mpconv.1.conv.0.weight f4 [48, 24, 3, 3]
00000000: f694 5e3d aead c03d ad7d 9e3d 54eb 573e
00000010: cc78 22be 78df b93e 8292 89bd 4391 673e
00000020: bcf8 a7bd 83d9 203e d71c 07bc c8f4 9fbb
00000030: 5311 243d f084 29be a701 8f3d 63c9 8c3d
00000040: 6a06 ea3d 4adb 883c b86b adbc e346 533d
00000050: eb5b 80bd 7df7 2b3e 0f85 f7bd 87ef 773b
00000060: f2d1 5fbe a498 be3c 1fc1 063e 96b3 b43d
00000070: 24a1 7fbd 246e 113e db35 05bc 5ca0 7c3d
00000080: bc5a b03d 92fa ef3d c926 44be e0e9 813c
00000090: 2f02 1e3e bb30 4fbd 7f7c a83d e299 bdbd
000000a0: c3f5 babd 16d3 c2bd 8a66 823e 3877 39be
000000b0: dd8c db3c fb09 50bc 4067 2bbe fdad aa3c
000000c0: a424 213d d9af 723d 811c 5e3d 6be7 733e
000000d0: fdd2 25bd 7333 95bc f34e 18bd 4e8d f1bd
000000e0: 0f78 1b3d bd49 eabd 3144 fdbc ca01 cbbc
000000f0: 793f a73d 513c ccbc 76c6 123e 7aea 36bd
00000100: 6231 d13d 5e20 88bd dab6 4abc b73a 3bbe
00000110: 560f b53c 0d74 433d 69c4 ce3d 9611 86bd
00000120: 3e09 5dbd eee7 05be 2f7f 9dbe 61d5 f1bc
00000130: e4ea 523c db3a 05be 952f 943d a918 1e3d
00000140: 1d44 efbd 03f0 f93a 25ba ddbd 3bff 833e
00000150: 8183 a9bd 90e5 9e3d 75c5 28be 5c0a 573d
00000160: f2e4 20bc a434 05bd 9762 efbd 88b0 3a3c
00000170: 6f13 f1bd 5ed8 24be 0e45 673e e1fc 1ebd
00000180: 8435 81be 35d0 1d3e e00e eebd f70e f8bd
00000190: b242 d23d 5665 8cbe 8a8f b73c 71f5 ec3b
000001a0: 0f5a e93c c0e2 1cbe eb8b d63d a967 13be
000001b0: 6723 de3c 4c5a 8d3d 1025 46be e69a de3d
000001c0: e2f6 6d3e db46 bdbd c50a 863c d8d1 d53d
000001d0: c2aa 48be d66a bf3d 2d53 dbbd d3b8 003e
000001e0: ae39 12bd 5bd0 97bd 0c41 5d3d 99d0 83ba
000001f0: 77fc 4c3d 7893 323e c09b 103d c18d b33d
00000200: c9ad 083e 4545 13be a8ab 043e 7a35 b83c
00000210: b297 4d3e ee7e 29be 084f a93c 9215 f7bd
00000220: c83e 45be fa8f 4f3e 1345 3d3c 0b23 0f3e
00000230: bb6c 3abe c60b 5b3d 8bc8 6dbb 66af e2bd
00000240: d6fd 1abd 0ade 01be 7595 033e d84a ca3c
00000250: 3092 febc 000b d13d e44c b8bd 4784 d3bc
00000260: 49a0 483e 4ed9 2dbd 6092 57ba 1450 113e
00000270: e96a d0bc ae9c b5be 65ad 503d 36ee d1ba
00000280: 5888 8abd d099 403e 6021 e0bd 9335 263e
00000290: 3175 bebd 73ac 66b9 0d9d e9bd 4b98 d13d
000002a0: 9861 473d 917a 8a3c f421 c0bd 72d0 3d3d
000002b0: 8c7b 93bd 299d eb3d 79f8 b4ba d469 263d
000002c0: fc05 0fbd 72bc 9c3d fd49 1a3c c684 6e3d
000002d0: 7b62 eebc 4557 2bbb 1f4f 463e 0daf 1ebe
000002e0: 4e81 513e af82 13bb bb99 f63d e9b8 40be
000002f0: 7d93 fb3d 9e04 fb3d 1b98 e2bc cab3 c93d
00000300: afc5 60bd 702f 98bd 0e28 06be de3b ed3c
00000310: aa88 e1bd c70f 873d 74de d0bc ef8e edbd
00000320: 93df 7e3d f591 8fbd 2ef7 9abd 7eb8 10be
00000330: 17fb 56be 80e2 c6bd 6fad a9bd 7719 8b3e
00000340: 1326 b63d 6ec8 a43e 7447 c63c de58 863c
00000350: 302a 15be 108d 343d ae1d 523e 4b37 af3d
00000360: 03f4 d6bd ea4e df3d 0c5f 85be d31e bfbe
00000370: 33c9 043e 51aa a63d dddb bbbd 5f92 1fbc
00000380: dd9f abbe b1fb 103e dc9a 743d 9758 42bd
00000390: af15 54bb 46f7 673d 9ac8 c5bd b62b e23d
000003a0: ee70 113a 09e3 35bd e6aa b3bd 23ce d53d
000003b0: 17cf 14be 25c6 2e3e 956b e83d 9ef8 3cbe
000003c0: 4eec a1bd 1a55 953d 3fea c0bd 254a 63bb
000003d0: 3216 cebd 76b4 5e3e 0978 8dbd 9915 abbc
000003e0: 660d 8c3e b1af 733d 16de 0bbe ab50 433e
000003f0: 0c8a 03bd 4222 b6bb 4600 983e 294d ccbc
0.05434128 0.09408127 0.077388145 0.21085864 -0.15866393 0.36303306 -0.06717397 0.22614007
-0.08201739 0.15707974 -0.008246622 -0.004881475 0.040055584 -0.16554618 0.06982737 0.06874349
0.11427005 0.016706128 -0.021169528 0.051581275 -0.06267532 0.16793628 -0.12085926 0.0037831978
-0.21857432 0.023266144 0.13159607 0.08823316 -0.062409535 0.14202172 -0.008130516 0.061676368
0.08611056 0.11717714 -0.1915542 0.01585859 0.1543052 -0.050583582 0.08226871 -0.092578664
-0.091289066 -0.09512918 0.25468856 -0.18111885 0.026800567 -0.012697692 -0.16738605 0.020834917
0.039341584 0.059249733 0.054226402 0.23818748 -0.040484417 -0.01821301 -0.037184667 -0.1179453
0.037956294 -0.11439846 -0.030916305 -0.024781127 0.08166403 -0.024931105 0.1433352 -0.044657208
0.10214497 -0.066467986 -0.012372697 -0.18284117 0.02210204 0.047718097 0.10096056 -0.06546323
-0.053963892 -0.13076755 -0.30761096 -0.029520692 0.012873385 -0.13010733 0.07235638 0.038597737
-0.116829135 0.0019068721 -0.1082652 0.25780663 -0.082770355 0.07758629 -0.16481574 0.052500114
-0.00982021 -0.032520905 -0.116887264 0.011394627 -0.11771285 -0.16098163 0.22584936 -0.038815383
-0.25236142 0.15411456 -0.11623931 -0.12112229 0.10266627 -0.27421063 0.022407312 0.0072314073
0.028485326 -0.15320873 0.10475906 -0.14395012 0.02711649 0.069019884 -0.19350076 0.10869388
0.2323871 -0.0924203 0.016362557 0.10440415 -0.19596389 0.09346549 -0.10709224 0.12570505
-0.03569954 -0.074127875 0.05401711 -0.0010056674 0.050045457 0.17439067 0.035304785 0.08767272
0.13347544 -0.14381893 0.12956107 0.022486437 0.20077398 -0.16552326 0.020667568 -0.12064661
-0.1926223 0.20269766 0.011552113 0.13978212 -0.1820554 0.053478025 -0.0036282863 -0.11068611
-0.037839733 -0.12682357 0.12849982 0.024693891 -0.031075567 0.10207176 -0.08999041 -0.02581991
0.19592394 -0.042443566 -0.00082234107 0.14190704 -0.025441604 -0.354711 0.050946612 -0.0016016427
-0.06764287 0.18808675 -0.10943866 0.16231374 -0.09299696 -0.00021998752 -0.11406908 0.10234126
0.048677057 0.016904147 -0.09381476 0.046341367 -0.07201299 0.11504585 -0.0013806961 0.04062827
-0.034917817 0.076531306 0.009417054 0.05823209 -0.029099694 -0.0026144546 0.1936612 -0.15496464
0.20459482 -0.0022508313 0.120410405 -0.18820538 0.122839905 0.1225674 -0.02766042 0.09848745
-0.054876026 -0.07430923 -0.13101217 0.028959211 -0.11012395 0.06594806 -0.025496699 -0.11599528
0.062224936 -0.07010261 -0.07566677 -0.14132878 -0.2099422 -0.0971117 -0.08285033 0.27167866
0.08893981 0.32184166 0.024203993 0.016399797 -0.14566875 0.04407984 0.20519134 0.08555468
-0.1049576 0.109037235 -0.26049078 -0.37328205 0.12967376 0.08137954 -0.09172795 -0.009739487
-0.33520404 0.14158513 0.059717998 -0.047447767 -0.0032361557 0.056632303 -0.09657402 0.110434934
0.0005548139 -0.04440597 -0.08772831 0.10439708 -0.14532124 0.17067774 0.11348645 -0.18454215
-0.079064 0.072916225 -0.09419679 -0.0034681645 -0.10062827 0.21748528 -0.069076605 -0.020884322
0.27353972 0.059493724 -0.13658938 0.19073741 -0.032114074 -0.005558283 0.2968771 -0.024939137

down2.mpconv.1.conv.0.bias f4 [48]
00000000: 7f94 c83c c231 cfbc bd43 7fbd 0b85 4f3c
00000010: 05b4 1a3c c887 743d 3f49 003d bcd4 81bd
00000020: 4b02 82bd 2438 5b3c 020a da3c ffac f43c
00000030: 07a9 063d 6c6a ecbb f9fd 06bd cfa5 8b3c
00000040: aedc 4bbd 85d6 b9bc bbed 0bbc 9af3 cc3c
00000050: 882f a139 5396 7c3d fe63 3dbd 8980 1a3d
00000060: f40c 8fbb 9a8a 1b3d e999 af3a e18e 7a3d
00000070: de2d 2f3d d530 213c 877c 333b f4e7 19bd
00000080: 711f 99bb 3604 0e3d 75ed 85bd 4b0d 15bb
00000090: e13d 8a3d 3d1b 523d affd 3a3d f44a 733d
000000a0: d3f9 3b3d 84f7 30bd a4a2 8b3c d3b9 593d
000000b0: dfc7 6fbd a635 0bbd 62b7 80bd 5f51 36bc
0.024484871 -0.025292281 -0.06232046 0.012665997 0.009442334 0.059699804 0.031319853 -0.06339404
-0.063480936 0.013380084 0.0266161 0.029867647 0.03287604 -0.007214835 -0.03295705 0.017046837
-0.049771003 -0.022685299 -0.008540566 0.025018502 0.00030743727 0.061666798 -0.046237938 0.037720237
-0.004365558 0.037973978 0.0013397309 0.061171416 0.04276835 0.009838303 0.0027387457 -0.037574723
-0.0046729376 0.034671985 -0.06539432 -0.002274352 0.06750084 0.051295508 0.045652088 0.059397653
0.045892548 -0.0432048 0.017045327 0.05315573 -0.05854022 -0.03398671 -0.062849775 -0.011127799

down2.mpconv.1.conv.1.weight f4 [48]
00000000: ad32 fd3e ddb1 1d3f 9d78 0f3f 290a 1d3f
00000010: a8d7 083f a480 263f 9059 1c3f 144a 273f
00000020: 8694 293f 7d7f 0b3f a3d4 e23e fcd2 da3e
00000030: 2dda cb3f ee5f 013f c409 d73e 0522 453f
00000040: 6706 483f 591c 023f 4370 ec3e 7e91 043f
00000050: 9cb0 403f 5475 1f3f 16b2 173f 174b e33f
00000060: d305 0f3f 14dd 573f def2 1f3f fb64 1b3f
00000070: 2b55 6a3f 38be 1a3f 5f2c 5c3f 541f e83e
00000080: e1ff f73e d603 753f 15ed e63e 2746 0f3f
00000090: ebff 433f 49b7 3f3f 0e9e ab3f cf70 123f
000000a0: 15c8 913f adfe 143f a5f6 0d3f 89bc 203f
000000b0: c9e5 063f 13b5 363f 658e f93e d6c8 073f
0.49452725 0.6159952 0.56043416 0.6134363 0.53454065 0.6504004 0.6107416 0.6534741
0.66242254 0.54491407 0.44302854 0.42739093 1.5925957 0.50537 0.41999638 0.77005035
0.7813477 0.50824505 0.461794 0.51784503 0.75269485 0.62288404 0.5925611 1.7757291
0.5586826 0.84321713 0.6247996 0.6070096 0.91536206 0.604465 0.86005205 0.453364
0.48437408 0.9570898 0.45102754 0.5596642 0.76562375 0.74889046 1.340761 0.5720338
1.1389185 0.58201104 0.55454475 0.6278768 0.52694374 0.7137005 0.4874145 0.53040826

down2.mpconv.1.conv.1.bias f4 [48]
00000000: a9b2 8e3e 82cc 073d f3e4 3a3d 549b 9fbc
00000010: 49da 4b3e 4945 b53f c44c 8d3f 130e 57bd
00000020: 078b 7e3f 8cd7 df3d 6182 093e 543e 7f3e
00000030: 0cfb a8bf 8fa6 6a3e f6d0 de3e 5b0b 3a3d
00000040: b5e7 94bd 3ef0 a73e b351 ae3f dd32 6a3f
00000050: 75e6 a93f adc1 463e 8eea d5bd 0ce7 a9bf
00000060: 40e4 773e 88ce 4fbe 244a 043d ab6a 673c
00000070: ab59 13be f9d7 f7bd a7e2 053e 7bf3 673e
00000080: 6e66 8c3e 9551 823f 58fa eb3e 2217 bf3e
00000090: fdb2 073d 9207 a23d 5b81 9abf a69e 1e3f
000000a0: 8958 88bf 207e 223d 5ccf 06bd e19f 4d3e
000000b0: 4688 553f eef4 363d ec65 863d 75c7 3a3e
0.27870682 0.03315402 0.0456285 -0.019483246 0.19907488 1.4161769 1.1039052 -0.052503657
0.9943089 0.10929784 0.13428642 0.2492612 -1.3201613 0.229151 0.435188 0.045420986
-0.07270757 0.32800478 1.3618683 0.9148386 1.3273455 0.19409819 -0.104451284 -1.3273635
0.24208164 -0.20293629 0.03229727 0.014124553 -0.14389674 -0.121017404 0.13074742 0.22651474
0.27421898 1.0181147 0.46089435 0.37322336 0.03312968 0.079116 -1.2070726 0.6196083
-1.0652019 0.039671063 -0.032912597 0.2008052 0.8341106 0.044667177 0.06562409 0.1824015

down2.mpconv.1.conv.1.running_mean f4 [48]
00000000: 2914 ea3f 372a c53e ea73 3c3f 6079 37bf
00000010: 6e8a 62bf 96ba 4cbe 558b 603f e58d 11c0
00000020: 0dfc 1e40 d91d 14bf f2fc b93e b1a3 9f3f
00000030: d5f2 84c1 de8f a03f f66b 0b40 4ac1 07c0
00000040: 8aeb 53bf 0615 56bf b4c2 3140 ddd2 b73f
00000050: 5efa e43f 00bf 8abf 439b 4abd 5bdc 38c1
00000060: 1a80 08bf 86e7 343f 793f 97bf 3d07 afbf
00000070: 4c64 66c0 945b bb3e 2467 9cc0 5d59 c93f
00000080: 682a c5be 3f6c de3e 3c3c 243f 18c6 07c0
00000090: f17b 8ec0 3465 96bf dde4 67c1 dfbd 5e40
000000a0: 0578 8fc0 5bde d03f cd0f 41bf 571a 9cbf
000000b0: 397e 2d40 a2f6 f7bd 3e79 03bf 107e 86bf
1.8287402 0.3850877 0.7361437 -0.7166958 -0.88492477 -0.19993052 0.87712604 -2.2742856
2.484134 -0.57858044 0.36325794 1.247183 -16.61857 1.2543905 2.1784644 -2.1211724
-0.8278128 -0.8362583 2.7775087 1.4361225 1.7888906 -1.0839539 -0.049464475 -11.553798
-0.5332047 0.70665777 -1.1816245 -1.3674084 -3.5998716 0.36593306 -4.8875904 1.5730397
-0.38508916 0.4344196 0.6415441 -2.1214657 -4.4526296 -1.1749635 -14.493375 3.4803388
-4.483401 1.6317858 -0.75414735 -1.2195538 2.710829 -0.12107588 -0.51356876 -1.0507221

down2.mpconv.1.conv.1.running_var f4 [48]
00000000: 525c ee3e 849c 803f 3231 643f 3a00 4f3f
00000010: 8175 5c3f 2db0 f23f c8e6 fe3f a3ea 6a3f
00000020: 9eef 5440 3ae7 f43e a10c 273f 6d07 8a3f
00000030: 0425 5e41 5110 343f 888c 503f a2d6 7b3f
00000040: a103 3f3f 2a85 8e3f b797 d93f 6c5e c93f
00000050: 9aef b040 e008 ae3f fe1a 3d3f c3bb 1241
00000060: 5525 3d3f 2183 823f e954 9d3f 099c 7c3f
00000070: 59ac 0340 4599 8f3f 1e33 c53f 22a4 1a3f
00000080: d761 1e3f 8c47 a840 3109 a53f 8bfc c33e
00000090: a67d cb3f 3fdf 783f 50af 6641 d9c0 853f
000000a0: bc50 dd40 7a55 923f e9d5 403f 7155 193f
000000b0: 0825 933f 5438 ab3f 6670 053f 9764 a03f
0.4655481 1.0047765 0.89137566 0.8085972 0.86116797 1.8960015 1.9914179 0.9176428
3.327125 0.47832662 0.65253645 1.0783516 13.884037 0.70337397 0.81464434 0.9837438
0.7461491 1.1134388 1.6999425 1.573194 5.529248 1.3596458 0.7386931 9.17084
0.7388509 1.0196267 1.2291538 0.9867559 2.0573943 1.1218649 1.5406225 0.60406697
0.6186804 5.2587337 1.289343 0.38278612 1.589772 0.97215647 14.417801 1.0449477
6.9161053 1.1432335 0.753264 0.59896 1.1495676 1.3376565 0.5212463 1.2530698
