src/gen_models/imagenet_gradient_ae_9408_generator.model (torch_old, 993139 bytes, 110 tensors)

inc.conv.conv.0.weight f4 [24, 3, 3, 3]
00000000: 314e 5bbd a7ea 10bd 33a0 10be c135 5bbd
00000010: 6210 ea3d 6cb5 8d3d 48d7 08be ef90 3b3d
00000020: b8b9 00be 59f0 d23d 3303 2c3e 100e 183e
00000030: b80a 103e bec1 953c 8d84 e83d 198a d83d
00000040: b25f d13d 9ff3 4f3e 873b d03c 8847 0d3e
00000050: a9c8 8c3d dc29 fc3d cdc2 163e 4931 d43d
00000060: 9b73 073e 1c1b 333d afdd fa3d f0d1 8a3d
00000070: 2846 a83d 251a 473d 5ee2 a33d 0fb7 3b3d
00000080: 04da 103d 03bb 6c3e 4942 bfbb f27d 933d
00000090: a9b0 e6bc 1e36 12bd 3c01 0cbd 21b3 40bd
000000a0: f8bf 1b3c 9016 32bc a73d e8bd 468f c2bc
000000b0: e107 14bd 378f 1bbd cfdb 5fbd 3376 59ba
000000c0: d9bd 4cbd f476 b9bd c5aa 4bbd e15f 01be
000000d0: c6a8 4d3b b9f9 03bd 3429 2a3e 4301 34bd
000000e0: 8f4e 163e 964b c7bd a906 40be f02a b6bd
000000f0: e0cf 443e 4f6f dabc 8e7d 0b3e 1c53 7bbe
00000100: 7826 f1bd 964e 74be 489b 06be d5bd 8a3e
00000110: aeee 21be c111 5dbe 9c30 e5bd 148d 2bbe
00000120: 3a13 f4bc 7809 50bd 8d4f d3bd 0793 023d
00000130: d4bd bdbd f603 053d dff0 c4bc 93fb b4bd
00000140: c1cd 2fbc 66ab a13e ee72 f2bd 17e0 003f
00000150: f73d 003d 4318 c4be 2868 f13b 572c ee3d
00000160: bd53 e13d ca35 393e ccff 2dbe 1d1c cc3d
00000170: 089e 82be cf18 c73b 5b81 7c3e ec8a f53c
00000180: d2fb 02be bd4c 2f3c eca2 0cbe b9e0 31bd
00000190: 31d0 2bbb 8621 bbbd 39db 83bd 1c31 9a3c
000001a0: 1b62 9ebd 9d2b 003e f3a9 43be 1920 453d
000001b0: 10e0 843d 7490 ffbc 2379 063e 6e68 a8bc
000001c0: a195 b9be ddc9 49bd 746c 283e c62c 8fbd
000001d0: 0d59 c13c 5c0c cbbd 8e64 97be bb84 75be
000001e0: 5260 3abe 9165 05be 8a01 93be b2f7 0dbe
000001f0: 7bc1 63be 814d 34be 8bbf 7fbd 5fe2 e6bd
00000200: 6801 80bc ce03 16bd 89bf afbe 63bd 1fbe
00000210: 0ae6 b2bd 5761 a2bc f519 a2bd a8a6 61bc
00000220: 7fe4 273e d9b1 ae3b 1a11 453e a3c6 58bd
00000230: 1e6f 93bd fbcc 053d 6830 01bc 0441 1abd
00000240: 8dab 0e3e 22c4 8b3d f2a5 49bd aad2 023e
00000250: c405 183d d0c4 6dbe 1b3a 153e 5d4f 7bbd
00000260: 7653 07be 69d5 b23d 3d05 19ba 9360 69bd
00000270: ba78 123e 3c07 4e3d bb85 2bbd 6ebb c33c
00000280: ee3a 11bd 3ba4 a8bd 6ce3 50bc 55ca 8f3e
00000290: 04ae a6be 4c77 873d 4a54 42be 6a50 ff3c
000002a0: 1956 31be 931b 323e e0fc 9d3e d424 383c
000002b0: f348 dabd dd31 3c3e 9aaf e23c 4e38 703c
000002c0: ac5d b8bc 08dd d43d ccb9 04be 88fb d7bd
000002d0: 08e8 3fbd eb14 05be e09b 0c3c e485 a9bd
000002e0: b8e5 123e 00b6 103e bc79 8f3c 0a46 a43d
000002f0: fd95 d9be 4e42 93bd bc2c 82be 16f7 26be
00000300: f300 2e3e 7f32 113c bb3e 97bd 722e 3fbe
00000310: 3f9f 03bd 063a 0bbe fb13 ea3e 6dc5 c6bb
00000320: 8b4f 95be 639c 543d 5657 813a b31e bdbd
00000330: 682a 5b3d b6d9 dc3d 027b 3d3d d776 833c
00000340: b70b 883d 988e 3dbc 4a4f e23d 0c6a 7abd
00000350: bf24 babd 0a45 de3d a1cb 44bc c963 d73d
00000360: 9b77 88be 9083 7dbb cdca 64be 904e 75bc
00000370: 93f8 9a3e d1eb a03c 33f1 87be 95c7 033e
00000380: 274b 87be ab65 513d 6fb0 8fbe a315 d33e
00000390: c7a9 2c3e 0437 1dbd 4cf5 6e3c 2c5b 513e
000003a0: f916 8ebd 4b79 553e 8961 36bc 9673 e23c
000003b0: 5019 203d b831 24bd 396d bcbd d971 0f3d
000003c0: f269 b33d 61bd 923d 3fe7 963b e3f8 af3e
000003d0: 1405 133e 0967 a23e c2f2 4fbd be94 69be
000003e0: dd73 b43d 0a81 693e dccc 4b3d b3b3 573e
000003f0: e504 63be 8465 f53d 8758 4dbe c0f8 943d
-0.053541366 -0.035380032 -0.14123611 -0.05351806 0.11428906 0.06919369 -0.13363373 0.045792516
-0.12570846 0.10299749 0.16798095 0.14849114 0.14066589 0.01828086 0.11353407 0.10573215
0.102233306 0.20307778 0.02541901 0.13796818 0.068742104 0.123126715 0.14722748 0.10360963
0.13227694 0.043727025 0.12249314 0.06778324 0.08216506 0.048608918 0.080021605 0.045828875
0.035364166 0.23118214 -0.005836759 0.072017565 -0.02816041 -0.03569614 -0.034180865 -0.04704583
0.009506218 -0.010869637 -0.11339884 -0.023749959 -0.036140326 -0.037978377 -0.054652985 -0.0008295506
-0.04998574 -0.09055892 -0.049723405 -0.12634231 0.0031381114 -0.032220576 0.1661728 -0.043946516
0.14678405 -0.09731214 -0.1875254 -0.088949084 0.19219923 -0.026664404 0.13622114 -0.24543422
-0.117749155 -0.23858103 -0.13145173 0.27097955 -0.15813705 -0.21588804 -0.11190912 -0.16753036
-0.029794324 -0.05079028 -0.103179075 0.031878497 -0.092647225 0.03247448 -0.024040638 -0.088370465
-0.010730208 0.3157608 -0.11838327 0.50341934 0.031309094 -0.3829976 0.0073671527 0.11629551
0.110023 0.18086925 -0.1699211 0.099663 -0.25511193 0.0060759555 0.2465872 0.02997347
-0.12791374 0.010699448 -0.13734025 -0.043427203 -0.002621662 -0.091372535 -0.06438298 0.018822245
-0.07733556 0.12516637 -0.19107799 0.048126314 0.06488049 -0.03119681 0.13132147 -0.020557608
-0.3624697 -0.049264777 0.16447622 -0.06990962 0.023602033 -0.09914467 -0.29568905 -0.23976414
-0.18200806 -0.13027026 -0.28712112 -0.1386402 -0.22241776 -0.1760769 -0.06243853 -0.112736456
-0.01562567 -0.036624722 -0.34325817 -0.15599589 -0.08735283 -0.019821806 -0.07915107 -0.013772644
0.16395758 0.0053312597 0.19244805 -0.05292381 -0.07198928 0.032666188 -0.007885076 -0.03765966
0.13932629 0.06824519 -0.049230523 0.12775674 0.037114874 -0.2321961 0.14572947 -0.061354984
-0.13215432 0.08732111 -0.00058372674 -0.056976866 0.14303866 0.050299868 -0.041875582 0.023893084
-0.03545659 -0.082344495 -0.012749534 0.28084055 -0.32554638 0.06614551 -0.18977466 0.031166274
-0.17318 0.17393331 0.3085699 0.011239249 -0.10658445 0.18378396 0.027671624 0.014661862
-0.022505604 0.10393721 -0.12961501 -0.10546023 -0.04685214 -0.12996261 0.008582085 -0.08277491
0.14345443 0.14131927 0.017514102 0.080211714 -0.42497244 -0.07190381 -0.25424755 -0.16305193
0.1699255 0.008862137 -0.07385012 -0.18670061 -0.03213429 -0.13596353 0.4571837 -0.0060660155
-0.2916225 0.051906954 0.0009867947 -0.09234371 0.05350724 0.107837126 0.046259888 0.016047878
0.066428594 -0.0115696415 0.110502794 -0.06113629 -0.0908904 0.10853012 -0.01201144 0.105170794
-0.26653752 -0.0038683154 -0.22342987 -0.014972344 0.30267772 0.019643696 -0.26551208 0.12869103
-0.26424524 0.05112235 -0.28064296 0.41227445 0.1686164 -0.038382545 0.0145848505 0.20444936
-0.069379754 0.20847051 -0.011131653 0.027643006 0.03908664 -0.040086478 -0.0920052 0.035020683
0.08760442 0.071650274 0.0046052034 0.34369573 0.14357406 0.31719235 -0.05076862 -0.22810647
0.08811162 0.22803131 0.049755916 0.21064644 -0.22169836 0.11982253 -0.20053302 0.07274008

inc.conv.conv.0.bias f4 [24]
00000000: 6650 143e b564 eb3d 7960 2c3d 8f72 ea3d
00000010: a911 1c3e 3e0e 20be e6ca 40be c4d6 97bc
00000020: 36bf 00be 15e8 f2bd 524f 65bb 2d2b 653d
00000030: 50d1 43be f0aa c73d 1eb9 603d d26f 723d
00000040: 86c2 a43d 7f99 663d 2af0 2abe 6323 a03c
00000050: 6855 9dbc e511 00bc 7839 45be 9827 2ebe
0.14483795 0.11493818 0.04208419 0.114476316 0.15241112 -0.15630433 -0.188274 -0.018535025
-0.12572941 -0.118606724 -0.0034989906 0.05594938 -0.19122815 0.097494006 0.05486404 0.05918867
0.08044915 0.05629873 -0.16693178 0.019548124 -0.019205764 -0.007816766 -0.19260204 -0.17007291

inc.conv.conv.1.weight f4 [24]
00000000: feae 3d3f c9b2 b03f d23c 643f 1d06 963f
00000010: be70 543f f0d6 6a3f be08 9c3f 443a 373f
00000020: 1711 723f a7d0 493f 48a1 423f ca4d 723f
00000030: 2ea8 263f db3f 833f f6fb 343f 6af3 693f
00000040: 1b23 573f e8aa 823f d6b5 643f e653 983f
00000050: 898e 743f 1a82 0d3f 94b2 733f 8d7b ac3f
0.7409514 1.3804561 0.89155304 1.1720616 0.8298453 0.9173422 1.2190168 0.7157328
0.9455733 0.78834003 0.76027346 0.94649947 0.6510037 1.0253862 0.7069696 0.91387045
0.8403794 1.0208406 0.8933996 1.1900604 0.9552999 0.55276644 0.95194364 1.3475205

inc.conv.conv.1.bias f4 [24]
00000000: 8b3e 363f cd13 13bf abbe 413d cca0 46bd
00000010: 23b2 16bf f762 6abf 6f7a cdbd 2da7 533e
00000020: 5a60 893c 5087 803b 15d8 b83e a268 46bf
00000030: 0a10 20bd 8de4 b4bc 8cbb 9e3c 2fa5 bcbe
00000040: e4f0 1d3c eec8 993d 8366 4abf b11f 55be
00000050: 75f9 773d b0b9 423e e390 60bf 4983 9ebe
0.71189183 -0.5745209 0.047300976 -0.04849319 -0.58865565 -0.9155726 -0.10033118 0.20669241
0.016769577 0.0039223805 0.36102358 -0.77503407 -0.039077796 -0.022081638 0.019376539 -0.36844775
0.009639952 0.075090274 -0.7906267 -0.2081287 0.060540635 0.19016147 -0.8772108 -0.30959538

inc.conv.conv.1.running_mean f4 [24]
00000000: d250 143e fc65 eb3d 9951 2c3d 7c68 ea3d
00000010: 3d11 1c3e 850e 20be c5c9 40be 9bd4 97bc
00000020: 6ebb 00be 0be9 f2bd 7b22 65bb 6b2f 653d
00000030: 38d2 43be 23a9 c73d e7bb 603d 686e 723d
00000040: 93c4 a43d 779c 663d 9cef 2abe 3f26 a03c
00000050: 734c 9dbc 2a15 00bc c638 45be aa29 2ebe
0.14483956 0.11494061 0.042070005 0.1144571 0.15240951 -0.15630539 -0.18826969 -0.018533995
-0.12571499 -0.11860856 -0.003496318 0.055953424 -0.19123161 0.09749057 0.054866698 0.059187323
0.08045306 0.05630156 -0.16692966 0.019549487 -0.019201493 -0.007817546 -0.19259939 -0.17008081

inc.conv.conv.1.running_var f4 [24]
00000000: 5bfd a336 8359 df35 2059 5136 0ea8 b935
00000010: 18da 4e37 0b62 8436 f4ba 9435 60c8 ca36
00000020: 750b 3936 74f6 4836 547b 8436 3aa2 6b36
00000030: f469 eb36 2293 d035 d7ae e236 b62f 0a37
00000040: f3db 5e36 3429 ca35 701e 9936 8343 dc35
00000050: a92d 4e36 92d9 0a38 0121 6f36 2e2d e935
4.887273e-06 1.6640846e-06 3.1195304e-06 1.3832484e-06 1.2329336e-05 3.9453203e-06 1.108127e-06 6.043396e-06
2.7573817e-06 2.9945777e-06 3.948264e-06 3.5112157e-06 7.0158803e-06 1.5540029e-06 6.755679e-06 8.23655e-06
3.3208605e-06 1.5062164e-06 4.5632987e-06 1.6410926e-06 3.072297e-06 3.3104392e-05 3.5632986e-06 1.7373002e-06

inc.conv.conv.3.weight f4 [24, 24, 3, 3]
00000000: 0f7b 61be caee 6bbe 3d27 2bbe 2a71 8abe
00000010: d1ee b2be 1eb6 50be 4dfc a0bd 9236 ebbd
00000020: aefd 673d 0ed6 79bd c3c4 39bd f945 42be
00000030: 74d7 8dbd b5d0 2fbd f924 08be 9ca8 54be
00000040: 973a 253c d347 00be 13df eebd e705 fabd
00000050: 4d67 d2bd 7298 22be 4c86 1bbe 37d6 30be
00000060: 1214 c9bd a44e 00be 7237 30be ffb1 a7bd
00000070: 5732 83bd ad09 25be 8201 ccbd 64ed 0bbe
00000080: 3b29 0bbe 1b79 1cbd 968e 51bd 4349 1bbe
00000090: 0ed3 37bd 179a 313e 3837 5e3d 9ed7 d03d
000000a0: 8c69 953e 0656 cb3d 0b05 4a3c 1464 e0bb
000000b0: 8f3f 7abd f18e 1fbd 4953 3d3d c878 9a3d
000000c0: e113 0e3d 49a8 df3c 5971 1c3a 9df2 b4bb
000000d0: 220e 8abd 6440 aebd 15d6 b2bd 520c 25bd
000000e0: 1458 fabd 3150 05bd d100 9a3c c718 e7bd
000000f0: 8f51 64bc 0197 b6bc f4b0 ffbd b4fa dcbb
00000100: 1b46 d63d 3de8 7bbb bb3a de3d 06a7 e23d
00000110: 0729 8e3d ba68 853c 4c07 873d 7ce5 c43d
00000120: cb29 173d 6a2f 853d 8166 bc3c a40e bf3d
00000130: ef76 063e 743b ce3a bc19 5a3d cc65 1c3d
00000140: 98b9 5f3d 15c8 f2bd 4d3c 95bc 17c3 d1bc
00000150: 754f c3bd 6280 c33c f03f 00bd 48ac 54bd
00000160: 0041 c8bd b20a 0dbc 57c3 a3bd ef9c 1ebd
00000170: 0aba 6e3d 33f3 8cbd 9a34 b13c 7e94 8a3c
00000180: 0c88 96bc 528d 56bc c1eb aabd 8a1c b13d
00000190: 2569 c13d bafa 883c 8d74 f53d e073 943e
000001a0: e9f5 5a3d 2150 f93d 61e8 4b3d 02fd 5b3d
000001b0: 01fe b73d d80e c43d ae11 f53d 9a11 433d
000001c0: 79a1 d53d f705 3b3d 6514 c63c 0e6e 033c
000001d0: 2b75 d43d 87e9 61bd 37ea 293d 29b2 5fbd
000001e0: 2143 793c 97dc 083d 6f7f d1bd d46e d8bd
000001f0: 0ef6 39be 8cea 8cbe b445 a13d 8486 d13d
00000200: 46a2 f93c 8668 3b3e cb0b 5c3e 593e 953c
00000210: d8f5 d0bc 1e22 4c3e 9861 9fbc 402d 6c3d
00000220: c082 673b 5979 19bc 3b90 bebc b81c bcbb
00000230: d930 463d 47f1 aabd 1b76 523d 0f35 6ebc
00000240: 0ddc 0d3e e19d b43d fdf7 863d 08f5 513d
00000250: 588e c73d c150 be3d 5db0 12bd bea7 4d3d
00000260: b87b 52bd 0270 ebbd 9ef2 52bd e5c6 9cbd
00000270: 19ca d6bd 8628 9b3d 9086 82bc e281 64bd
00000280: 3a64 1f3d 5d47 943d f41c 563e 9356 0a3e
00000290: a3a6 b43d 5681 0f3e 5f56 e43d afe8 1b3e
000002a0: 7fa1 a63a 0014 983d 6c1a 7a3d 0912 02be
000002b0: acbf c03c 32f7 abbd ae74 64bd 6117 233e
000002c0: 6328 2fbd cf4c 84bd 86ca bfbd c0c9 98be
000002d0: 117d 073e bd57 523e 7068 363e 9ad0 dc3d
000002e0: 45d3 243e 7b1d b83d 90bb 413d 4e60 7f3d
000002f0: 9e80 be3d 31e4 103e 556d 363d 3f3a 583c
00000300: f5ec e73c 5f8e e6bd 22c6 893d 5aba 90bc
00000310: 2021 363d 315e 573e 08ee 873e df8b 433e
00000320: 90ee 8e3d 268c 973e a9dc 9d3e a104 8c3e
00000330: 38e9 563e 0bee 193e 3605 ad3d 7fa1 0abe
00000340: bd0d 6dbd 30a4 24be 1d40 b4bc f9c4 673d
00000350: aefa 0c3e 4642 41be 6b23 21bd 55f4 ddbd
00000360: cb8c f03d 22ba b9bd 8f08 e73d d161 cbbd
00000370: 5ca2 35be c917 7d3d c9cf a6bc cf6e ec3d
00000380: 1527 883d db46 67be 5531 29be 1152 9e3e
00000390: a373 e1bc 6651 6abe 4631 863e 1a45 f73e
000003a0: 5a55 893e 25c2 9c3e 32fa b3be 9140 aebd
000003b0: 980d 64be 4f3c 00be c656 a6bd bddd 11bd
000003c0: 785d fbbd a29c aabd e7d0 69be dbab 173e
000003d0: d00e 4e3e ed0e 9d3e 53df 44bd ceef e23d
000003e0: 39fd 4a3e eff4 a03d 70a6 e63d dab0 103e
000003f0: d031 b1bd 05bf 273c e034 babd f199 bc3d
-0.220196 -0.2304031 -0.16714187 -0.27039462 -0.34947827 -0.20381972 -0.078606226 -0.11485018
0.056638412 -0.060995154 -0.045353662 -0.18972005 -0.0692586 -0.042923648 -0.13295354 -0.20767444
0.01008477 -0.12527399 -0.11663642 -0.12208157 -0.10273609 -0.15878466 -0.15187949 -0.17269216
-0.09818281 -0.12529999 -0.1720865 -0.08188247 -0.06406086 -0.16116972 -0.09961225 -0.13664776
-0.13589947 -0.038201433 -0.05116137 -0.15164666 -0.04487901 0.17343937 0.05425188 0.10197376
0.29182088 0.09928517 0.012330304 -0.0068478677 -0.06109577 -0.03895468 0.046222005 0.075425684
0.034686927 0.027301924 0.0005967818 -0.005522086 -0.06740977 -0.08508375 -0.08732239 -0.040294953
-0.12223831 -0.03254718 0.018799217 -0.11284023 -0.013935461 -0.022288801 -0.12484923 -0.0067437533
0.1046259 -0.0038437985 0.10851046 0.110670134 0.06941419 0.01628529 0.06593189 0.09614083
0.03690509 0.06503184 0.022998096 0.09328964 0.13131307 0.0015734271 0.0532472 0.03818302
0.054620355 -0.11854569 -0.01821723 -0.025605721 -0.095366396 0.023864929 -0.031310976 -0.051922113
-0.09778023 -0.008608507 -0.079962425 -0.038723882 0.05828289 -0.06882324 0.021631528 0.01691651
-0.01837542 -0.013095217 -0.08345748 0.086480215 0.09443883 0.016721118 0.11985121 0.28994656
0.053457174 0.121734865 0.04978216 0.053708084 0.08983994 0.09573144 0.11966263 0.047624208
0.10431189 0.045659985 0.024179647 0.008021845 0.103739105 -0.05515435 0.04148313 -0.054613266
0.015213759 0.033413496 -0.10229384 -0.10568014 -0.18160269 -0.27522695 0.07874623 0.10230735
0.030472886 0.18301591 0.21488874 0.018218206 -0.025507852 0.1993489 -0.019455716 0.05766034
0.0035325736 -0.00936731 -0.023262134 -0.005740728 0.04838643 -0.08346801 0.051382165 -0.014539017
0.13853474 0.088191755 0.06590269 0.05125907 0.09743947 0.09292746 -0.035812724 0.0502088
-0.05138752 -0.11495973 -0.05150091 -0.076551236 -0.10487766 0.075760886 -0.015933305 -0.05578793
0.038913943 0.07240174 0.20909482 0.13509588 0.08820846 0.14014181 0.111492865 0.1522548
0.0012712925 0.0742569 0.061060354 -0.12702192 0.023528896 -0.08396758 -0.055775337 0.15926887
-0.042763125 -0.064599626 -0.093648 -0.29841423 0.13231303 0.20541282 0.17813277 0.10781975
0.16096218 0.08989998 0.047298014 0.062347703 0.093018755 0.14149548 0.04453786 0.013197481
0.028311232 -0.11257624 0.06727244 -0.017666984 0.044465184 0.21032025 0.2654879 0.19096325
0.06979096 0.29599112 0.30832413 0.27347282 0.20987403 0.15032212 0.084482595 -0.13538168
-0.05787443 -0.16078258 -0.022003228 0.056584332 0.13767502 -0.18872938 -0.039340418 -0.10837618
0.11745604 -0.09068705 0.11280929 -0.099307664 -0.17737716 0.06179026 -0.020362752 0.115445726
0.06648079 -0.22585623 -0.16522725 0.30921987 -0.02752096 -0.22882614 0.26209468 0.48294908
0.2682293 0.3061687 -0.3515182 -0.08508409 -0.2227081 -0.12523006 -0.081220195 -0.035611857
-0.12273687 -0.083306566 -0.22833596 0.14811651 0.20122838 0.3067545 -0.04806454 0.11080895
0.1982316 0.078592174 0.11262214 0.14129964 -0.08652079 0.010238414 -0.09092116 0.092090495

inc.conv.conv.3.bias f4 [24]
00000000: 4ca8 4ebd 3f5a 19bd 06a4 b13c 00fd e0bc
00000010: b5e1 803d 708b 7abd fc79 0bbd fb8c 833d
00000020: d591 4ebd fdce e53b b05d 1d3d 0bd9 6fbd
00000030: b4b3 f539 5a4a 5bbd 643f 6d3c f42d 4ebd
00000040: 99ee 0abd ccea 69bd 5aaf 3ebd a7ee 853d
00000050: 7035 81bd a9e2 df3b 8642 1f3d d041 7b3d
-0.05045347 -0.03743958 0.021684658 -0.02746439 0.0629305 -0.061168134 -0.03405188 0.06423374
-0.050432045 0.0070132003 0.038419425 -0.058556598 0.0004686393 -0.053537704 0.0144804455 -0.050336793
-0.03391895 -0.057108685 -0.046553947 0.0653966 -0.063090205 0.00683244 0.0388818 0.06134206

inc.conv.conv.4.weight f4 [24]
00000000: 01ce 1a3f 266a a13f 6289 2a3f a6d9 3e3f
00000010: 5013 fc3e f17e 413f 56c5 473f c083 553f
00000020: 52b2 823f bce3 543f 8c7a 433f 122d 7f3f
00000030: 8ceb 963f 0998 763f de0b 643f b805 573f
00000040: 832c 9a3f a9d7 393f f560 793f e21b 2f3f
00000050: b38b 5b3f 61a3 523f 77e6 353f d1c6 3a3f
0.60470587 1.2610519 0.6661588 0.74550855 0.49233484 0.7558432 0.78035486 0.8340416
1.0210669 0.83159995 0.76358867 0.99678147 1.1790633 0.9632574 0.8908061 0.839931
1.2044834 0.72594696 0.9741357 0.6840192 0.8576004 0.82280546 0.71054786 0.7295962

inc.conv.conv.4.bias f4 [24]
00000000: c9f9 853f bde9 51bf 60bf 733f af44 303f
00000010: 15a1 a43f 7638 163f 21e2 983f f36f dd3e
00000020: 3b3e a6be 89c4 833e f96e 9c3e 1b3a 80be
00000030: 36f3 19be 351a 0b3f 8f1b 333f 28ae 043f
00000040: eae9 21bf e537 59be 70e9 6b3f 7c43 623f
00000050: acad d1bd c70f ddbd 2ce3 813f 8437 e83e
1.0466853 -0.8199728 0.9521389 0.688548 1.2861658 0.586799 1.1944009 0.43249473
-0.32469353 0.25735882 0.30553415 -0.2504433 -0.15034184 0.54336864 0.69963926 0.5182824
-0.6324755 -0.21212728 0.9215307 0.88384223 -0.102382034 -0.10794025 1.0147452 0.45354855

inc.conv.conv.4.running_mean f4 [24]
00000000: 96ee 7cbf 2d54 39bf c399 373f 2f68 933f
00000010: 9621 433e 1be7 8c3d f374 afbe 4042 ccbd
00000020: 7de4 20bf 15fb 7a3f 5887 d03e 2fc4 8abe
00000030: 8c32 a1bf 88bd 4e3f 8cd6 c13f d2c0 363e
00000040: 91a6 bebe acd7 ab3e c616 0440 bbcd 103e
00000050: c786 41bf 3a5c 393f 9b48 f6bd f514 093f
-0.98801553 -0.7239407 0.71718997 1.1516169 0.19055781 0.06880017 -0.34268913 -0.09973574
-0.62848645 0.9803937 0.4072826 -0.271028 -1.2593551 0.8075795 1.51436 0.17846993
-0.37236455 0.33562982 2.06389 0.1414098 -0.7559628 0.7240635 -0.12025567 0.535476

inc.conv.conv.4.running_var f4 [24]
00000000: eb5e 963e 014c ac3e 5212 083f caf4 7d3f
00000010: 67b6 893e 4da8 123f dd26 a33e 4d48 c53e
00000020: 7bb0 b93e 020e 463f 0beb 833f f9b4 e03e
00000030: 4f84 b83e 264c 463e 8d4b 8f3f db7a 663f
00000040: f1a1 0e3f c468 6b3e a3cb df3f 75fd 833e
00000050: fa08 363e ddb6 343e 2dec 823f 560e 763e
0.29369292 0.33651736 0.53152955 0.99201643 0.26896974 0.57288057 0.31865588 0.38531724
0.36267456 0.77365124 1.0306104 0.4388807 0.36038443 0.19364986 1.1194931 0.9003121
0.5571585 0.22989184 1.748402 0.2577931 0.17776862 0.17647882 1.0228325 0.24028906

down1.mpconv.1.conv.0.weight f4 [24, 24, 3, 3]
00000000: 0401 c2be a66b 8c3c bb03 1a3d 4641 c33b
00000010: 5b34 8d3e b910 8bbe 3eb5 52be 910f 43be
00000020: 6789 c93d 0964 823e d4b3 3e3e b5bb 1abe
00000030: a3e4 e83c 0c54 39be 5ca7 79be 0a65 f7bc
00000040: 568d 58be 2d9b 203d a76e 96be 6216 0f3d
00000050: 3737 d3bb add5 123e 76e3 813e 903f b8bd
00000060: 8a07 d0bd 793a a53d 93fc 8abd 418e 8bbd
00000070: 3b1a 0a3e fd3f 46be 1383 033d d2d2 833c
00000080: 67aa af3d ef7d 1dbe 0d1d 1a3e f0a1 31be
00000090: 886d 5abe 0297 a23e 17b8 953d 49f3 e13d
000000a0: 79bf a2be 69ba debd dc04 7fbd 3a54 aa3c
000000b0: 3be1 613b b678 73bc dd3d 4d3e aa0a b5bd
000000c0: 0588 72bd f063 453e a69e 14be 6678 f13d
000000d0: 4a8c edbd 7717 ebbd 4870 f93c 6b09 873e
000000e0: 98c0 50bd f8ae d03c da30 c83c 2ef7 0fbe
000000f0: ca41 dfbd df19 743b ce3e 90bd 51ee aabc
00000100: 5ce9 883d 19e2 2a3d 9cde 6c3d da4c 5bbd
00000110: ce42 f3bc f45e 123d 697a 06bd 801f 7ebc
00000120: 95dc 373e cd25 8b3d a4fd cabd 96e7 043d
00000130: babd 3ebe dc38 a43d aa1e 73bc ab34 d93c
00000140: 4ef2 76bd 3c63 e63d 31a4 cd3d 05c3 09be
00000150: 440c 07be 55a4 35be d23c dbbc 2350 6b3c
00000160: ca09 243e 57dd bebd 4c5f 61be a2c7 ac3e
00000170: 17e0 0e3e 2f21 063e 6166 163e 7676 9bbe
00000180: 603c 9f3d d4cb fcbd b181 773d 1893 c3bc
00000190: c488 82bd bd55 a93d 1b96 623c a8d5 38bc
000001a0: dd91 763d 3365 6cbc ae93 143d 3be9 c63d
000001b0: 7b71 4d3d 4072 a2bc c61d 243d 0735 aabc
000001c0: 190b bd3d c7b6 1fbd 7acb 8abd 9229 6c3d
000001d0: 4d90 83be d189 063e 357b c7b9 05bd cf3c
000001e0: 008c dc3d c16f 9d3d 4181 16bc f0a4 30be
000001f0: ec70 4dbe cbd7 5dbe 8b73 bb3e d009 19be
00000200: 0f10 94bc a7a6 6a3e 6d93 aebe 4a8b 263e
00000210: c60b b9bd a278 abbd 3051 f1bd 8107 e33d
00000220: 8697 ecbd 673d 293e 988d d0bd 8d9d 573e
00000230: 5507 613d e347 43bb d79e 973d 2a28 b03a
00000240: 2483 b03d e2f3 993d 743d fe3d 61fe 6d3e
00000250: d44c cf3c f806 7ebc d260 813c e143 45be
00000260: dd30 51be 228d 8a3d 4687 a63e 2de3 7e3d
00000270: 3208 bc3c 8042 313e 7bb9 5abe 779c 123e
00000280: c5c3 01bb 2aa6 863c c02a 123e 5a1f 75bd
00000290: 9bd2 ff3c bf4f 433c 67db bcbd 5080 28bd
000002a0: 1bc5 d3bd 853d adbd 319b 83bd 0914 0fbe
000002b0: 8db4 fabc e728 d6bc 4f7c bcbd f2f5 7bbd
000002c0: 77b2 363d 190c 3d3d 67a0 b03d ab75 ba3b
000002d0: 5602 fb3d adb9 f63c eaf3 ff3d 4fb8 4cbd
000002e0: c365 1e3e 2f86 33bd d053 f9bc b723 1dbc
000002f0: b321 cf3c 7d9b 723e bda0 55bb 4599 683b
00000300: bc3e 92bd 0b6e 8a3c 2631 0dbe b8b3 903b
00000310: 637c 0fbd 684c 07be b487 6c3e 8e0b 6d3d
00000320: ffc7 3bbd 147a c1bd dac8 453e 04be 08bd
00000330: 0043 09be 4abc c83d 79df 85be 454d f03d
00000340: 09df 503d 0704 58bc 9ff9 1cbb ab84 1f3d
00000350: b780 8a3d 4bb0 6cbd 9a3f 213d 5b81 bd3c
00000360: 84c0 90bd 9780 193e 315a 073d e8ef 4e3e
00000370: c36b da3e 5d81 793e d4ae 9abd 5a42 b73d
00000380: c2a1 013e 59af 0abe 2a4d aabc 0100 8bbe
00000390: b1b0 d7bd d854 543c d268 1dbe aa09 d9bd
000003a0: b517 ba3d e3c6 ffbd 6866 bcbc a76e c2ba
000003b0: 50b6 7b3c 7343 06be 10c9 523d eb67 e2bc
000003c0: 100f 623c 7eed c13c e3ae 27bd e6be a0bd
000003d0: c65f 81be 7405 64be 373c 23be 0d2f 52be
000003e0: 1d8b 2fbe 841a 2bbe e003 e4bd 8377 4fbd
000003f0: 6120 293c cd27 073e 1cfe a33d c5fd 923e
-0.378914 0.017141175 0.037601214 0.005958709 0.27579007 -0.27161196 -0.20576951 -0.19048907
0.098406605 0.25466946 0.18623286 -0.15110667 0.028429335 -0.18098468 -0.24380249 -0.030199546
-0.21147665 0.039210487 -0.29381296 0.034933455 -0.006445791 0.14339323 0.2536885 -0.089964986
-0.10157688 0.080677934 -0.06786456 -0.06814242 0.13486569 -0.19360347 0.032107424 0.016091738
0.085774235 -0.15380071 0.15050144 -0.1734693 -0.21330845 0.31755835 0.07310503 0.11032731
-0.31786707 -0.10875399 -0.062260494 0.020792115 0.0034466523 -0.014860323 0.2004313 -0.08839925
-0.05921175 0.19276404 -0.14513645 0.11790542 -0.11599024 -0.11479085 0.030449048 0.26374373
-0.05096492 0.025474057 0.024437357 -0.14059135 -0.1090122 0.0037246866 -0.07043229 -0.020865591
0.06685135 0.04171953 0.057829484 -0.05354009 -0.02969494 0.035735086 -0.032831583 -0.01551044
0.17955239 0.06794319 -0.09911659 0.03244742 -0.18627062 0.080186576 -0.014838854 0.026514372
-0.060289674 0.11249396 0.10041083 -0.134533 -0.13188273 -0.17738469 -0.0267624 0.014362368
0.16019359 -0.09319561 -0.22009009 0.33746058 0.13952671 0.13098596 0.14687492 -0.30363816
0.077751875 -0.12343565 0.060426418 -0.02387385 -0.06373742 0.082683064 0.013829733 -0.011281408
0.0601977 -0.014428425 0.03627365 0.09712454 0.05015705 -0.01982987 0.040067457 -0.020777239
0.09230632 -0.03899267 -0.06777091 0.057656832 -0.2569603 0.1313851 -0.00038048034 0.025358686
0.107688904 0.07687331 -0.00918609 -0.17250419 -0.20062608 -0.2166435 0.3661159 -0.1494515
-0.018074064 0.22915135 -0.34096852 0.16264072 -0.09035449 -0.08372618 -0.117830634 0.11085416
-0.11552338 0.1652733 -0.10183257 0.21056195 0.054938633 -0.0029797486 0.07403343 0.0013439704
0.08618763 0.0751722 0.12414065 0.23241569 0.02530519 -0.015504591 0.015793238 -0.19264175
-0.20428796 0.067652 0.3252508 0.06222837 0.022953127 0.17310524 -0.21359818 0.14317499
-0.0019800526 0.016436655 0.1427412 -0.059844352 0.031228354 0.011920868 -0.09221535 -0.041137993
-0.10340329 -0.084589995 -0.06426085 -0.13972487 -0.030603671 -0.02614255 -0.092033975 -0.06151385
0.04460379 0.046154115 0.08624344 0.0056902966 0.12256305 0.030117834 0.12497695 -0.049980458
0.15468507 -0.04382914 -0.030435473 -0.009591035 0.025284624 0.23692127 -0.0032597028 0.0035491746
-0.07140872 0.016898176 -0.1378828 0.0044159554 -0.035030734 -0.1321274 0.23098642 0.057872348
-0.045845028 -0.09447113 0.193149 -0.033384338 -0.13404465 0.09801538 -0.2614706 0.11733488
0.050993953 -0.013184554 -0.0023952497 0.03894488 0.06762832 -0.057785314 0.039367296 0.02313297
-0.070679694 0.1499046 0.033044998 0.20208704 0.4266034 0.24365754 -0.07552877 0.089482024
0.12659362 -0.13543452 -0.020788748 -0.2714844 -0.10531748 0.012959681 -0.15372017 -0.105975464
0.09086553 -0.124891065 -0.02299805 -0.0014834002 0.015363291 -0.13111667 0.05146128 -0.027637443
0.0137975365 0.023672815 -0.04093827 -0.07848911 -0.25268382 -0.22267705 -0.15940939 -0.20525761
-0.17142911 -0.16709334 -0.111335516 -0.050651085 0.010322661 0.13198777 0.08007452 0.28709236

down1.mpconv.1.conv.0.bias f4 [24]
00000000: 0e59 22bd 3fe1 82bc ccf0 513d 6d65 e63b
00000010: b165 163c f159 723a 2772 213d 8f71 83bd
00000020: 0aa0 5fbd 1477 31bc e486 2a3d 44c8 363c
00000030: 32b1 9d3b 3a21 51bd 4960 62bd e79e 0c3d
00000040: f455 9c3c f1c1 80bc 7ee1 c0bc 9367 dfbc
00000050: da0a 623d 9bf2 06bd 7091 f6bc d9b2 853d
-0.03963571 -0.015976546 0.051255032 0.007031134 0.009179519 0.00092449697 0.039415505 -0.06418144
-0.054595985 -0.010831613 0.041632548 0.0111561455 0.004812383 -0.051057078 -0.055267606 0.03433123
0.019083954 -0.015717478 -0.023545023 -0.027271068 0.05518613 -0.03294621 -0.030098647 0.06528253

down1.mpconv.1.conv.1.weight f4 [24]
00000000: d99a 3b3f 6f1c 9f3f 6ce7 813f 20cc 803f
00000010: 640f 503f 03d0 783f c9e6 913f d80f 763f
00000020: 206f 273f c433 373f 0502 c23f 9623 303f
00000030: 719c 8f3f 598a 413f 954b 563f 99a2 2c3f
00000040: 43ec 3f3f 4424 4c3f 6188 403f de6e 543f
00000050: a54d 993f de8b 303f 535c be3f 1c08 503f
0.73283154 1.2430552 1.0148749 1.0062294 0.81273484 0.971924 1.1398555 0.96117926
0.6540394 0.71563363 1.5156866 0.688043 1.1219617 0.75601727 0.8370908 0.67435604
0.7496988 0.79742837 0.752081 0.8298167 1.197682 0.6896342 1.4871925 0.81262374

down1.mpconv.1.conv.1.bias f4 [24]
00000000: 4905 4d3d f0fe 51bf a347 3e3e 68f8 0ebf
00000010: c0f3 f93e 41e9 4bbe deeb b2be 2344 d1be
00000020: 28b0 203f 013f 273e b933 7abe 4034 e23e
00000030: 0810 f7bd 4729 5e3e 1ea8 00bf 07fa 4a3f
00000040: babc 803f f5c0 873f 2e52 e73e bb08 623e
00000050: f326 fcbd 0313 ed3e ee87 9dbe a2fd 8ebe
0.05005387 -0.8202963 0.18582015 -0.5584779 0.4881878 -0.19913198 -0.34945577 -0.40872297
0.62768793 0.16332628 -0.24433793 0.4418049 -0.120636046 0.21695434 -0.50256526 0.7928776
1.0057595 1.0605761 0.45179886 0.22073643 -0.123121165 0.46303567 -0.3076777 -0.2792788

down1.mpconv.1.conv.1.running_mean f4 [24]
00000000: a519 a4bf 788b 06bf 97c0 18c0 20c7 dd3e
00000010: eda5 96bf edee efbf 4bc3 06c0 8063 183f
00000020: 672a ccbe 5da4 9fbe 44ab 92bf dc19 883d
00000030: 439f 5740 b20d dcbf 45f4 73bf f155 6dbf
00000040: f963 7940 9c9e 2740 eb47 3fbf 0835 013f
00000050: 7836 7740 7998 03bf d2fc 1ec0 38c5 2fbd
-1.2820326 -0.5255656 -2.3867548 0.43315983 -1.1769387 -1.8744789 -2.1056697 0.59526825
-0.398761 -0.31180087 -1.1458516 0.06645557 3.3690956 -1.719168 -0.952946 -0.9270926
3.8967268 2.6190557 -0.74719113 0.50471544 3.8626995 -0.5140453 -2.484181 -0.04291269

down1.mpconv.1.conv.1.running_var f4 [24]
00000000: 1fc9 e93f 307b 9440 2e44 de3f 9eae 3c40
00000010: c789 8f3f fcd8 ef3f 6a40 5040 7594 0e40
00000020: e418 2a40 93aa 0740 08e6 2e41 8777 f33f
00000030: a23d d140 9b9c ff3f afb1 e53f 01e2 6540
00000040: dd63 de40 67ef db40 6248 2e40 85ec 1e40
00000050: b152 0041 630b 0040 f627 1d41 e2db 1040
1.8264502 4.6400375 1.7364557 2.9481578 1.1213921 1.8738093 3.2539315 2.227811
2.6577692 2.119786 10.93116 1.9020852 6.5387735 1.9969667 1.794485 3.5919192
6.9496903 6.872974 2.723168 2.483186 8.020188 2.000695 9.822256 2.2634206

down1.mpconv.1.conv.3.weight f4 [24, 24, 3, 3]
00000000: 0560 00bd b75c 8cbc be28 b73d 1080 72bd
00000010: d4b4 02be 9fe0 9f3c 9847 2cbd c70b 35bd
00000020: 34a1 b3bc ccf7 9abe 1603 33be 8784 98be
00000030: c1b1 abbe 294e 963d fa3e bcbe 9b9f 46be
00000040: 640c fabc fa53 89be cfab 3f3d a58d 4bbc
00000050: b632 a6bb ede8 df3c ca28 693c 2b04 923d
00000060: 7aec 88bd 7488 a7bd 1b07 b63d 0cec 613d
00000070: 3a72 d5bd b0c0 12be efdb 3ebe 8d0a 73bd
00000080: 3557 afbd 7725 12be ff8b 263e 3ede b0bd
00000090: f4e7 e53c 18b9 95bc fde3 54bb d252 75bd
000000a0: 40d2 56bd 17c7 bc3c 43d5 34bd 0600 18bd
000000b0: 1653 0c3d 1b1f 593b 1dd5 63bb 87c1 763d
000000c0: dd8d 23bd b08a 23be 456a 8b3c aa88 aabd
000000d0: 0fe5 b3bd 2417 90bc 21a6 50bc 27d9 5b3d
000000e0: b1a3 5d3d 4374 9fbc 4b98 47bd 6e97 013d
000000f0: ae6a a93c 6c8a cabd 9743 2e3d 37c1 1b3b
00000100: 6f2c 303d 32be c83d 52eb 8e3d dc43 c2bd
00000110: 9eab f03d cd1f 9f3d fa71 f03c a6ac 6a3d
00000120: ee07 9bbd 23ef 63bd 5043 14bd 6f68 ffbd
00000130: c802 cbbd d5c0 1fbd 6f01 7bbd 6015 a93d
00000140: 10bb b1bd fd14 4f3d 6468 71be 7d4c edbd
00000150: 1134 f8bd d3f7 d8bd d2e3 cfbd 83fe 1bbd
00000160: 1363 6bbc cb19 29bd 94ec be3b 5bed b03d
00000170: e6f2 1c3d 4b08 e73c e30a e2bc fefe 7ebc
00000180: e7db 073e fd33 ac3d f70b 9abd 08b3 003d
00000190: a596 fdbd 65ab 47be 2ee0 99bd 2f2a 02be
000001a0: 5cc5 54be 1a50 01be fbbb 193d f1fc 893b
000001b0: d1cf 5c3d 33c2 cdbd 6289 c83c 4fdc 4fbb
000001c0: 8e15 efbc c066 9ebc 09c0 4bbd 92be 98bc
000001d0: ef5a cd3b 6143 b4bd e761 8abd a757 f83b
000001e0: 1c8f d53d 04a1 2c3c 6ad1 a9bd 6c49 f73d
000001f0: 0644 89bd f119 29bd 0367 4abe d63c 8dbe
00000200: e81c 11be fb5b 38bd 393b cbbd 6131 0abe
00000210: d35b cabd 9cd0 7bbe 3033 06be 3de5 79bd
00000220: 315a cebd d317 243e 14a2 26bc cf60 10bd
00000230: ef25 07be f989 973d aa24 753d 38ae da3c
00000240: 8367 30be c231 603d 5cae 39bd 82eb 10be
00000250: 19ae 4a3e 0654 98bc 08df 43bd 7d4a 173e
00000260: 7285 5ebd f999 cabd 89fe 83be cfe5 0fbb
00000270: 0e5e 0b3e 7fa7 e33d abbf 3ebc da44 d63b
00000280: 039f f83d c1a7 a0bd fca4 46bd 45c0 08be
00000290: 2f61 92bd 86af c7bd 80ea e3bc 9312 a8bd
000002a0: 4edb 76be 39b9 57be 9012 45bd 9fda 17be
000002b0: aade b9bd 9625 84bd d918 0fbd 7387 08be
000002c0: 6e20 21be e019 b23b 3bcc 70bd 31ca 93bd
000002d0: 5fdc 933c 8517 60bd d4d1 2abd 145a 943c
000002e0: 5e56 c5bc 6818 5fbd 03c1 cebd 7135 483d
000002f0: b02c 8f3b d353 24bd 3ada b8bd f886 c0bd
00000300: 29a0 603c a365 e5bd 5472 e8bd 8eff 053d
00000310: f64d eb3c c478 00bc a200 96bd 74b0 8a3c
00000320: 929b a1bc 9a17 c2bd 8ab9 ae3c 581a 96bc
00000330: a190 94bd 4707 13bd a1e4 e53b 7cb4 9a3d
00000340: b7d2 2fbd 1357 063c b465 29be 1935 03be
00000350: e277 adbd 592b 10bd 5dd5 11be 6b5c e7bb
00000360: a381 53bd 41d1 a5bd c6b6 0e3d 825c 01bd
00000370: 9760 e1bd 6d0e 1c3c 2517 a2bb 951f 72bd
00000380: 0f75 d03c 354d 363e ef22 3d3e 0f7b 053d
00000390: 6c42 953d 9525 423e 2880 273e 7ebc e83c
000003a0: e998 7fbd c27c d9ba 2dd2 b8bd db1f 44be
000003b0: 8615 debc fb1f 4ebd 2919 0cbe 7d3e 09be
000003c0: 657a 2d3d 6982 edbc 612d 35bd ee25 b73d
000003d0: 11d4 d93d 2eb1 ca3c d0b0 993d c2ce 2d3e
000003e0: 1612 173e 53cf 393d cd77 86ba be76 303d
000003f0: 7c33 19be ac3e 93be 76cb 43bd 52e7 f1bd
-0.03134157 -0.017134054 0.08943318 -0.05920416 -0.12764293 0.019516287 -0.042060465 -0.044200685
-0.021927454 -0.3026718 -0.17481646 -0.2978861 -0.33534053 0.073391266 -0.36766797 -0.19396822
-0.030523486 -0.26821882 0.04679471 -0.012423907 -0.005071963 0.027332747 0.014230916 0.07129701
-0.06685729 -0.08180323 0.08888074 0.055156752 -0.104221776 -0.14331317 -0.18638586 -0.059336234
-0.08561555 -0.14272104 0.16264342 -0.08636139 0.028064705 -0.018276736 -0.0032484524 -0.059893437
-0.052446604 0.023044152 -0.044148695 -0.037109397 0.034258924 0.0033130113 -0.0034764477 0.060243156
-0.039930213 -0.15970874 0.017018447 -0.08326848 -0.08783924 -0.01758916 -0.012734921 0.05367389
0.054111186 -0.019464618 -0.048729222 0.031638555 0.020680752 -0.09889683 0.042544927 0.0023766288
0.043011125 0.09801902 0.069784775 -0.094855994 0.117514834 0.077697374 0.029351223 0.057293557
-0.07569872 -0.05564798 -0.036197007 -0.12471091 -0.0991264 -0.03900226 -0.061280664 0.0825603
-0.086782575 0.050557125 -0.23574978 -0.115868546 -0.12119306 -0.10594144 -0.10150875 -0.03808452
-0.014366883 -0.041284364 0.005826542 0.08639022 0.038317584 0.028202197 -0.027593082 -0.015563725
0.1326748 0.084083535 -0.07521813 0.031420738 -0.12382249 -0.19498976 -0.07513462 -0.12711404
-0.20778412 -0.12628213 0.037532788 0.004211061 0.053909127 -0.10046806 0.024479572 -0.0031717008
-0.029185083 -0.019336104 -0.049743686 -0.018645559 0.0062669436 -0.08801914 -0.06756955 0.0075788083
0.104276866 0.010536436 -0.08291896 0.12074551 -0.067024276 -0.041284505 -0.19765858 -0.27585477
-0.14171183 -0.045009594 -0.09923405 -0.13495399 -0.09880795 -0.24591297 -0.13105464 -0.061009634
-0.100757964 0.16024713 -0.010170478 -0.035248574 -0.13198064 0.07399363 0.05984942 0.026694402
-0.17226987 0.054734953 -0.045332298 -0.14152339 0.19792975 -0.018594753 -0.04782012 0.14774509
-0.054326482 -0.09892649 -0.25780132 -0.0021957045 0.13610098 0.11115932 -0.011642377 0.0065389695
0.12139704 -0.078444965 -0.048497185 -0.13354595 -0.071474425 -0.09750275 -0.02782178 -0.08206668
-0.24107096 -0.2106675 -0.048113406 -0.14829491 -0.09075673 -0.064524814 -0.034935806 -0.1333292
-0.15735027 0.0054352134 -0.05878852 -0.07216299 0.018049417 -0.05470993 -0.041704014 0.018109359
-0.024089035 -0.054466635 -0.10095408 0.04887909 0.004369341 -0.040119004 -0.090259984 -0.09400743
0.01371006 -0.11201026 -0.11349931 0.03271442 0.028723698 -0.007841293 -0.073243394 0.016929843
-0.019727502 -0.09477158 0.021328706 -0.018323109 -0.07254148 -0.035895612 0.00701578 0.07553956
-0.042925563 0.008199471 -0.16542703 -0.12813224 -0.084701315 -0.03519759 -0.14241548 -0.0070605776
-0.051637303 -0.08096553 0.034842275 -0.031582363 -0.11004751 0.009524924 -0.0049466067 -0.05911215
0.025446443 0.1780289 0.18470357 0.03258806 0.072880596 0.18959649 0.16357481 0.028410193
-0.062401686 -0.0016592967 -0.09024463 -0.19152777 -0.027109873 -0.050323468 -0.13681473 -0.13402744
0.042353053 -0.028992848 -0.04423273 0.089427814 0.106361516 0.024742689 0.075044274 0.16973403
0.14752993 0.045363735 -0.0010259092 0.04308199 -0.14961046 -0.28758752 -0.047801457 -0.11811699

down1.mpconv.1.conv.3.bias f4 [24]
00000000: f4ae f13b 4a13 86bd 6076 c8bc 0b39 61bc
00000010: 70dc 563d e1d3 cf3a 0c46 e53b 4dc7 84bd
00000020: 9aee 6cbc f96a 6fbd 2ebb b0bb d46a b8bc
00000030: eb66 1abd c9e2 b9bc 94d2 0a3b d045 32bd
00000040: e744 163d 2d31 2dbd 56ff 803d d2c6 3bbd
00000050: 648f d33b 42a6 1ebd d7b9 82bd b79d 18bb
0.0073755924 -0.06546648 -0.024470508 -0.01374651 0.05245632 0.0015855992 0.0069968756 -0.06483326
-0.014461184 -0.058451626 -0.0053934073 -0.022511877 -0.037695806 -0.022691147 0.0021182643 -0.04352361
0.036686804 -0.042283226 0.062987015 -0.045843907 0.0064563025 -0.038732775 -0.063831024 -0.0023287365

down1.mpconv.1.conv.4.weight f4 [24]
00000000: 3f26 453f b6ab 443f efcf 693f 976a 553f
00000010: a073 243f 74b3 2b3f b1d3 4e3f 231e 513f
00000020: 444d 7e3f e410 213f b3a3 2b3f 8937 233f
00000030: 7324 7a3f defe 593f b40f 1d3f ad9b 473f
00000040: 9886 923f c861 0d3f f65b 883f dd35 613f
00000050: 0a9a 463f e671 253f 0c5c 7b3f 3cad 4b3f
0.77011484 0.7682451 0.91332906 0.8336577 0.6423893 0.670707 0.80791765 0.8168661
0.9933665 0.629164 0.6704666 0.63756615 0.9771187 0.8515452 0.61352086 0.7797192
1.1447325 0.5522733 1.0653064 0.87972814 0.77578795 0.6462692 0.9818733 0.7956121

down1.mpconv.1.conv.4.bias f4 [24]
00000000: bcfa 1d40 56b1 bc3e 711d 44bf 8392 413f
00000010: 03b0 0a3f 1104 3e3e 5221 ef3d 1d5f 3e3f
00000020: 57e2 9e3f 0e40 3b3e 16f5 e93e e65d 1a3f
00000030: 2503 643f 4d54 813f 945b d13e a754 003f
00000040: 1a67 f9bd fb94 843f 6288 5f3f 07a5 3f3f
00000050: 676a 0f3f 0c9b e63b 9e62 0ebd 31bb 6c3f
2.4684286 0.36854047 -0.76607424 0.75614184 0.5417482 0.18556239 0.11676277 0.7436388
1.2412823 0.18286154 0.45694798 0.6029953 0.890673 1.0103852 0.4089018 0.5012917
-0.12177868 1.0357965 0.8731748 0.74861187 0.5602173 0.007037526 -0.034762017 0.9247313

down1.mpconv.1.conv.4.running_mean f4 [24]
00000000: 0760 27c0 2eae 853f 2ad5 a2bf a60d fc3f
00000010: 5eac 253f 062e 593f b0bc 09bf ec6b d93f
00000020: 0f34 2140 4c9d 6abd 0970 283f 9fb1 303f
00000030: d1af 1ebe 91a9 1140 b8bf 533e 64cc 09be
00000040: dfb7 06bc 3d6e a63f 72df 5640 e687 2340
00000050: 9704 c03f 08cd 093e 2e7e b23e ee86 0540
-2.615236 1.044378 -1.2721303 1.9691665 0.64716136 0.8483585 -0.5380354 1.698606
2.5188024 -0.057278916 0.6579595 0.6902103 -0.15496756 2.2759745 0.20678604 -0.13456875
-0.008222549 1.3002392 3.357388 2.5551696 1.5001401 0.1345712 0.34861892 2.0863605

down1.mpconv.1.conv.4.running_var f4 [24]
00000000: 0b6a 7c40 14d5 3440 04bb ea3f 0d4f 9e40
00000010: 30a6 0640 1680 0340 5560 dc3f f553 6140
00000020: e4d0 e540 ba5c cc3f 7cac 1e40 cf5d 1240
00000030: 7b47 4840 5661 a640 dc0a eb3f 1b34 2a40
00000040: 8615 3940 bbe6 d43f c3f1 ed40 08db 9c40
00000050: 799c 6140 2797 ba3f 20e3 2940 5333 a640
3.9439723 2.8255053 1.8338323 4.9471498 2.1038933 2.0546927 1.7216898 3.5207493
7.1817493 1.5965798 2.4792776 2.2869756 3.1293628 5.199382 1.8362689 2.6594303
2.8919387 1.6632913 7.435762 4.901737 3.5251753 1.4577378 2.6544876 5.193765

down2.mpconv.1.conv.0.weight f4 [48, 24, 3, 3]
00000000: 501c 90bc 4ff9 9ebd 38a4 c43d aa19 1dbe
00000010: ff1a 80be 59fa 903d e558 af3d be19 12bd
00000020: 9e11 7c3d 2635 5e3d ddbb a53c 4bb0 c13c
00000030: 1c95 c03d 4fcc 93bd 6c76 083c f167 963c
00000040: f980 e03d 9c3f b5bd 3443 863d 5292 023d
00000050: 05b6 5b3d 48da ffbc fd3c 17bd 1d96 013d
00000060: 2bdf 963c cb45 f03d e5d4 933a 270c a3be
00000070: 80ef 84bc 5745 bfbd 4e3e 87be 6358 c53e
00000080: 8dd1 dabe 8d01 babd 3a3c c1bd 716c 03bb
00000090: 952b 103e 1f04 0abe 09eb f2bc b7de b3be
000000a0: fbf2 063e 52a3 96bd 5783 41bd 0690 5ebd
000000b0: 560a 80bd d35d 0f3d b53d 46bd 6dd0 25bc
000000c0: f36b 63be b0b4 65be 78b7 bebd 2fa3 cbbc
000000d0: 63a1 2cbe cdd7 033e 1316 b03d c73e 88bc
000000e0: 2898 0dbd e624 6dbe 59b2 993b c265 a8bd
000000f0: cb54 9abe f1df 40bc 832f aabd 4c87 b43d
00000100: af09 ab3d 3353 b7bd 684c 9fbd e481 4b3d
00000110: 1205 6c3b 0436 2ebc 9a91 e8bc 954f 18bb
00000120: cc98 5dbe 7599 8c3d 38a1 ec3c 8bd7 b33e
00000130: ab13 99be f9ce ce3b d4e1 143e 95f4 98be
00000140: 0d37 4e3e 9a3a e2bc c57e 0ebd f091 59bd
00000150: 2a4e 39be 5963 bd3e 22df 1cbe 04b5 033e
00000160: ff60 4bbe a529 ec3c f3de 413c 4d3d e03d
00000170: 412a 433d e02b 01be 5a1a b83e 82bf 57bd
00000180: 36f1 193e 74bd 40be b4af 073d 18cc e13d
00000190: 2296 f339 0cb3 623d 3921 f83c bba2 213f
000001a0: b89b 6c3c a3b9 823d 1064 2abd 34cc e73d
000001b0: dce9 ffbc fe96 d8bc 66a8 a2bd 66fd 1c3d
000001c0: c7ce 343d 93a4 ee3c 61b3 553d e9a4 9f3d
000001d0: 29a8 30bd 08e0 77bd 5823 8c3c 19e8 f33d
000001e0: 33d4 bf3e c4ee d8bd 646e 133d 3088 dc3d
000001f0: 02c4 65bd ec2e 8e3d 5d46 893d bece 8cbd
00000200: f2c3 8fbd beee eb3c d49d cbbd 1d58 d8ba
00000210: ef6e cd3b cf7d 13bd 6c15 c13c 60b1 7ebd
00000220: ffc7 153d c866 ae3a 25e9 603e e7e4 02bd
00000230: 13e3 ddbd 8e18 883d 24cd bebd d30e 3cbe
00000240: 3656 8cbd cfc5 353d fca9 2b3c e32c d53d
00000250: fddd a6bd 7fe6 34bd 2e02 b03d d363 70bd
00000260: 14db 9b3c 82ee 4a3d d646 c3bd 6f57 ce3c
00000270: 659e 693e 80ff 55bd d512 dc3c b521 4a3e
00000280: e81d 84bd 3831 a5bc 718d dbbd 8c77 eb3a
00000290: 765d f4bd 5be9 f33d 5a69 1d3d f1d7 c6bc
000002a0: 5ee9 7fbd 14bf 843e 9dd5 83be c27d 42be
000002b0: 48dc 2cbe 5a7b c23d 335e b1bd 773f a93e
000002c0: 3c3e 253d f471 57bc 7a5e 20bd ee96 cbbc
000002d0: e5d9 a5bc 4093 563d 5f9c 763c 8e54 9a3d
000002e0: edd0 08be 8b81 5dbd 003a 93bd 3eaf 13bd
000002f0: da1b 093d ca37 123c 4db2 9e3d 9231 603b
00000300: 5127 2dbe ac3d e53d 0829 0abe 3df5 9eba
00000310: d2bd a93b 1083 313d 38cf 5e3c f9ab 97bd
00000320: e8b9 e33c 513f 03be 6ecd 4fbe 8f67 3abd
00000330: dc72 66bd f5f4 3dbd 9275 1f3d a9d9 c9bc
00000340: a1e8 c43d 6ef9 ff3c 19d7 7bbe a6e7 aa3e
00000350: 0d60 77bd 62c5 a13d d55a b13c b1ea 29bc
00000360: 6f2f 4ebe a455 b5bd 4d63 983c fe55 52be
00000370: 8ce1 003d 779e e13d e953 80be 33f7 f63c
00000380: 5253 9c3d 5ea7 ac3d 0af7 743d 9641 27bd
00000390: ef6a 633e 1677 8ebe 690e 813e 1d69 c1bd
000003a0: abd0 a23c 5e3a 58bd 9f85 443d 6228 023e
000003b0: 5f25 1abd 1e09 253c dd10 55bd 663a 893d
000003c0: c177 c13d 3885 bd3c ed4b b23d 4feb 1d3d
000003d0: 1b29 c9bd 61fe 463d 684c 153e ebd9 943e
000003e0: 2c4d 143e 4fb3 bebd 7e4b dcbb 083e 00be
000003f0: f224 2dbe d661 0c3d 1a42 99bc 6116 9f3c
-0.017591625 -0.077623956 0.09601635 -0.15341821 -0.25020596 0.07079 0.08561877 -0.03566908
0.06154024 0.054249905 0.020231182 0.023643633 0.0940344 -0.07216703 0.008329015 0.01836011
0.109620996 -0.08850023 0.06555787 0.031877823 0.053640384 -0.031232014 -0.036923397 0.0316373
0.018416962 0.11732062 0.0011278657 -0.3184521 -0.016227484 -0.093393974 -0.26414722 0.38543996
-0.42738 -0.09082327 -0.094353154 -0.002005365 0.14079125 -0.13478135 -0.02965309 -0.35130855
0.13178627 -0.0735537 -0.047244396 -0.05433657 -0.062519714 0.035001587 -0.048398692 -0.010120493
-0.22209148 -0.22432208 -0.09312338 -0.024858085 -0.16858439 0.1287529 0.0859796 -0.016631497
-0.034568936 -0.23158607 0.00469045 -0.08222534 -0.30142817 -0.011772142 -0.083098434 0.08814868
0.083514564 -0.08951416 -0.07778245 0.04968442 0.0036013764 -0.0106329955 -0.02838974 -0.0023240794
-0.21640319 0.06865207 0.028885469 0.35125384 -0.29897818 0.006311294 0.14539272 -0.298741
0.20138188 -0.027615834 -0.034788866 -0.053117692 -0.18096223 0.3698986 -0.15319493 0.1286202
-0.1986122 0.028828451 0.01183294 0.10949192 0.04764772 -0.12614393 0.35957605 -0.05267287
0.15033421 -0.1882227 0.033126548 0.11025256 0.0004646043 0.055346534 0.03028928 0.6313893
0.014441423 0.06383064 -0.041599333 0.113182455 -0.031239443 -0.026439186 -0.07942276 0.038327597
0.04414251 0.02913121 0.052173022 0.07795126 -0.04312912 -0.060516387 0.017106697 0.119095035
0.37466583 -0.10592416 0.03599395 0.10768163 -0.05609513 0.069425434 0.06702874 -0.068753704
-0.070197955 0.028800365 -0.09942213 -0.0016505752 0.006269328 -0.036008652 0.023569785 -0.062180877
0.036567684 0.0013305778 0.21963938 -0.03195658 -0.108343266 0.066453084 -0.09316471 -0.1836503
-0.06852381 0.044378098 0.010477539 0.10408952 -0.0814781 -0.04416513 0.08594166 -0.05868895
0.019025363 0.049543865 -0.09534995 0.025188176 0.22814329 -0.052245617 0.026864449 0.1973942
-0.06451017 -0.02016507 -0.10720337 0.0017964705 -0.11931889 0.119097434 0.03843055 -0.02427289
-0.062478416 0.2592703 -0.25748911 -0.18993285 -0.16880906 0.09496184 -0.08660545 0.33056232
0.040342554 -0.013149727 -0.0391526 -0.024852242 -0.020245502 0.052386522 0.01505193 0.07535659
-0.13360949 -0.05407862 -0.07188797 -0.036055796 0.033473827 0.008924434 0.07748852 0.0034209234
-0.1690953 0.111934036 -0.13492215 -0.001212753 0.005180099 0.04333788 0.0135992095 -0.07405848
0.027798608 -0.12817122 -0.20293209 -0.045508917 -0.056261882 -0.046376187 0.038930483 -0.024639921
0.09614683 0.031246867 -0.24593772 0.3337986 -0.060394336 0.07898976 0.021649757 -0.010370896
-0.20135282 -0.08854225 0.018602038 -0.20540616 0.0314651 0.11016553 -0.25064018 0.03014717
0.076330796 0.0843036 0.059805907 -0.040834032 0.2220876 -0.2782523 0.25206307 -0.09443877
0.019874891 -0.05279004 0.047978994 0.12710717 -0.037633296 0.0100729745 -0.052018035 0.06700592
0.09446669 0.023134813 0.08705888 0.038554486 -0.09822293 0.04858244 0.14579928 0.29072508
0.14482564 -0.09311544 -0.0067228666 -0.12523663 -0.16908625 0.03427299 -0.018708277 0.01941985

down2.mpconv.1.conv.0.bias f4 [48]
00000000: 4ad1 c83b 435b 2fbb 08f7 12bd 1e1d 1a3d
00000010: 3fac 72bd 7864 6abd 2698 21bd 8f50 873d
00000020: 835d 3b3d 80e4 e83c a8a4 843d e6ec 433c
00000030: 77f5 5ebc 60fb e83a 0074 40bd f456 3ebd
00000040: 53da 46bd ce4f 3d3c 661d 86bd e036 343c
00000050: a7b3 6e3c 4bdf 68bd 8ebe a8bb aa3f 2f3d
00000060: 5014 f73c cfd0 883d c852 7cbd 026a 853d
00000070: 10ed 0a3d 7daa 32bc 8df4 07bc 64c3 753c
00000080: d7ac c93c 6cf4 5d3d dc29 b13c 8b06 7bbd
00000090: 3810 6ebd 7d24 703d 9661 4a3d 78e9 6bbd
000000a0: 53d7 f9bc 8ead 0ebd 7d20 dcbb 1e1e 0e3d
000000b0: dd35 7fbd bc4d 0c3d 3820 a3bc ad3e e13c
0.006128465 -0.0026757277 -0.03588012 0.037625425 -0.059246298 -0.05722472 -0.03945174 0.06607162
0.045743477 0.02842927 0.06476718 0.011958336 -0.013608328 0.0017775111 -0.046985626 -0.046469644
-0.048548054 0.011554671 -0.06548576 0.010999411 0.0145692 -0.056853574 -0.005149669 0.042785324
0.030161053 0.06680452 -0.061602384 0.0651436 0.033917487 -0.010904905 -0.008298052 0.015000198
0.02461855 0.054188177 0.021626405 -0.061285537 -0.058120936 0.058628548 0.04940947 -0.0575957
-0.030498182 -0.034833483 -0.00671774 0.03469669 -0.062307227 0.03425382 -0.019912824 0.027495706

down2.mpconv.1.conv.1.weight f4 [48]
00000000: a981 123f e406 083f 0b2f 1c3f fe21 1e3f
00000010: 9a6a a33f ebf9 f63e 35f5 323f 9e48 503f
00000020: 4fd5 0f3f beb1 a73f 649d 913f 4008 fd3e
00000030: 0fbe 163f 244c 4a3f 1aec ed3f 8a81 1d3f
00000040: 6c45 d63f b466 1f3f ba39 243f 69d2 4f3f
00000050: 3c9f f53e 0567 863f 0094 a73f 0c88 833f
00000060: 6440 003f 472e 303f 8099 133f db15 343f
00000070: c32a 8d3f 5d99 173f f3a1 193f 0ae6 3a3f
00000080: 21d6 3b3f b47d 5c3f 1e78 1d3f 35f2 d93f
00000090: 934d 5d3f 96ac 2d3f 5d07 3d3f de14 0a3f
000000a0: 4b05 6e3f 6297 103f 26c6 e83f 9be8 e13f
000000b0: a155 923f e8cf 223f 69a8 213f 048e 203f
0.57229096 0.53135514 0.6100928 0.6177062 1.2766907 0.48237547 0.69905406 0.81360805
0.5618486 1.3101118 1.1376157 0.49420357 0.58883756 0.7902243 1.8587677 0.61525786
1.6739936 0.6226609 0.64150584 0.81180435 0.4797305 1.0500189 1.3092041 1.0275893
0.5009825 0.68820614 0.576561 0.7034585 1.1028675 0.5921839 0.6001274 0.7300726
0.7337361 0.8612931 0.6151141 1.7027041 0.86446494 0.6784147 0.7383936 0.5393809
0.92976826 0.5648099 1.818547 1.764911 1.1432382 0.6359849 0.631476 0.627167

down2.mpconv.1.conv.1.bias f4 [48]
00000000: 4de1 f2bd a607 fd3e ed18 7c3e 09ba 1f3e
00000010: 80fb d63f dfec e93d 1480 a9bd ae4b 2f3e
00000020: e4c2 133e 522b c7be 96ac 3abe 181b 8c3f
00000030: c4a8 c83e f188 70be e891 55bf 0cd2 163f
00000040: e4ae 54bf c141 3f3e 0e07 1abd 17dd 5dbe
00000050: 62d3 ca3d 07b4 27bd f8c6 75be 81c0 b43d
00000060: 75be 423e 1998 143e f11e b63d 8ea2 bebd
00000070: dac9 d03f 9707 953e 16f7 e93c a91e 223e
00000080: 2cdb 323e cb83 c5be 778d 8139 b44a afbe
00000090: 48ca c93d a52b 55bd 5233 023e 9666 843e
000000a0: a023 bd3e 1713 de3e aefd 7bbf e0cb 79bf
000000b0: 3537 713f d854 103e 6227 f73d 8e77 25bc
-0.11859379 0.49419898 0.24618883 0.1559831 1.6795502 0.11422133 -0.08276382 0.17118713
0.14429814 -0.38900238 -0.18229899 1.0945768 0.39191258 -0.23489739 -0.8342576 0.58914256
-0.8307936 0.18677427 -0.037604384 -0.2166637 0.09903599 -0.04094317 -0.24001682 0.0882578
0.19017966 0.14511146 0.0889262 -0.093083486 1.63116 0.29107353 0.028560203 0.15832008
0.1746642 -0.38577113 0.00024710197 -0.3423668 0.09853035 -0.052043576 0.1271489 0.25859517
0.36941242 0.4337394 -0.9843396 -0.97576714 0.94224864 0.14094865 0.120680586 -0.010099305

down2.mpconv.1.conv.1.running_mean f4 [48]
00000000: 5527 44bf 4d9b dfbc 9884 5bbe 66d4 2f3d
00000010: 3004 21bd d572 05c0 a9e2 e1bf 7c13 e7bf
00000020: b8f8 ebbf cd32 70c0 7725 d2bf 00a3 483f
00000030: 5aab 63c0 b4b7 87be f8c0 19c1 0852 1bbf
00000040: 8a13 3fc0 a88f b8be c4db e7bf 569a 8c3d
00000050: 88b4 3a3f 1cc5 05c0 db2d 85c0 018f d6bf
00000060: 1420 b9bf ed5e 9fbf 8bff 113f e837 d4bf
00000070: 00b9 abbe ca9a 8f3e 5554 49bf 3d5f 09c0
00000080: 2af8 83bf f445 23c0 9310 1dbf db10 02c1
00000090: 4387 44bf 4747 9f3e d7f4 9dbf ff35 9dbd
000000a0: 571b 7abf f11c 2f3f a4ee 65c0 46ef 20c1
000000b0: 72bf a1c0 fd56 7dbf 9c79 99bc 82c9 76be
-0.76622516 -0.027295733 -0.21437299 0.04292717 -0.039310634 -2.0851338 -1.7647296 -1.8052821
-1.8435278 -3.7531006 -1.6417683 0.7837372 -3.5573335 -0.26507342 -9.6096115 -0.60672045
-2.9855676 -0.360471 -1.8113942 0.06865375 0.7293172 -2.0901556 -4.1618476 -1.6762391
-1.4462914 -1.2450844 0.5703055 -1.6579561 -0.3353958 0.28047782 -0.78644305 -2.146438
-1.0310109 -2.5511446 -0.61353415 -8.129115 -0.76768893 0.31109068 -1.2340344 -0.076763146
-0.9769797 0.68403536 -3.5926905 -10.058416 -5.05462 -0.9896086 -0.018734746 -0.24100307

down2.mpconv.1.conv.1.running_var f4 [48]
00000000: b22a 983f 9b32 993f c56e c63f 31f0 a33f
00000010: 9e1e 9841 f5eb a53f 1447 ae3f 4bd3 763f
00000020: 9200 873f 213e ae3f 0356 803f 0019 ad3f
00000030: df66 8f3f 7089 e23f d2c6 7140 3f1d b53f
00000040: c412 3e40 24b0 ba3f 6dbb 813f 336c ad3f
00000050: 499d 913f d985 cf3f af85 a63f 57cf 693f
00000060: f1c8 c03f 6d41 1d40 d0b0 5c40 787c b13f
00000070: 91fd 3f41 0b6f c23f 5b12 b33f 47d9 0440
00000080: 2715 263f ce27 9d3f 97a0 933f 0e66 5140
00000090: ddfc 673f 70b7 bc3f 306a 6f3f 5165 de3f
000000a0: 28f6 bf3f 5dcd b03f b963 6640 5dd0 b540
000000b0: 748f 4240 dd46 833f ea5a 983f 156d 953f
1.188803 1.1968569 1.5502554 1.2807676 19.01495 1.2962633 1.3615441 0.9641616
1.0547049 1.361271 1.0026249 1.3523254 1.1203269 1.7698193 3.77776 1.414955
2.9698954 1.4585004 1.0135323 1.3548645 1.1376125 1.6212722 1.3009547 0.91332
1.5061322 2.4571183 3.4482918 1.386611 11.999406 1.5190138 1.3989977 2.0757616
0.64876026 1.2277772 1.1533383 3.271854 0.90620214 1.4743481 0.93521404 1.7374669
1.4996996 1.3812672 3.5998366 5.681685 3.0400057 1.0256001 1.1902745 1.1673914
