src/gen_models/mnist_224_gradient_ae_9408_generator.model (torch_old, 991210 bytes, 109 tensors)

inc.conv.conv.0.weight f4 [24, 1, 3, 3]
00000000: cf39 d2be 1fb1 32be bec0 3a3e 526b 8bbe
00000010: baa1 a63e fdd3 fbbd 5aca 90bd 9e7b 0d3e
00000020: eb15 44be 9131 b33e 8a75 173e bd88 aebe
00000030: efef b03e a4d2 fd3d 5435 1abe 6088 2a3c
00000040: 4aa9 303c 2110 da3d 4063 a53e 668c b33e
00000050: 5626 9c3e 3d2d 673e c78f 6dbe 85d4 063f
00000060: 6038 b6be 0d95 08be 7218 11bf 3ef3 a93e
00000070: c052 7c3e 8bb2 663e 2fb4 f13e 6f98 aa3e
00000080: da04 6e3e 2dfe ab3e 504a 3f3e 115b fa3d
00000090: 2931 86be 7835 51be b37a efbe 0b9d 9dbd
000000a0: 7a5c 0fbe d4a0 b6be a423 373e 3090 a13d
000000b0: d4c7 e0bd b434 08be df15 a9bd 274b 4b3c
000000c0: 85f0 6f3e 685c ebbd fb93 afbe 44f3 d3bc
000000d0: 86af 06be 0e41 073e 0d16 d23d 5735 343e
000000e0: e055 7dbd a90c 8a3e 47c5 b63e 4b08 d13e
000000f0: fc5b 833e 10f8 ab3e 3d5d 923d bf90 56be
00000100: 6c41 8ebe 9f1f f03d 121e 933e 1750 0b3e
00000110: 5403 5a3b 5a5d 9dbe 3f89 8ebd a0bd 0e3d
00000120: 1aad adbe 1fd9 bebe 49be e8bc f2b3 1abd
00000130: 24af 963e 6ab5 debe 1542 963e 27eb 043e
00000140: 710a 9f3e 2664 6c3d a0c1 943e e34f be3e
00000150: 1cf2 6cbe c7a6 143e 109e 973e ee65 92be
00000160: 9689 ee3d a84c 113e f7d7 0e3e 561e 8d3a
00000170: 4899 3d3c a941 843e e3d7 90be 364a a43d
00000180: b153 383e d47f c0be c904 d63d cf71 6fbe
00000190: 43a2 6c3d e135 6dbd 0d32 013e 2aaa e23e
000001a0: 7e46 2b3e 34da e7bd de43 8cbe f212 19be
000001b0: c056 12be 1fd4 41be 69ec acbb 1041 88be
000001c0: 5a63 95be f451 a4be 273b a6be be6f 8dbe
000001d0: 133c a3bd 0d58 9a3e b368 16bd 21a8 433e
000001e0: 40a1 f1bd 0140 66bd 8aa8 6abe e6ed a4bd
000001f0: 1c58 583d 428e a6bd d9ec 8c3d ab3a c33d
00000200: 606f 7d3e 3492 e93d f128 60bd ca0a 41bd
00000210: 8e8e 9c3d 5ebb 30bd c7d3 703e 4606 ecbe
00000220: facc 6ebe 4444 1f3e 02aa 93be a1b4 46be
00000230: cc17 ab3e 89fc dcbe 5617 213e 8dd4 d03e
00000240: 6026 f53d 2f8e 023e 9418 c1bd c382 2abe
00000250: 0f53 88be e592 af3e 4681 863d 1dbf 763e
00000260: 57f6 99be 6b8b 52be 48d9 c6bd 8164 c83d
00000270: 851a 2e3e b0b0 37bd ca2d 453e 8151 d33d
00000280: 027b ab3e 6897 833e 83cf 9c3e ae10 aebd
00000290: fe3b d6be 7521 da3d 15a1 ac3e e681 9cbe
000002a0: 3496 e2bd 4f96 9cba 5905 78bc 51f2 28be
000002b0: 4ecb c7bd 0576 8c3e b500 cdbd f94d 0fbe
000002c0: eb57 493e d083 e33d 9cb1 1c3e d33d 65be
000002d0: f021 38bc adc8 1dbe d4c6 1b3e 393f 2b3e
000002e0: 812b b6be ea1f 9c3e 7694 aabd 1e6d 0fbe
000002f0: 581c 8f3d 2938 873e bea1 0cbe 2405 96be
00000300: 110a 513d b6da 59be a681 ddbc 0930 4dbe
00000310: 4c52 de3d 045c 723e 70fb 3ebe 627e b53c
00000320: cb4f 203e b7e1 843e fc86 403d 5582 a6be
00000330: bb55 93bd c758 87bd e02d 4b3e 58ea 603e
00000340: 3a1e ffbd 8ed2 b6bc 2af7 c1bc 4565 48be
00000350: 5515 fa3c f2bf cfbe 779f 2cbe c8ca a4be
-0.4105973 -0.17450379 0.18237588 -0.27230316 0.32545263 -0.12296293 -0.070698455 0.13816687
-0.19148986 0.34998754 0.14790931 -0.34088698 0.34558055 0.12393692 -0.15059406 0.010408491
0.010782549 0.106476076 0.32302284 0.35068053 0.30497998 0.22575851 -0.23199378 0.5266803
-0.35589886 -0.13338108 -0.56677926 0.33193392 0.24640942 0.22529046 0.47207782 0.33319423
0.23244038 0.33592358 0.18680692 0.12224401 -0.2620938 -0.20430553 -0.467733 -0.07695969
-0.14000121 -0.35669577 0.1788469 0.0788883 -0.10975614 -0.13301355 -0.08256125 0.012408054
0.23431595 -0.114922345 -0.34292588 -0.025872834 -0.13152894 0.1320841 0.10258112 0.17598473
-0.061849475 0.26962784 0.35697386 0.4082664 0.25656116 0.33587694 0.0714669 -0.20953654
-0.27784288 0.11724781 0.2873388 0.1360477 0.0033266144 -0.30735284 -0.06959771 0.03484881
-0.3392113 -0.37275025 -0.028411048 -0.037769265 0.29430497 -0.43497783 0.29347292 0.12980329
0.31062654 0.057712696 0.29053974 0.37170324 -0.23139232 0.14516746 0.2961278 -0.2859339
0.11647336 0.14189398 0.13949572 0.0010766487 0.01157219 0.25831345 -0.28289708 0.08021967
0.18000676 -0.37597525 0.104501314 -0.23383258 0.057771932 -0.05791271 0.12616749 0.4427045
0.1672611 -0.11320916 -0.2739553 -0.14948633 -0.14290905 -0.18928574 -0.0052772057 -0.2661214
-0.29177362 -0.32093775 -0.32467005 -0.27624315 -0.079704426 0.30145302 -0.036720943 0.19107105
-0.11798334 -0.056213383 -0.22915855 -0.08053188 0.052818403 -0.08132602 0.068811126 0.095326744
0.24749517 0.11404839 -0.054726545 -0.04712943 0.07644378 -0.043147437 0.23518287 -0.46098536
-0.2332038 0.15553385 -0.28840643 -0.19404842 0.33416593 -0.4316142 0.15731558 0.40787163
0.1197021 0.12749551 -0.09428516 -0.16651444 -0.2662587 0.3429176 0.06567626 0.24096341
-0.30070755 -0.20560996 -0.09709412 0.097847946 0.17002304 -0.044846237 0.19255748 0.1031828
0.33492285 0.2570145 0.3062707 -0.08499275 -0.41842645 0.10650913 0.33716646 -0.30567855
-0.11063805 -0.0011946651 -0.015137994 -0.16498686 -0.09755574 0.27433792 -0.100099005 -0.13994588
0.19662444 0.111091256 0.15302128 -0.22386865 -0.01123856 -0.15408583 0.15212566 0.16723336
-0.35580066 0.30493098 -0.08329098 -0.14006469 0.06987828 0.26410034 -0.13733575 -0.29300797
0.05103499 -0.21274838 -0.02703936 -0.20037855 0.10855541 0.23667914 -0.18650603 0.02215499
0.15655439 0.25953457 0.04700373 -0.3252131 -0.07194086 -0.0660873 0.19841719 0.21964395
-0.12456937 -0.022317197 -0.023677427 -0.19569881 0.03052775 -0.4057613 -0.16857706 -0.3218596

inc.conv.conv.0.bias f4 [24]
00000000: f9fb febc 0c6d 863e f251 3b3e 1fb8 6c3e
00000010: 39d6 6abc be60 54be eb42 a5be 2016 55bc
00000020: ca7c 98be 5910 4fbe 31c6 a7be 089d 893e
00000030: b9ff ee3b dd96 98be ab84 c43c 64d9 053e
00000040: 8b2d 963e 49a8 933e 1861 1f3e b928 f73d
00000050: a1e4 253e b84b fd3d 0fa8 8b3e 3ea3 6dbd
-0.03112601 0.2625507 0.18292978 0.23117112 -0.014333301 -0.20740029 -0.32277617 -0.013005763
-0.29782706 -0.2022108 -0.32768396 0.26877618 0.007293668 -0.298026 0.023989042 0.13071209
0.29331622 0.2883933 0.15564382 0.12068314 0.16200496 0.12367958 0.27276656 -0.058017008

inc.conv.conv.1.weight f4 [24]
00000000: 9581 6b3f dd06 763f 41dd 723f 45bc 613f
00000010: 9a74 6e3f 67e9 713f 9a56 853f f8c7 843f
00000020: 0503 723f 4656 6d3f 3fa1 813f 0f39 783f
00000030: 6827 893f 4ed3 873f b13d 833f f8a9 783f
00000040: 5b2d 943f 7d3a 7d3f 6d23 633f f39c 863f
00000050: baa5 823f a358 833f 5daf 9d3f 3beb 663f
0.919946 0.9610422 0.94868857 0.881779 0.9314667 0.9449677 1.0417054 1.0373526
0.9453586 0.9270977 1.0127333 0.96962065 1.0715151 1.061136 1.0253202 0.9713435
1.1576341 0.9891737 0.8872593 1.0516647 1.0206826 1.0261425 1.2319142 0.90202683

inc.conv.conv.1.bias f4 [24]
00000000: 676d 723e 8634 e03a f41e d63d 85da e93d
00000010: 0f60 383b ea7d 8d3d b402 6c3d e527 283d
00000020: d05a bc3d 5e84 963d 01c9 843d 91aa 133e
00000030: 3b49 203d c44a 933d 3660 863d 4fa0 9f3b
00000040: cbc9 203d 0959 69ba 3e32 7b3e 81b0 c13c
00000050: cbe6 053d 5dcb 393b b113 023c 5a85 3dbd
0.23674546 0.0017105497 0.104551226 0.114186324 0.0028133427 0.06908782 0.057619765 0.04105367
0.091970086 0.07349466 0.06483651 0.14420535 0.039132338 0.07191995 0.065613195 0.004871405
0.039254945 -0.0008901512 0.24530885 0.023643734 0.032690804 0.0028349974 0.007939265 -0.046269752

inc.conv.conv.1.running_mean f4 [24]
00000000: 6ff6 febc 926d 863e 8152 3b3e 59b5 6c3e
00000010: d597 6abc 275f 54be a543 a5be 2d05 55bc
00000020: 3b7c 98be 7211 4fbe 4ac7 a7be 759b 893e
00000030: 4e08 ef3b 8495 98be 8876 c43c e0d9 053e
00000040: ec2b 963e ffa7 933e 4262 1f3e 7525 f73d
00000050: b6e5 253e 5c4c fd3d c3aa 8b3e 6ba0 6dbd
-0.031123368 0.2625547 0.18293191 0.23116054 -0.014318426 -0.20739423 -0.3227817 -0.013001722
-0.2978228 -0.20221499 -0.32769233 0.26876417 0.007294691 -0.2980157 0.023982301 0.13071394
0.29330385 0.28839108 0.15564826 0.12067691 0.16200909 0.1236808 0.27278718 -0.058014315

inc.conv.conv.1.running_var f4 [24]
00000000: aabe e636 0c14 2a37 13de b337 7251 9838
00000010: 33df ed37 3d3c 7f36 a45f 4438 16ed 3736
00000020: 530c 3437 4056 9b37 b3b1 3e36 ebc2 6a36
00000030: 4060 3838 3f07 1c36 7f3c b236 eb60 b637
00000040: 3c31 9835 c6c0 4737 81ee ca36 0511 ee35
00000050: 8db6 3336 51bf 4336 671b 6335 45ae 8537
6.8767304e-06 1.0137457e-05 2.1441874e-05 7.263095e-05 2.8356537e-05 3.8033024e-06 4.6819114e-05 2.7407127e-06
1.07317055e-05 1.8517603e-05 2.841564e-06 3.4982174e-06 4.395866e-05 2.325003e-06 5.311856e-06 2.1741222e-05
1.1339212e-06 1.1906208e-05 6.0478346e-06 1.7737335e-06 2.6779337e-06 2.9168625e-06 8.4603965e-07 1.5935986e-05

inc.conv.conv.3.weight f4 [24, 24, 3, 3]
00000000: 174d 353d 8038 d9bc a3da 243c 215f 1fbd
00000010: d7b6 edbc a01f 93bd 239c 913d cc8d f0bb
00000020: 6523 2dbc 626e a93d 6d59 2a3c 2621 b53b
00000030: fddd 7fbd 1b38 f3bb 690d c4bd 5b09 9dbd
00000040: 6114 fd3b 8b2d a6bd 6a3d 883d 6037 a7bc
00000050: d840 a33d b3e3 89bd 6fc8 bdbd 498e 63bd
00000060: b76a cebb c8de b6bd 1e1d 50bd a3a0 253d
00000070: 2297 bb3d bdd6 d63c 6cab fbba f2ec 973d
00000080: 9a9e 5e3d a920 1ebc 1fbb d5ba b0db 863c
00000090: 4fc2 f3bc 2cc6 60bc 4550 a7bc 790f 893c
000000a0: b522 27ba f354 383d 60af 7a3c b06e 753d
000000b0: 1ec0 df3c c127 8cbd 91f0 a4bd ddad 53bc
000000c0: 3d2e f9bd 5a6e fbbc 9121 c3bb e26a c6bb
000000d0: e5f8 cc3c de84 a93d 6f63 823d 4343 393d
000000e0: e216 9abc 4f52 623c c4bc ce3c d565 9fbd
000000f0: f876 0cbd 9094 f43c 779b 77bd 7286 e0bd
00000100: 8099 d23c 2614 ef3c 2571 a33d 673c e237
00000110: 6169 22bd b949 a7bd 7713 aebc 88e8 043d
00000120: a17a 02bd 5396 3fbd 06d9 4ebd 818c 6dba
00000130: b8ac f63c 60a3 683d 4b71 32bd 3192 b03c
00000140: b65d 9e3d ae9f ec3d 3628 aa3d 2b8f 753d
00000150: ac62 0f3d bd92 d4bc 6797 76bd 039e 27bc
00000160: ce9c f3bd 040a d2bc c80f 173e 3213 ba3c
00000170: ba3e c33d 1ba6 663d 4fab 9c3c ad84 843d
00000180: e96a b2bc c8ec 5abd a0de fe3d 3946 aa3c
00000190: 94e0 333d a390 53bd 707e 9e3b caf2 e0bd
000001a0: 539c a7bc 95ac f53c 481d b13c 2af1 38bd
000001b0: 2a28 2fbd 9341 8bbd 0253 e73c 4182 81bd
000001c0: c5b6 80ba be53 113d 9dc2 553d 986d e8bc
000001d0: 1b0e 763d aced 54bd bb8e cc3c 3b4e ba3d
000001e0: 4665 5f3d 2c2a c8bc a5d7 c13c 1e42 2ebc
000001f0: 50ad 6d3d 7d9e 403d e458 90bd 8f4f 2dbc
00000200: 14ba d2bd 8647 973c 36bf c4bc 8665 9b3c
00000210: 0b2b a0bd 3c16 92bd 4ec1 b3bd 2817 4cbd
00000220: 774f 5f3d 8636 ab3b a2f3 283c 1efc 033d
00000230: 342d 98bc ef39 9d3d 484c fdbc fd18 473d
00000240: fd4e e43b c279 79bd 9a5d 5abc f85f eebc
00000250: 8cb7 8f3c baf5 17bd 090e febd ad1d 6b3d
00000260: e907 7bbc 0f97 35bd 69d6 fdbb 1bce 80bc
00000270: 6741 7ebd 0305 c7bc 10a8 5e3c 6e64 903d
00000280: a2ba 2d3d a4a1 7d3d 6b64 4f3c 4612 f6bd
00000290: 07f9 dd3c a22e 953d 0cd7 793c 7c88 83ba
000002a0: 9e34 6b3c 73bc 713d c5d6 a1bd fb5d 24bc
000002b0: bd4e 31bc 8579 48bd 2089 823d dc86 04bd
000002c0: 4963 893d 6ecf 1c3d 1c4b 9abd 26a8 1e3d
000002d0: a077 df3c f630 953d 3b84 c7bc 48c4 d1bc
000002e0: e958 7ebd 9f93 c0bd 7b1a 1f3c 8c8e 953c
000002f0: 0957 7f35 8126 c83d fc64 543d e0d0 c73d
00000300: ed65 313c 5f33 95bc 0f00 bb3d 7689 f3bc
00000310: 7c49 9ebd 0265 613d 1987 cf3d 8885 173e
00000320: 90c2 0a3d e746 5d3d 595a c23d 5afa 943d
00000330: 09c9 2b3e e2c5 abbc 69d6 39bd ff96 bcbd
00000340: 569f 26bd 9d89 0c3d d9ef 153c 824a 053d
00000350: a2d6 093b 6b0f 37bc 3d0c f4bc bc97 f13c
00000360: 5123 0b3d d86b 7f3d 643c 103d 2a18 bdbc
00000370: 31f5 febc 1138 983c 2a2b 4cbd ddaa 88bd
00000380: 214a 87bd 7def 24be 689b 0dbd 7a43 c9bc
00000390: 86b1 453d c9d0 4d3d 6c1f babd 1e83 b83d
000003a0: 1eaf 963d f64d 46bd 98af e23c b16b c23c
000003b0: 091c 253c 7fee ae3d 5391 693d 084d 9f3d
000003c0: afd4 d33b c857 553c 0981 23bd 60b1 683d
000003d0: 70f4 573d 9ca7 1e3b c032 223c 2831 ce3c
000003e0: 1280 9abc 70f8 933c 2b78 773c 9ccf 04bd
000003f0: 6313 8dbd ab71 153d 0869 9d3c 5274 eebc
0.04426297 -0.0265162 0.010061893 -0.03890908 -0.029017849 -0.07183766 0.07109859 -0.0073411223
-0.010567521 0.08273007 0.010397297 0.0055276332 -0.062467564 -0.00742246 -0.0957287 -0.076678
0.0077233766 -0.081141554 0.06652339 -0.020412147 0.07971352 -0.06732883 -0.09266745 -0.055555616
-0.0062993425 -0.08929211 -0.05080902 0.0404364 0.09159686 0.026225442 -0.0019200868 0.074182406
0.054350473 -0.0096513415 -0.0016306377 0.016462177 -0.02975574 -0.013719123 -0.020424018 0.01673101
-0.0006375716 0.04500289 0.015300602 0.059920013 0.027313288 -0.0684352 -0.08053697 -0.01291987
-0.121670224 -0.030692268 -0.005954929 -0.006055222 0.025021026 0.082772955 0.06366622 0.04523016
-0.01880974 0.013813569 0.025236495 -0.07783095 -0.034293145 0.029855996 -0.060450997 -0.109631434
0.02570796 0.029184412 0.07980565 2.6969426e-05 -0.03965128 -0.08168358 -0.021249516 0.03244832
-0.03185523 -0.04677422 -0.05049994 -0.0009061769 0.030111656 0.05679643 -0.043565076 0.021554084
0.07732718 0.11553894 0.08308451 0.05995099 0.03500621 -0.025948877 -0.060202982 -0.010230544
-0.118951425 -0.025639541 0.14752114 0.022714231 0.095334485 0.056310754 0.019124655 0.064706184
-0.021779494 -0.05344847 0.12444806 0.020785438 0.043915346 -0.05165161 0.00483685 -0.10983808
-0.020460283 0.02998952 0.021620408 -0.045151867 -0.042762913 -0.06799617 0.028237823 -0.06323672
-0.0009820095 0.035480253 0.05218755 -0.02837257 0.060072046 -0.051984474 0.024970403 0.090969525
0.05453994 -0.024434172 0.023662398 -0.010635881 0.05802661 0.047026146 -0.070482045 -0.01057805
-0.10289398 0.018466722 -0.024016958 0.018969309 -0.0782071 -0.07133147 -0.08777104 -0.04982677
0.054519143 0.0052250056 0.010311993 0.03222286 -0.018576242 0.076770656 -0.030920163 0.048607815
0.006967424 -0.060907133 -0.01332798 -0.029098496 0.017543577 -0.037099577 -0.12405021 0.057401348
-0.01532171 -0.044333514 -0.007746507 -0.015723279 -0.06207409 -0.024294382 0.013589874 0.070504054
0.042414315 0.06192173 0.012658219 -0.12015204 0.027096285 0.07284285 0.015249025 -0.0010035182
0.014355807 0.05901761 -0.07902292 -0.010032172 -0.010821995 -0.048944015 0.06373811 -0.032355174
0.0670839 0.038283758 -0.07533857 0.038734578 0.027278721 0.07284729 -0.024355045 -0.02560629
-0.06209651 -0.094031565 0.009710903 0.018256448 9.5121555e-07 0.09772969 0.05185412 0.097566366
0.010827524 -0.018212972 0.091308706 -0.029728632 -0.0772886 0.05502797 0.1013319 0.14797032
0.033876956 0.054022696 0.09489889 0.07274313 0.16775908 -0.020968381 -0.045370493 -0.09208488
-0.0406793 0.034310926 0.009151422 0.03254176 0.0021032472 -0.0111731095 -0.029790992 0.029491298
0.033969227 0.062358707 0.035213843 -0.023082811 -0.031122776 0.018581422 -0.049845852 -0.066732146
-0.06605936 -0.16106983 -0.034572035 -0.024568308 0.048265003 0.05024794 -0.090880245 0.090093836
0.0735762 -0.048414193 0.02767162 0.023732992 0.010077485 0.08541583 0.057023358 0.077783644
0.006464563 0.013021417 -0.03991798 0.056809783 0.05272335 0.002420879 0.009899795 0.025169924
-0.018859897 0.0180628 0.015104334 -0.032424554 -0.06888463 0.036485355 0.019215122 -0.0291082

inc.conv.conv.3.bias f4 [24]
00000000: 0792 9cbc 3533 f13c 4dc9 453c 0e2b 43bd
00000010: 0539 4e3d 24ba 89bb ba61 1c3d 8980 5c3c
00000020: af5c 41bd 20b4 2ebd b04a 1dbd 2833 26bc
00000030: c110 603b efa2 423d 0486 03bd 3d21 163d
00000040: 0eb8 6abd e046 9e3c 2710 c73c 676d e23b
00000050: 6174 9cba 924c 31bd a2c6 2dbd 7f0d 783d
-0.0191126 0.029443363 0.01207192 -0.047648482 0.050347347 -0.004203098 0.038179137 0.01345838
-0.04720753 -0.04265225 -0.038401306 -0.010144033 0.0034189674 0.047518667 -0.03211023 0.036652792
-0.057304434 0.019320905 0.024299694 0.0069100144 -0.0011936539 -0.043285914 -0.04242576 0.060559746

inc.conv.conv.4.weight f4 [24]
00000000: d60b 413f 4d66 853f fe25 693f bf86 803f
00000010: 1f5e 573f e4b2 623f df46 753f 1c06 663f
00000020: b002 7a3f 37ff 5a3f c8b1 653f 1498 763f
00000030: 9ea4 543f 753d 553f a367 703f 5098 693f
00000040: 3b01 483f 6094 623f dca3 4f3f c9cb 903f
00000050: cb21 5c3f 44e1 833f 0e10 5f3f c851 703f
0.75408685 1.0421845 0.91073596 1.0041121 0.8412799 0.88554215 0.95811266 0.8985307
0.9766035 0.85545677 0.897244 0.963258 0.83063686 0.832969 0.9390814 0.91248035
0.7812688 0.8850765 0.81109405 1.131219 0.85989064 1.0303121 0.8713387 0.9387479

inc.conv.conv.4.bias f4 [24]
00000000: 012a 493f 140f 5abd 619d ca3e c448 c43e
00000010: e6c0 2f3f da54 cc3e e721 59bd 6a5e e93e
00000020: e19f 30bb ea6e 1a3f 019d 5b3e f5bc a63e
00000030: 8395 9e3e bf1d 653f 8f8e 8d3e adaf cb3e
00000040: bfb4 603f 2cda 363f a9ff 3c3f b538 753d
00000050: 1790 c93e e766 c03e ecac 1c3e 1306 cd3e
0.7857972 -0.053237036 0.39573196 0.38336766 0.68653715 0.39908487 -0.053010847 0.45579845
-0.0026950764 0.6032549 0.21446611 0.32566038 0.30973443 0.89498514 0.27647826 0.39782467
0.87775797 0.71426654 0.73827606 0.059868533 0.39367744 0.37578508 0.1530034 0.40043697

inc.conv.conv.4.running_mean f4 [24]
00000000: 6055 01bc 2d3a 31be 6493 543d 386b 123e
00000010: 94e6 d53b 8992 5dbd 8acd a7bd 50a5 5e3c
00000020: 8a13 ae3e cf4c 86bb 93b5 28be 334f ae3c
00000030: 85d1 c0bc fa39 81be c644 c83d 6bed 59be
00000040: 2947 c0be 940c 1f3e 6caa e5bd e1ff 61be
00000050: f912 183e 4f3c 8c3e f6dc f8bd 6571 7c3e
-0.00789389 -0.17307349 0.051898375 0.14298713 0.006527731 -0.054094825 -0.081935 0.013589218
0.33999282 -0.0040985118 -0.16475515 0.021278 -0.023537407 -0.25239545 0.097787425 -0.21281974
-0.3755429 0.15532142 -0.11214146 -0.22070266 0.14850987 0.27389762 -0.1215152 0.24652632

inc.conv.conv.4.running_var f4 [24]
00000000: 010c 0c3e c699 da3d 7405 5e3e 7c03 ee3e
00000010: 7f53 233e b4dd 8c3d 03e0 823d 622b 3e3e
00000020: 4e08 393e fdfd 453e e287 9c3d f9c7 593e
00000030: 3673 bf3d 1799 213e df11 6d3e 4132 023e
00000040: be2b 023e 5e4d 983e 5e61 153e f2bd 0c3e
00000050: 27d3 c03d 825f 053f 4d5f ab3d 953d ec3e
0.13676454 0.10673861 0.21681768 0.46487033 0.1594982 0.06878224 0.06390383 0.18571237
0.18069574 0.1933517 0.07643105 0.2126769 0.093481466 0.15781055 0.23151349 0.12714483
0.12711999 0.29746526 0.14587924 0.13744333 0.09415274 0.5209886 0.083677866 0.46140733

down1.mpconv.1.conv.0.weight f4 [24, 24, 3, 3]
00000000: 7b34 53bc d841 623d 0898 fbbb 30da 35bc
00000010: b794 d4bc e921 f4bb 0f9f a3bc d574 12be
00000020: 1437 04be 6bd1 38bd 6388 ee3c 015b 83bc
00000030: 3936 0ebd 5981 8ebd 77ce 913d 120f 513d
00000040: a738 333b de55 013d c2d2 413d 7a70 a1bd
00000050: bd82 59bc 3706 07bd 9998 8fbc 49ec 0d3c
00000060: 229d 58bd 5816 003d 1a91 aabd adf7 36bc
00000070: da8f 913d ca22 963c 5769 d23b 44fb 263e
00000080: ce7f 4f3d f252 833d 4a60 e63d 8762 11bb
00000090: e911 923d dfff 0c3d e6a1 e8bc b94d ba3d
000000a0: be06 71bb a3ba a3bc 7e45 d1bc 4287 06bc
000000b0: 6ee9 07be 4a5f da3d 9500 66bc d023 48bc
000000c0: ec2a 94bd 037b 873d f5e0 f9bd b240 c6bd
000000d0: eb76 b73c d349 ccbd c94a 1abb 9ce3 5a3d
000000e0: 6b5b 5bbc c16e 6e3d 0ba9 803d 5e70 bb3d
000000f0: 8c35 7bbd 5f0e f6bc f470 2f3c d791 0cbc
00000100: 68a0 b03d a4d8 5ebd b1b4 13bd 63a1 833d
00000110: e500 f8bd ee54 e93c 3d85 233c 0d08 02be
00000120: bbb5 3f3c 472b 0abd cd1e 5c3d a94f fc3b
00000130: 6280 72bb 7cc1 0b3d ce6a 0e3d 3d8f ca3d
00000140: 9145 c13d 7839 0f3c 87ca 3a3d 54c9 57bd
00000150: 28ff da3c e4ce 453d bae8 3a3c f492 dbbc
00000160: 746b 0abd 68bd 21bd f0fb 49bd c08a 123c
00000170: 33e3 023d 1211 4fbd 329e cb3c 2e3d 93bd
00000180: 12cc c03c e803 48bd 5667 7fbd aeaa b6bc
00000190: 47ed 3fbd 0e5c 26bd 3d4c 80bd d48e 3dbc
000001a0: 15fc d0bb cb08 c2bc cdc5 5e3d 040f 123c
000001b0: 4c57 5a3c b7c1 a7bc a429 ff3c a97a 8b3d
000001c0: 2e0c 283d 3b24 783d 0c0f 1abd feb6 6b3d
000001d0: b965 04bd cfab 073e 43d6 fb3b 330e 583b
000001e0: 0bf2 3c3d 2397 533d 202b 14bc 6737 2cbd
000001f0: 1009 e93c abd6 1fbe 45e8 b83c 97e3 e43c
00000200: 8f03 6c3d d62a 95bb 4dba 1bbd fd29 44bd
00000210: d8c2 1e3d 6727 69bc 6ed7 c23d 0f2a bf3d
00000220: 65c0 4e3d 6e06 493c effc e23c 024f 503d
00000230: 455d 86bd 8c61 15bd bcd1 df3d 6709 4cbd
00000240: 773f bdbd ad0c 8ebd b979 0abc 1454 4dbc
00000250: 6c6c 253b b022 67bd d054 82bd f663 b93c
00000260: 35b4 d2bc 78fb bebc fd91 adbc 37f2 11bd
00000270: c7ab 22bb 78d9 abbb fd17 cfbc 21be b9bd
00000280: fe3b e6bd 1422 12be 6e30 2c3d 0779 90bd
00000290: 5031 88bd d024 303d a959 6d3d 98d2 95bd
000002a0: 535d d1bd f421 dcbd cfa1 2cbe c5cc da3b
000002b0: b632 cf3c a1af cf3b e3cb 3b3d d58d 06bd
000002c0: c460 0c3d c1f9 01bc 363b 263b 693f bbbd
000002d0: d0c0 aabd 51a0 20bd 65b6 9dbd fef4 b2bc
000002e0: 34ce 043d 2e34 053d 889e 80bd e60b 9dbd
000002f0: 885c 3b3d c028 e0bd de06 3fba 6134 5abd
00000300: aa7a 49bd a70c 453d 10ad a1bd 54ff 0abe
00000310: 91fa 633d b783 3cbe 6d98 f53b d114 bfbb
00000320: 260e 4f3c bf45 683d e598 2dbd e7fb 00be
00000330: 164b acbd 900e 3b3d b631 9dbd 6e19 233d
00000340: 9899 893d 3f06 ee3b 8692 4a3d 6fac 1ebb
00000350: 3762 ab3c 03db 1dba b341 983b 24ca 04bc
00000360: fbe9 2cbe 3797 11bd 15d9 9838 5345 24bd
00000370: 8eab 07bd aa3e 283d 9761 8abd c7cc 923c
00000380: 61a6 ab3d 416c 1b3d dc39 1d3d 4c83 7cbb
00000390: 68e2 903d 29db 813d 86b6 fd3c c2ef 363d
000003a0: fce8 01bd 905b 813d fda6 48bd e7c4 88bb
000003b0: 90d3 073d be13 3dbd 0796 173d d5b3 cebc
000003c0: b50b a2bc 72b8 323c ad4c 3d3d 463f a43c
000003d0: 552b 4cbc fd67 f73c 1aee 353c 7ede 103b
000003e0: 26da a63d 1c87 6fbc 40e5 903c eb90 1a3d
000003f0: 7349 88bd 2e7a 03bd 8984 92bd 87dc 793c
-0.01289093 0.055238575 -0.0076780356 -0.011099383 -0.025949819 -0.0074503315 -0.019973306 -0.1430238
-0.12911636 -0.04512159 0.029117769 -0.016034605 -0.03471968 -0.06958265 0.07119458 0.051039763
0.0027347 0.03157603 0.047320135 -0.07882781 -0.013275799 -0.03296491 -0.017528819 0.008662292
-0.05288423 0.03127131 -0.08328457 -0.011167449 0.07107516 0.018327136 0.006421249 0.16306788
0.050658993 0.06412305 0.112488344 -0.002218397 0.07132322 0.034423705 -0.028397512 0.09096856
-0.00367777 -0.019986456 -0.025545832 -0.008210959 -0.1327264 0.10662706 -0.014038225 -0.01221557
-0.07234749 0.066152595 -0.1220111 -0.096803084 0.022395572 -0.09975018 -0.002354311 0.05343972
-0.013388495 0.058211092 0.062822424 0.09152292 -0.061330363 -0.03003615 0.0107080825 -0.008579693
0.08624345 -0.054405823 -0.036060993 0.064272664 -0.121095456 0.02848288 0.009980497 -0.12698384
0.011701043 -0.03373268 0.05374031 0.007699926 -0.0037002792 0.034120068 0.034769826 0.09890602
0.09437097 0.008741729 0.0456033 -0.052682236 0.026732996 0.04829301 0.011408025 -0.026803471
-0.03379388 -0.039487273 -0.049312532 0.008944213 0.031954955 -0.05055339 0.024855707 -0.071894035
0.023534808 -0.04883185 -0.06235441 -0.022298183 -0.046857145 -0.040615134 -0.06264541 -0.011569697
-0.006377707 -0.023685833 0.054387856 0.008914713 0.013326477 -0.020478113 0.031147785 0.06810505
0.04102724 0.060581427 -0.037612006 0.05754756 -0.032323573 0.13249134 0.007685454 0.0032967448
0.046129268 0.051657807 -0.009043485 -0.042045023 0.028446704 -0.15609233 0.022571692 0.027940555
0.05762058 -0.0045522256 -0.038019467 -0.047891606 0.038760036 -0.014230586 0.09513746 0.09334194
0.05047645 0.012269599 0.027708499 0.050856598 -0.065607585 -0.03646998 0.109286755 -0.049813654
-0.092406206 -0.069360115 -0.0084518725 -0.012532253 0.0025241626 -0.056429565 -0.06363833 0.022630673
-0.025720695 -0.023313269 -0.021187777 -0.035631385 -0.0024821626 -0.00524443 -0.025279993 -0.09069467
-0.11241911 -0.14270812 0.042038374 -0.07054334 -0.066500306 0.043003857 0.057946835 -0.07315558
-0.10222878 -0.107486635 -0.168586 0.0066772425 0.025292736 0.0063380753 0.04584874 -0.032850105
0.03427197 -0.007933081 0.0025364882 -0.09142954 -0.08337557 -0.03921539 -0.077008046 -0.021845337
0.032423213 0.032520466 -0.062802374 -0.07668285 0.04574254 -0.109452724 -0.0007287095 -0.05327261
-0.049189247 0.04810777 -0.07894337 -0.13573962 0.05565888 -0.1840962 0.007494977 -0.005831339
0.012637651 0.05670714 -0.04238214 -0.12596093 -0.08412759 0.045668185 -0.07675497 0.039819174
0.06718749 0.007263928 0.049456142 -0.0024211665 0.020920856 -0.000602171 0.004646504 -0.008104835
-0.16886131 -0.0355446 7.2883595e-05 -0.040105175 -0.03312259 0.041075386 -0.06756895 0.017919911
0.08381344 0.037945036 0.038385257 -0.0038530407 0.070744336 0.063406296 0.030970823 0.044662245
-0.03171633 0.06316292 -0.048987377 -0.004173863 0.033160746 -0.046161406 0.03700831 -0.025232235
-0.019780973 0.010908233 0.0462157 0.020049702 -0.012461503 0.030200953 0.011104131 0.0022105272
0.08147077 -0.014619615 0.01768744 0.03773586 -0.06654634 -0.03209894 -0.07154185 0.015250332

down1.mpconv.1.conv.0.bias f4 [24]
00000000: c54e 03bd 973d 7c3d 2080 69bd 7fed 673d
00000010: 45e4 3f3d 62ec 4c3d e61c c739 6d93 2f3d
00000020: ef3a 83bd 19b1 91ba 78d9 133d 0908 2ebd
00000030: e8fa fc3c 3c02 d13c f264 a9bc 3471 8abd
00000040: 8cd0 70bc 4ec9 ed3c 3199 1b3c 1fe2 29bd
00000050: c3b0 6abd 0a40 2f3d fb2e 65bd ffda 653d
-0.032057542 0.061582174 -0.057006955 0.05662298 0.046848554 0.05003012 0.0003797777 0.042865206
-0.06407725 -0.0011115401 0.036096066 -0.04248813 0.03088136 0.02551376 -0.020678017 -0.06759873
-0.014698159 0.029026654 0.009496973 -0.04147541 -0.05729748 0.04278568 -0.055953007 0.056117054

down1.mpconv.1.conv.1.weight f4 [24]
00000000: 4a46 bb3f dd1f a93f c8d8 773f 4a90 583f
00000010: 0905 5a3f 1725 9b3f bc71 5e3f a041 5f3f
00000020: 3a3f 5b3f 35e9 733f 307c 493f ef98 883f
00000030: 2c52 673f 8708 4a3f e75b 563f ed8a 5b3f
00000040: 8d30 5e3f c5d8 423f 1148 5b3f f424 6b3f
00000050: 50ed 603f 0cab 543f 03ac 5a3f 2536 553f
1.4630826 1.3212849 0.96815157 0.8459517 0.85163933 1.2120694 0.86892295 0.8720951
0.8564335 0.9527772 0.7870512 1.0671672 0.9035976 0.7891926 0.8373398 0.8575886
0.8679283 0.76112014 0.8565684 0.9185326 0.8786211 0.83073497 0.8541872 0.83285743

down1.mpconv.1.conv.1.bias f4 [24]
00000000: c8b5 81be 9588 ffbd 8ada 073f 824f c93e
00000010: aecf 403e 8c2a cdbd 9d1d be3e f1fe 053f
00000020: c9a6 d43e 5a7d 1f3f 8bdc 7f3e 9265 883b
00000030: 133a dd3e c022 e93e 8953 053f 789c 423e
00000040: 8050 2e3e 02e0 123f e23b e13e 3d7d 5a3e
00000050: 5898 c23d c943 b73e 19e7 e63e ee20 8e3e
-0.25334 -0.12477223 0.5306784 0.39318472 0.18829224 -0.10017881 0.37131968 0.52342135
0.41533497 0.62300646 0.24986474 0.0041624987 0.4320837 0.45534325 0.5208059 0.19005
0.17022896 0.5737306 0.43991 0.21336837 0.095017135 0.35793903 0.4509819 0.27759498

down1.mpconv.1.conv.1.running_mean f4 [24]
00000000: e6b7 eebf eb74 16c0 23f5 7b3e 4990 0ebf
00000010: 3527 16bf 5d52 2dc0 357a 61be 489b 603e
00000020: 00a3 9bbd 903a 51be 82e7 a0be f888 9ebf
00000030: 969f 79bf a4fa a8be 485e 1abf 0241 97bf
00000040: 24df 3dbf 1598 44be a6b6 fa3d 54d3 c3bf
00000050: 3c47 8abf 62da 45bf 69f5 863f f719 6dbf
-1.8649871 -2.350886 0.24605231 -0.5568891 -0.58653575 -2.708152 -0.22019275 0.21934235
-0.07599449 -0.20432496 -0.31426626 -1.238555 -0.97509134 -0.33003724 -0.6030011 -1.1816714
-0.7416861 -0.1919864 0.12241869 -1.5298867 -1.0802989 -0.7728635 1.0543643 -0.92617744

down1.mpconv.1.conv.1.running_var f4 [24]
00000000: 967c fa3e 035b 253f 5a20 1f40 23dd 0f3f
00000010: 492b 2f3f abcb 3e3f e3cf 2e3f b48a a53f
00000020: 3200 443f be37 d23f 5953 033f 91f6 033f
00000030: e8af 303f 4795 793f 1cfe 9f3f 5648 0f3f
00000040: 9861 cb3e ea46 4f3f e427 883f a618 f73e
00000050: c19c d33e ec64 143f 8855 643f b6ef 313f
0.48923177 0.64592 2.4863496 0.561968 0.6842542 0.7452952 0.6828596 1.2932954
0.765628 1.6423261 0.51299053 0.51548105 0.6901841 0.97493404 1.2499423 0.5596975
0.39722896 0.8096758 1.0637174 0.48260993 0.4133053 0.57966495 0.8919301 0.69506395

down1.mpconv.1.conv.3.weight f4 [24, 24, 3, 3]
00000000: 75b9 b53d 00aa bc3d 96df e23c c1e7 13be
00000010: cf8f f33c 88a1 d53b 6dd4 9e3b e968 d7bc
00000020: f5b8 7f3d 02fd 8cbd 8037 e1bb b5c5 5abd
00000030: 16e5 89bd 19e7 04bd 912d 9c3d 6c73 a03c
00000040: b7c7 e93c 044b f63d 9520 713c d318 13bd
00000050: d325 923d 387d bcbd 6c43 d7bc d557 b23d
00000060: 7d89 ecbd c158 77bd fc0c 813d 499a 21bb
00000070: 75ed 2d3d f52e 103c 7c32 eabd 19be 4a3d
00000080: f3e7 8eba 392f 053c bd77 a03c e8c2 433c
00000090: d3aa 31bd 0b0d d63c 8405 ccbc 2468 21bd
000000a0: 1278 19bc 0ff6 04bc 2ebd cbbd e65d c2bc
000000b0: e560 08bd 74ec d73d 601f 8e3c aafc cebc
000000c0: b7d2 f03d 1fb7 ad3c 2ff3 8d3b 95c5 c23d
000000d0: 6e42 953c f4eb 8c3c 4146 a1bd c0f1 0dbd
000000e0: d61e 64bd 7162 bcbd f788 763d 9594 f53b
000000f0: 221a 83bd abb2 813d 11c0 19bb 1213 363d
00000100: 7360 c73d c1d9 4c3a e7e8 6cbd 9252 913d
00000110: 4ba7 d2bc c424 8e3a f41f 633d 6977 25bd
00000120: 5d17 a63d 06a0 183d ef5f b83b f9ef 033d
00000130: 4622 d1bc 4aba 8abc fb55 963d 1d04 6b3d
00000140: 87e1 5eba ac37 bfbb ca5b b5bd 5ef8 7c3b
00000150: 8cb3 a83c a689 2c3d a2ac 323d 21a8 223c
00000160: df3f 5fbd c671 263d 9262 40bd dd80 3f3d
00000170: 8e9a 5e3c 0019 0bbc 6706 9c3d b69d bbbb
00000180: fb7e 12bd 406d ee3d 2670 22bd fe42 153d
00000190: 7e98 83bc 0908 f0bb b2c8 643d 20bc cabc
000001a0: 9254 e4bc d7b5 1c3e 68bb bd3d 0d87 a03c
000001b0: 749e fabc 2141 83bd 06b5 84bb a9ac 2dbd
000001c0: c01d fdbd c15d ae3c 90cc d438 11a4 6dbd
000001d0: a582 e23c 2409 063d da8e 713d b88f bb3c
000001e0: f2d7 603d b1fe 843d 8d13 aa3d 74b4 8abc
000001f0: b426 bb3c ad27 3bbd c10e 143d c015 7e3d
00000200: 6ff0 74bb 4deb c63b 4566 d23d cc2b 1abd
00000210: 3911 d23a 5f67 073e 55f6 b5bd ccf0 213d
00000220: a193 e6bc 29ff 87bc ad53 39bd 6893 c4bd
00000230: a8f9 c1bc c4cb 013d 5a0b 25bd f120 2d3b
00000240: 3e75 c1bd 3365 85bd e1de a83c ce78 49ba
00000250: 9f04 10bd 2fc5 17bd 19ae 7abc 5c2f e7bc
00000260: 2027 f13c 65fb 7b3d 5563 733c 08b4 583b
00000270: 5b48 f23c b1ca 153e da8f a73c 3650 9c3c
00000280: 23e5 02bd 9d28 4bbc 4482 d43c e8d5 35bd
00000290: 7d4c 133d 8927 edbc 52d0 8d3c 8271 2c3d
000002a0: 3332 febc b3c1 9d3d 74f1 cc3c 2aff 6abd
000002b0: c8d3 2ebd 6e56 143c b739 01bd 9b46 d13a
000002c0: f76e 543d 5742 fcbc 769d 3dbd 036f b83c
000002d0: 3f0b 273d bb3a a1bc 18c1 34bc e57a 823d
000002e0: 60f3 16bd 805e 98bd c578 473d c37d 803c
000002f0: d73a 82bc 3c7e 913c 1a6f 183c ca19 03bc
00000300: 0116 633d dd7e a0bd f2f1 a6bc c287 943c
00000310: 91e3 f6bd b58a c9bb d07f cdba 0273 e53a
00000320: 82a4 cf3b dc81 ce3d 6a95 99bd 1753 14bd
00000330: 890b 92bc d31a 47bc 520b 61bd 3911 38bb
00000340: 19cb 543c 3e26 19bc cea8 8a3d 8eb7 1e3d
00000350: 763f 8a3d a0f5 af3d f392 33bc f447 383d
00000360: 0c2f 253c c9a6 97bd cf3c 3dbc 25d7 82bd
00000370: c0c5 2fbe b4cc 39bd e9c3 393a 16fa d8bd
00000380: 763d 1dbd c64b b3bc c0e8 3e3d 0e9a 58bd
00000390: f644 053d 33f9 eb3d 502d 06be aa1b 9bbd
000003a0: 79db da3d 9ff8 26bd a978 89bd 3588 60bd
000003b0: 832d ad3c d647 6b3c 197c 4f3d 0fc6 beba
000003c0: d5a0 5b3c 80f5 0a3d 1029 623d d0c9 7dbb
000003d0: a1d5 f83b 3093 ecbd bb61 1cbc 2cbe 93bd
000003e0: dd36 0dbe c1d7 f4bc a7c9 67bd d68e 36bd
000003f0: 4eea b7bc 2098 713a 064b e1bd ee82 74ba
0.08873264 0.092121124 0.027694505 -0.14443876 0.02973166 0.0065195 0.0048471005 -0.026295142
0.06243225 -0.06884195 -0.006873071 -0.053411204 -0.06733148 -0.032446954 0.076258786 0.019586287
0.028537614 0.12026027 0.014717241 -0.035912346 0.07136121 -0.09203571 -0.026277266 0.08708159
-0.11549661 -0.060387377 0.06301305 -0.0024658612 0.042462785 0.008800258 -0.114354104 0.049497698
-0.0010902866 0.008128935 0.019588346 0.011948325 -0.0433758 0.026129266 -0.024904974 -0.039405957
-0.009367006 -0.008115306 -0.099481925 -0.023726415 -0.03329553 0.10543147 0.017348945 -0.025266964
0.11758941 0.021205483 0.0043319683 0.09510342 0.018220153 0.017202355 -0.07874728 -0.03465438
-0.05569347 -0.09198464 0.060189214 0.007494519 -0.06401469 0.06332906 -0.0023460428 0.04445178
0.09735193 0.000781443 -0.0578393 0.07095827 -0.025714537 0.0010844697 0.055450395 -0.04039708
0.08109925 0.037261985 0.0056266706 0.032211278 -0.025529038 -0.016934533 0.07340618 0.05737697
-0.0008502234 -0.005835494 -0.08855398 0.0038600187 0.020593427 0.04212346 0.043621667 0.00992778
-0.05450427 0.040635847 -0.046969004 0.046753753 0.013586653 -0.008489847 0.07618409 -0.0057255877
-0.03576563 0.116419315 -0.039657734 0.03644084 -0.016063925 -0.0073251766 0.05585546 -0.024747908
-0.027872358 0.15303741 0.092642605 0.019595647 -0.030593134 -0.06408907 -0.0040499 -0.04240099
-0.1235919 0.02128494 0.000101470505 -0.058017794 0.027650187 0.03272356 0.058974124 0.022895679
0.05489344 0.06493891 0.0830451 -0.01693175 0.022845604 -0.045692135 0.036146883 0.06203246
-0.0037374755 0.0060705305 0.102734126 -0.037639424 0.0016026861 0.13223027 -0.08884875 0.039536282
-0.028146567 -0.016601162 -0.045245815 -0.09598428 -0.023678616 0.031688467 -0.04029403 0.002641734
-0.0944619 -0.06513443 0.02061409 -0.0007685543 -0.035160657 -0.037053283 -0.015300297 -0.028220825
0.029437602 0.061519045 0.014855226 0.0033066291 0.029575517 0.14628102 0.020454336 0.019081216
-0.031956803 -0.01239982 0.025941022 -0.04439345 0.035961617 -0.028949516 0.017311249 0.042100437
-0.031029796 0.07702961 0.025017478 -0.05737225 -0.04268244 0.00905381 -0.03154918 0.0015966477
0.051863637 -0.030793352 -0.046292745 0.022513872 0.04078221 -0.019681325 -0.011032365 0.063710965
-0.036853194 -0.074398994 0.04869916 0.015684968 -0.015897198 0.017760389 0.009303832 -0.008001754
0.055440906 -0.07836697 -0.02037904 0.01813114 -0.120551236 -0.0061505684 -0.001567835 0.0017505588
0.0063367495 0.100833625 -0.074992016 -0.036212053 -0.017827766 -0.0121523915 -0.054942437 -0.0028086437
0.012987875 -0.009347497 0.06770478 0.03874927 0.067503855 0.08591771 -0.010960328 0.044990495
0.010082018 -0.074048586 -0.011550142 -0.06388692 -0.1716528 -0.045361236 0.0007086383 -0.10594575
-0.03838869 -0.021886718 0.046608686 -0.052881293 0.03253647 0.1152214 -0.13103223 -0.07573636
0.10686392 -0.040764447 -0.06712467 -0.054817397 0.021139866 0.014360389 0.050655458 -0.0014554876
0.013405045 0.033925533 0.05521494 -0.0038725026 0.007593826 -0.11551511 -0.009544785 -0.07214007
-0.1379046 -0.029888036 -0.056588795 -0.044569813 -0.022450592 0.0009216089 -0.11000638 -0.00093273714

down1.mpconv.1.conv.3.bias f4 [24]
00000000: bb84 47bc c29e 183d d7d7 27bb 04ed 48bd
00000010: 0229 9737 ba0d 37bd 1d7f 593d f287 dabb
00000020: e14f ca3c 59d1 debc 7557 6bbd b8c1 65bd
00000030: 5238 4abc ee00 0abd 3c5b 9e3c 8718 3cbd
00000040: fdfb 0ebc f83a abbb c17b d43b 4d78 34bb
00000050: 6544 60bd 683b d8bc e45b e33c 276e 6dbd
-0.0121776415 0.03726078 -0.0025610828 -0.04905416 1.8019698e-05 -0.044690825 0.05309974 -0.006669038
0.024696292 -0.027199434 -0.057456452 -0.056092948 -0.012342529 -0.033692293 0.019330613 -0.04592183
-0.008727071 -0.0052255355 0.006484479 -0.0027537525 -0.054752726 -0.026395515 0.027753778 -0.057966378

down1.mpconv.1.conv.4.weight f4 [24]
00000000: 11ae 413f ef66 3c3f 1f46 2c3f 229c 553f
00000010: 5e95 653f ddc1 563f 8a06 603f 0080 5c3f
00000020: b184 623f bf78 763f 6c03 4b3f b318 843f
00000030: e481 463f 3010 443f 0466 353f a4c3 2e3f
00000040: 3ccf 813f 250b 393f 2239 3f3f 3fa6 603f
00000050: f0e1 3d3f a2c2 643f 0824 5c3f f1af 413f
0.7565623 0.73594564 0.67294496 0.83441365 0.8968104 0.8388956 0.8750998 0.8613281
0.8848372 0.96277994 0.79302096 1.0320038 0.7754195 0.765872 0.7085879 0.68267274
1.0141368 0.7228263 0.7469655 0.8775367 0.7417288 0.89359486 0.8599248 0.7565909

down1.mpconv.1.conv.4.bias f4 [24]
00000000: 2c42 793f f3d8 213f 660c 283f 18ad aa3e
00000010: a028 843f 3f31 383f 752a 0c3f dc2f 153f
00000020: 3398 4d3f 1684 3d3f 36fa d63e 2c46 dabe
00000030: 918f fa3e ec60 1d3f 4bc5 4e3f 40c3 0d3f
00000040: 8d94 2b3f eab3 313f 45da 1f3f b4b1 c23e
00000050: 84a3 833f 35ba 4f3f 4df6 3d3f 9b6b 303f
0.97366595 0.63221663 0.6564392 0.33335185 1.0324898 0.71950144 0.54752284 0.5827615
0.8031036 0.7402967 0.4198777 -0.42631662 0.48937657 0.61476016 0.80769795 0.5537605
0.67023546 0.6941515 0.6244243 0.38026202 1.0284276 0.81143504 0.7420395 0.6891419

down1.mpconv.1.conv.4.running_mean f4 [24]
00000000: 6951 bc3e 624e f5bd 55ca 00bf b2b8 afbe
00000010: c9b2 24bf 23df 28be 3ae4 663f 5d03 3cbf
00000020: 15b1 d03d f31a 863d d0d2 f5bd 37ea c73f
00000030: 7453 20be d440 f9be 41e0 44be 0995 d2bc
00000040: 355f b8be 3613 01be c13c af3e 180c 6dbf
00000050: 7fab 2bbf f082 593e e347 fabe f5d5 37be
0.3678086 -0.11977841 -0.50308734 -0.343206 -0.64335304 -0.1649137 0.90191996 -0.7344263
0.10190026 0.06548109 -0.120031 1.5618352 -0.15656835 -0.48682272 -0.19226171 -0.025705831
-0.36010137 -0.12604985 0.3422604 -0.9259658 -0.6705856 0.21241355 -0.4888297 -0.17952712

down1.mpconv.1.conv.4.running_var f4 [24]
00000000: c024 333f f20b c53e de4f 0b3f 4492 833e
00000010: 9302 ad3f 900b 253f 86e3 b23f f0f0 953e
00000020: 4935 933f 038b d53f ee08 353e 32ae 8f3f
00000030: 22fb e43e 5a0a 573e c755 ce3e a0b3 5c3e
00000040: d19b d43f 6247 a23e 5c6c db3e 6e0f b63e
00000050: 33d4 e33e 8e83 803f 0340 903f ad95 a43e
0.6997795 0.38485676 0.5441874 0.2569753 1.351641 0.6447077 1.3975685 0.29285383
1.1500636 1.6683048 0.17679188 1.1225035 0.4472285 0.21000043 0.40299818 0.21552896
1.6610051 0.31695086 0.4285611 0.35558647 0.44497833 1.0040147 1.1269535 0.32145444

down2.mpconv.1.conv.0.weight f4 [48, 24, 3, 3]
00000000: 41cd 1d3b df49 febb 7ef0 b1bd 6c67 613c
00000010: 44ce a4bd aec2 063c b9d7 d7bb e594 3cbc
00000020: c161 903c bd6b 933c d3e9 c9bc 0d9a b13d
00000030: 44a2 93bd b153 d03c 0168 79ba 8508 a13c
00000040: a91f 3fbb 0907 9e3d 3d4d ac3c 0bd5 8abc
00000050: 84fa 883d b7f3 e4bc 0cad da3d e915 9b3a
00000060: 719b d0bb bd1d a4bb 8af0 1d3d 3d87 63bd
00000070: 5a9c 1d3d f5bd d13b c830 c4bc 63ad fcbc
00000080: 9329 b23c 9e6b 81bd 1dc5 8dbc c0a1 923c
00000090: 4df9 453c 0dc0 f2bd 7896 953d 3722 e4bb
000000a0: d9ad 4d3e dadd 983c 18a7 953c a935 b2bd
000000b0: 4ddc 8f3d ba90 033d af1d 9bbd 1cd4 54bb
000000c0: 2d00 693a f344 443d e477 87bc 12ba 5e3c
000000d0: aed4 51bd ecf4 d43c 0c1a 07be eaee 173a
000000e0: 6e6b 1a3d af54 0e3c be97 4a3d 3c03 42bd
000000f0: a6f2 febc 4f4f 603d a89f d23c 0c68 713d
00000100: 1936 ebbc 4692 24bd e6ce 1e3d 8391 ec3b
00000110: c7fb ebbd 9611 f03c 3221 a3bd 4864 99bd
00000120: e7ed 7ebd 264c c23c becd 223c 7f76 b6bd
00000130: ed28 183d 2918 013d 6c71 2abd 4ddb 0d3d
00000140: f473 243d 7771 d53b fcc7 663b 8d62 113d
00000150: 6ef7 073d 2a94 f2bc 4909 9fbc 628b 0abd
00000160: 280f 24ba b399 8f3d 0bf0 9a3c de30 6d3d
00000170: dcca 3bbc 4223 0d3c cb21 c03c 8255 6bbc
00000180: eed2 05bd a5dd 073e e168 223d f304 9a3d
00000190: 9f45 583c c746 80bd 6da0 533d a728 6ebd
000001a0: ed46 24bd 6e6f aa3d 7077 2d3c 7a14 dfb8
000001b0: 78d0 26bd c620 16bd 9671 a93c e203 16bd
000001c0: ee8d ee3a 255b 863d b7b8 d7bd 43fc 523c
000001d0: 1a47 ed3c 0bae a2bd 7e91 393d 75cd 1cbd
000001e0: 8847 83bc 53ab 10bd 6b0d a33c 3a68 ddbb
000001f0: eb76 4f3c af9d 67bc 1764 993c 99f6 84bd
00000200: 374b 993d 07a6 b43d c34e 9ebd 8813 9abb
00000210: efdc 283c 4515 5b3d cb12 933c 669c f33c
00000220: 134b 143c 0d51 083d d6bc fbbc 89a1 24bc
00000230: 530c 373d dd70 523d c818 a2bd 1ae7 4abd
00000240: adac 773d fc37 57bd f2fc 623c c791 d0bc
00000250: f652 f1bc 64f1 483e 8be4 903d a62e 81bd
00000260: 0a96 2f3d 435d 2d3c 5b0e 1c3d 4d82 3e3c
00000270: 4c9b ba3d 114c 0cbe 5c85 43bd b443 533c
00000280: 41f3 6ebd 9535 e8bb bb45 3d3d 5817 28ba
00000290: ecfe 8bbd 1744 da3d 7763 60bc 4cab eebd
000002a0: 5a29 5a3d 4dde 76bc aac1 483d 4ba0 a53c
000002b0: 7205 25bd 6b61 af3b 1b2f 46bb 025f 313c
000002c0: 9cca 78bd 7d88 903d 9b45 0ebd 3e22 7b3d
000002d0: 3f8b 4cbd 364b 15bc a533 ed3a af28 6bbd
000002e0: 8f42 05bd 792a 423c 4776 113d eed5 98bd
000002f0: cb88 f8bc e219 b7bc c5ac b7bb bdc9 d93c
00000300: 4ba4 85bd 3fbd 08bd 493a c93d dbb4 42bc
00000310: 952d 85bd 3540 58bc 6c61 13bd 1482 203d
00000320: 951f 42bd e342 c03d b367 10be 0e62 a63d
00000330: 2c55 b1bd 723f eb3c e895 d43c 375a bb3d
00000340: 48d3 b8bd 97f6 fa3b 3f3f 343d 13c0 ce3d
00000350: 820f e63c 5408 f03d a429 62bd 163a bdbc
00000360: ee84 033d 41f3 883d 2e89 a83d 343f 8ebb
00000370: 9f72 1d3e 8960 703d 7ca9 1dbc 316b a43d
00000380: 9a65 d33d d103 debb 6de1 513d 15af aabc
00000390: dc3c a939 6f7d 643e cebd c8bb 525a 8b3c
000003a0: 7d75 023e 5037 b53d 1eb6 98bd ff15 ebbc
000003b0: 370c 7abd 2735 86bc a1a0 75bd 0b36 753d
000003c0: a5c8 2abd 4a7e bdbd 3f00 d1ba 4b32 86bd
000003d0: de10 21bd de95 b6bc ad42 d6bc 2bbd 30bc
000003e0: e6f6 853c a956 2dbd 7abd b0bd 6559 8dbc
000003f0: 550f c23c 8e27 df3c 412e 0d3d 104c 5f3d
0.002407864 -0.007760271 -0.08688448 0.013757568 -0.080471545 0.008225126 -0.0065869954 -0.011510109
0.017624738 0.01799571 -0.024647629 0.08671961 -0.07208684 0.025430532 -0.0009514094 0.019657383
-0.0029163158 0.077161856 0.021032924 -0.01694729 0.06688407 -0.027948244 0.10677537 0.0011832091
-0.0063661863 -0.005008428 0.038559474 -0.055548895 0.038479187 0.0064008185 -0.023949042 -0.030844396
0.02174834 -0.063193545 -0.017305905 0.017899394 0.012083364 -0.11853037 0.0730409 -0.0069620865
0.20085849 0.018660475 0.018268153 -0.08701641 0.07024441 0.032120444 -0.07574021 -0.003247506
0.0008888271 0.047917318 -0.01653666 0.013594167 -0.051228218 0.025995694 -0.1319353 0.0005795794
0.03770011 0.008687182 0.04946112 -0.047366366 -0.031121563 0.054763135 0.025710896 0.058937117
-0.02871232 -0.04017856 0.038771532 0.007219495 -0.11522632 0.02930526 -0.07965316 -0.0748983
-0.0622386 0.023717951 0.009936748 -0.0890932 0.037148405 0.03151718 -0.041612074 0.03463297
0.040149644 0.00651377 0.0035214415 0.035494376 0.03319495 -0.029611666 -0.019413607 -0.033824332
-0.0006258362 0.07011738 0.01891329 0.05790793 -0.01146194 0.008614363 0.023453614 -0.014363648
-0.03267186 0.13268144 0.0396508 0.07520475 0.013200193 -0.062635 0.051666666 -0.058144238
-0.040106703 0.08322035 0.010587558 -0.00010637283 -0.040726155 -0.03665235 0.020684045 -0.036624797
0.0018200257 0.06560353 -0.105332784 0.012877527 0.028964568 -0.07943352 0.045304768 -0.038281877
-0.01602532 -0.035319638 0.01990386 -0.0067568095 0.01266263 -0.014136716 0.018724484 -0.06492347
0.07485049 0.0882073 -0.07729866 -0.0047020353 0.010306581 0.05348708 0.017953297 0.029737663
0.009051102 0.03328042 -0.030729692 -0.010048279 0.044689488 0.051377166 -0.07914883 -0.049536802
0.06046741 -0.052543625 0.013854252 -0.025460137 -0.029458504 0.19623333 0.07074841 -0.063077256
0.042867698 0.010581317 0.038099628 0.011627746 0.09111652 -0.13700892 -0.047734603 0.01289456
-0.058337454 -0.0070864656 0.04620908 -0.000641217 -0.06835732 0.10657518 -0.013695589 -0.11653766
0.053262092 -0.015067649 0.049012817 0.020218035 -0.040288396 0.0053521893 -0.003024048 0.010825874
-0.0607401 0.07057283 -0.03473435 0.061311953 -0.049937483 -0.00911217 0.0018097056 -0.057411846
-0.03253418 0.011850947 0.03551319 -0.07462679 -0.030338665 -0.02235121 -0.0056053125 0.026585454
-0.06525477 -0.033383604 0.0982557 -0.01188394 -0.06502835 -0.013198902 -0.03598158 0.039186552
-0.0473934 0.09387758 -0.14102058 0.08124171 -0.08658823 0.028716777 0.025950387 0.091480665
-0.09024674 0.0076587903 0.04400563 0.10095229 0.028083567 0.117203385 -0.055215493 -0.023098987
0.032109194 0.06687022 0.0822929 -0.0043410305 0.15375756 0.058685813 -0.009622928 0.08028258
0.10322113 -0.0067753573 0.051240373 -0.020835439 0.00032279536 0.22313474 -0.006126142 0.017010842
0.1274013 0.08848441 -0.07456611 -0.028697012 -0.061046805 -0.016382767 -0.05996764 0.059865993
-0.041695256 -0.09252603 -0.0015945508 -0.06552561 -0.039322726 -0.02228826 -0.02615484 -0.010787289
0.016353082 -0.042318974 -0.0862989 -0.01725454 0.023688952 0.02724054 0.03446794 0.0545159

down2.mpconv.1.conv.0.bias f4 [48]
00000000: e819 cdba b5f7 813d 5c46 1fbd 928e fbbb
00000010: 88ba 21bd ce27 4c3d 1363 2abd c088 90b9
00000020: 8462 cebc d8d4 893d f078 293d 94d9 22bc
00000030: 5c99 13bd 5b6a 07bc 4181 87bd 7df1 71bd
00000040: 5287 f7bc d022 153d 1496 4bbd 0140 093d
00000050: 9e92 e7bc 16b1 643d 1bbf f83c e5a3 75bd
00000060: e439 903c 0300 bdbc bfd7 b6bc 726a 32bd
00000070: 686c 30bd bbbc 943c 4fb2 643c a4cf e4ba
00000080: 2f4d fd3b bcd3 d33b a4bc 1d3d 3ea1 d3ba
00000090: 4a35 4d3d e04c 26bd 0fb8 783d e56d 393b
000000a0: 25ff 6fbd 3439 c83c c6b5 74bd 0ecf 463c
000000b0: 980d 033c 8515 793b 0bbc 413d 11be 7cbc
-0.001564798 0.063460745 -0.03888546 -0.007676908 -0.03948453 0.04984265 -0.04159839 -0.00027567707
-0.02519346 0.0673005 0.0413751 -0.00993957 -0.036034927 -0.008265103 -0.0661645 -0.05906819
-0.030215893 0.036410153 -0.049703673 0.033508305 -0.028268155 0.055832945 0.030364564 -0.059970755
0.01760573 -0.023071295 -0.022319673 -0.043558545 -0.043072134 0.0181564 0.013958528 -0.0017456901
0.0077301483 0.0064644497 0.03850998 -0.0016146076 0.05009965 -0.040600657 0.060722407 0.0028294262
-0.058592934 0.02444134 -0.059743665 0.012134327 0.0079988465 0.0038007211 0.047298472 -0.015426175

down2.mpconv.1.conv.1.weight f4 [48]
00000000: 3e05 4e3f b6fd 7b3f b1a2 e73f 6225 543f
00000010: 909f 563f 6711 603f 495c 4a3f 9d2a 463f
00000020: a30e a53f 6236 413f 1a6e 663f dce5 4e3f
00000030: dc91 403f 04b2 4e3f 83ed 433f 3330 643f
00000040: 7041 4f3f f9f8 323f a6f0 a43f 678b 743f
00000050: cb17 3b3f 9185 953f b7ef 223f 8cb5 5e3f
00000060: 0d58 4e3f 416c bd3f f955 453f 24ff 683f
00000070: 2765 753f 7448 313f 491d 413f 90ea 593f
00000080: 16d0 573f 0945 7c3f 4573 333f d2d2 5c3f
00000090: f066 843f 4c57 383f 6fc1 593f a115 743f
000000a0: de50 6d3f 5381 473f ff6b 323f e2d9 473f
000000b0: cac8 8b3f abc4 713f 5cd2 2e3f 0961 593f
0.8047675 0.9843401 1.8096524 0.8286954 0.83837223 0.87526554 0.79047066 0.7740877
1.2895092 0.75473607 0.9001175 0.8081949 0.75222564 0.8074038 0.7653429 0.89136046
0.80959225 0.6991115 1.288594 0.9552521 0.7308318 1.1681386 0.63647026 0.8699577
0.80603105 1.4798661 0.7708431 0.91014314 0.9585747 0.6925118 0.7543531 0.8512354
0.8430189 0.9854284 0.7009776 0.86259186 1.0343914 0.72008204 0.8506078 0.95345503
0.9270152 0.7793171 0.6969604 0.7806684 1.0920651 0.94440717 0.6828973 0.8491369

down2.mpconv.1.conv.1.bias f4 [48]
00000000: b18a ec3d 0f1c ed3b cd53 c3be 98ee 0c3f
00000010: f3e8 113d dad1 ed3d 14d4 fa3e 006e 973e
00000020: c259 29be 64a2 523e 5db2 2b3e a233 4b3e
00000030: c1ec 483e 57f0 d93e 0ca1 ac3e fa54 083e
00000040: 8085 713e f6a5 fd3e 134c 38bf c734 593e
00000050: 16f0 ce3e 8fc0 9dbe 3281 e53e 3728 3f3e
00000060: b4a3 6d3d cbf7 30be d1cf ac3e f204 443d
00000070: 38d7 d03e 64cd 0e3f 719d 413e bf33 363e
00000080: 30e1 263e 4a46 7c3c 7b54 6b3e 7eb5 f73e
00000090: c0e5 0fbc 6a1c 5e3e 3f5c 413e daed 443f
000000a0: 8953 1e3f 924e 213f 35bb e43e ea14 853e
000000b0: a1b1 d93e 0547 0cbe 5714 be3e 50c0 ef3e
0.11549891 0.007236011 -0.38149872 0.55051565 0.03562255 0.11612292 0.48989928 0.2957611
-0.16538146 0.2056976 0.16767259 0.19843915 0.19621564 0.42566177 0.3371662 0.13313666
0.23586082 0.4954068 -0.7199108 0.21211539 0.40417546 -0.30810973 0.4482513 0.18667684
0.058017448 -0.17282026 0.337523 0.04785628 0.407892 0.5578215 0.18907715 0.17793177
0.1629684 0.015397618 0.22981445 0.48380655 -0.008782804 0.21690527 0.18882845 0.7692543
0.61846215 0.63010514 0.44674078 0.2599252 0.42518333 -0.13698967 0.37124893 0.4682641

down2.mpconv.1.conv.1.running_mean f4 [48]
00000000: 0cf6 313e 5e8c 92bf 9c2a f3bf 7d5d 0e3f
00000010: c1ec 22bf 5598 42bf 76c1 063f b0e1 05be
00000020: af40 b7bf 0ba5 a6bd 84eb 35bf 4110 14bf
00000030: a14a e9bd 711e 0c3f e595 cf3e 0368 20bf
00000040: 529a 8e3e 8fee 27bf 22e2 3fc0 480f 013f
00000050: 4f6f a8bf f39b 77bf 654d 9a3d 6449 44bf
00000060: d5a4 37be 3f18 12c0 9eb7 24bf 2aa5 0bbf
00000070: 805a 0b3f ba18 a8be 6368 b03e 3ec2 55bd
00000080: 425f 4bbf bd20 dbbd 0f34 ebbd fc59 103f
00000090: 163e 35bf d48f 2bbc d2c7 ddbe 51c0 ab3f
000000a0: 9829 b93f 38a3 0540 819c b5bd a7a2 72be
000000b0: c047 6b3f 579d e6be d7ee 58bf 0683 6f3f
0.17379016 -1.1449087 -1.8997378 0.556114 -0.6364251 -0.7601369 0.5263895 -0.13074374
-1.4316615 -0.08136948 -0.71062493 -0.578373 -0.113911875 0.5473395 0.40544048 -0.6265871
0.27852112 -0.65598387 -2.998177 0.5041394 -1.3158969 -0.96722335 0.07534293 -0.76674485
-0.17933972 -2.2827299 -0.6434268 -0.54548895 0.5443497 -0.32831365 0.3445464 -0.052187197
-0.79442227 -0.10699604 -0.11484539 0.56387305 -0.7079786 -0.010471303 -0.43316513 1.3418065
1.4465818 2.088087 -0.088677414 -0.2369486 0.91906357 -0.45041916 -0.8473944 0.935593

down2.mpconv.1.conv.1.running_var f4 [48]
00000000: a057 023f 65ec b13e 9c8c af3f b219 783f
00000010: 8cef c33e 703d f63e e140 ef3e 2494 a53e
00000020: 164d 4b3f d8f7 cc3e ca4d cb3e f1dd dc3e
00000030: 87bc bb3e 9b03 453f ab1f 193f ab70 773f
00000040: 9e48 e83e c6c9 fe3e 69f2 473f b886 463f
00000050: 8ace e93e a5c7 5b3f 7723 9e3e 4855 333f
00000060: bdbf cd3e 6366 4c3f 96e4 e53e 265c 783f
00000070: b632 983f cccc ec3e fbc9 a33e 7ff0 5d3f
00000080: 8e1f c43e 60cc 1d3f 1430 bc3e dfec 253f
00000090: 91d0 3e3f e960 743e a79d bc3e e360 a03f
000000a0: 3818 8e3f bcd7 463f e07a ab3e 5dd2 b93e
000000b0: cd42 d03f 6130 433f f729 963e 2649 283f
0.50914955 0.34750667 1.3714786 0.9691421 0.38268697 0.48093748 0.46729186 0.32339585
0.794145 0.4003284 0.39707786 0.43138078 0.36667272 0.76958627 0.59813946 0.9665629
0.45367903 0.49763316 0.78104264 0.77549314 0.4566539 0.8585151 0.30886433 0.70052004
0.40185347 0.7984373 0.4490096 0.9701561 1.1890476 0.46249998 0.31990036 0.8669509
0.38305324 0.61639977 0.3675543 0.6481456 0.74537 0.23865093 0.3683903 1.2529567
1.1101141 0.77672935 0.33492184 0.36293307 1.6270386 0.76245695 0.29328892 0.65736616
